Final Project/LEM-main/models/lorenz96/10/model.pt (torch, 725207 bytes, 6 tensors)

rnn.weights f4 [600, 220]
000000 ff f4 09 bd 0e 15 20 be 4d c1 e5 bd 35 00 3c 3d
       -0.033680912 -0.15633032 -0.1121851 0.045898635
000010 55 9d 69 3d 7a 62 04 3e 23 95 50 be bf b3 40 3d
       0.05703481 0.12928191 -0.20369391 0.04704642
000020 4d c2 a1 3d 9a 05 8f bd 5b fe 06 be 2c b2 b1 bd
       0.07898388 -0.0698349 -0.13182966 -0.08676562
000030 98 72 3c 3c d3 7c 05 3d 75 62 0a bc 92 1d 10 be
       0.011501931 0.032589745 -0.008446326 -0.1407378
000040 8d a8 66 be 50 65 a4 bc 2c fb 26 3d 85 b8 d0 3d
       -0.22525235 -0.02006784 0.04076688 0.10191444
000050 2d b0 ae 3c 30 2d 96 3d f8 86 10 3e d0 d6 2e 39
       0.021324242 0.073328376 0.14113986 0.00016673957
000060 56 1a 1e 3e 91 48 b1 3e 88 c6 24 bd 99 b6 53 3e
       0.15439734 0.34625676 -0.040228397 0.20675124
000070 0a 2f b1 3d 40 0d 52 be c5 3a 05 3e f9 cd ab bd
       0.0865155 -0.20512867 0.130107 -0.083888955
000080 ee 24 7d bd d6 5b 74 be b2 34 de 3c b8 99 1c be
       -0.061802797 -0.23863158 0.027124736 -0.15293014
000090 fa 71 a7 bb fd bf bb 3d 6d b3 f1 3d c7 6e b8 bd
       -0.0051100226 0.09167478 0.11801801 -0.09005504
0000a0 57 fd 0a be 66 9d b4 3d 59 6d d6 bc a7 1b 61 bc
       -0.13573204 0.08819084 -0.026175188 -0.013739503
0000b0 a3 43 36 bd 80 61 63 be c3 d7 69 3d 68 2f 19 bc
       -0.044498097 -0.22205162 0.057090532 -0.009349681
0000c0 c9 bf 2c 3e 5e 61 b0 3d d6 db 9f 3d 51 20 54 3e
       0.16870035 0.08612321 0.07805602 0.20715453
0000d0 73 63 88 3d 7f f5 31 3e e3 d8 e2 3d 41 6f 02 3d
       0.066595934 0.17378806 0.11076524 0.03184438
0000e0 e4 62 76 3d 1c 2f ea bc b8 54 10 be af 1b 8c 3d
       0.060152903 -0.028586917 -0.14094818 0.06841218
0000f0 cd 13 e5 3d c3 8c 5f bd 06 e3 c3 3d 9c ab 8f be
       0.11185417 -0.0545776 0.09564786 -0.28060615
000100 07 b4 27 be 47 d2 e5 3d 2d d3 a8 bd ee f1 96 3c
       -0.16377269 0.11221748 -0.082434036 0.018425908
000110 61 a0 72 be 65 ea 0e 3e 47 d7 33 3e 25 15 f4 3c
       -0.23693992 0.13956602 0.1756259 0.029795239
000120 8d 26 8b be c6 04 7c 3d e7 b6 67 bc 6c 81 f4 3b
       -0.2717785 0.06152799 -0.014142728 0.0074617174
000130 99 21 d6 3d 1e 65 26 3e d2 99 3e 3e d2 d0 44 bd
       0.10455627 0.1624951 0.18613365 -0.04805071
000140 2f 18 35 bc 5f 81 a6 3d da 20 76 bc 42 04 87 3d
       -0.011053129 0.08130144 -0.015022481 0.06592609
000150 b1 44 70 bd d4 ee 18 3e bf 9f 7b bd 90 10 a9 bd
       -0.05865926 0.14934856 -0.061431643 -0.08255112
000160 ed 94 48 be ed 57 2f 3e 7f f0 18 3e 0c a5 f3 3c
       -0.1958806 0.17123385 0.14935492 0.029741786
000170 47 e9 4c be 34 33 4a 3c 5c 4f d8 bd da de 47 be
       -0.20010863 0.012341309 -0.105620116 -0.19518605
000180 18 53 0b be 24 35 4a bd 36 4f 47 bd 71 a3 c4 bd
       -0.13605917 -0.049367085 -0.048659526 -0.096014865
000190 35 7f c7 bd 5d c7 a1 3a f9 7e 3a 3e 82 1c bd 3d
       -0.0974106 0.001234274 0.18212499 0.09233953
0001a0 84 c3 ed bd 4a db 5c 3e e6 63 94 3d 30 ec 8d 3c
       -0.11609557 0.21568027 0.072456166 0.017324537
0001b0 63 b0 ba bb db 43 ab bd b2 bf 14 bd 8b 02 dc bd
       -0.0056972965 -0.08362552 -0.036315627 -0.107426725
0001c0 b5 36 d6 bc 1c de 01 be 40 1c 9c 3d c2 82 06 3e
       -0.026149133 -0.12682384 0.07622576 0.13135818
0001d0 a6 64 04 3e 45 ac 6d 3d 4e a0 e6 3d a2 e7 1d 3e
       0.1292902 0.058025617 0.112610444 0.15420392
0001e0 a6 9c 5e be 52 bd c3 3d f2 a3 be 3b 84 9d e8 bc
       -0.21739444 0.09557594 0.0058178836 -0.028395422
0001f0 58 a8 ab 3d c6 69 dd 3d bd cf a5 bc d0 4e 29 bd
       0.083817184 0.1081119 -0.020240659 -0.041334927
000200 1f 34 8f 3e 94 33 b5 bd 87 49 dd 3c 40 8d 56 3e
       0.27969453 -0.08847728 0.0270126 0.2095232
000210 da 13 36 be 91 2b 22 be 02 8f 32 bd e2 eb c2 bd
       -0.1778101 -0.15836932 -0.043593414 -0.09517647
000220 46 b4 4b 3d 43 43 21 be 9d 42 d9 bd f8 56 5e be
       0.04973247 -0.15748315 -0.106084086 -0.21712863
000230 75 e1 b2 bc 6e 7f 95 3c 57 eb 9b 3b cf 55 83 3d
       -0.021836022 0.01824924 0.0047582793 0.06412851
000240 b8 b5 84 3d df 93 8e 3d 13 5d 0c be 2b 8c 37 3d
       0.064799726 0.06961798 -0.1370738 0.04481141
000250 1c 72 b3 bc 7c 3a 0b be a0 41 05 be 1e b2 3f 3d
       -0.021904998 -0.13596529 -0.13013315 0.046800725
000260 0f 42 85 3d 6d 13 a5 bd 31 9b 97 bd 3d d2 1d be
       0.0650674 -0.08060346 -0.07402647 -0.15412231
000270 fc e5 cc bb 57 d2 85 3e b7 ce 82 3e c9 d6 c9 bd
       -0.006253002 0.2613704 0.25548336 -0.0985542
000280 1b 4f df bd 8d 16 70 bc f1 37 b4 3d 7b 32 61 3a
       -0.1090376 -0.014653814 0.087997325 0.0008590591
000290 68 60 22 be 36 80 74 3b 79 eb db bd 12 2d 90 bd
       -0.15857089 0.0037307865 -0.10738272 -0.070398465
0002a0 cc 94 fe 3d 2b a1 f2 3d d7 36 ac 3d b3 be 51 bd
       0.124307245 0.118471466 0.08408897 -0.051207256
0002b0 71 eb d6 ba ec 19 22 bd 45 cd 3f bc 03 91 19 3e
       -0.0016397071 -0.039575502 -0.011706655 0.14996724
0002c0 da 50 9a 3d e6 99 bd bb db 90 81 bc 7e 74 26 3c
       0.075349525 -0.0057861684 -0.015816143 0.01015961
0002d0 95 7d 84 3d dc 13 6f bd 47 9c 01 be d1 27 2b be
       0.06469265 -0.05836855 -0.12657271 -0.16714408
0002e0 01 3f 08 3e b2 40 0f be e8 15 26 3e 2d d4 47 3c
       0.13305284 -0.13989523 0.16219294 0.012196583
0002f0 6a b4 07 be 27 58 e9 bd 7a 62 80 bd c5 a5 1c bc
       -0.13252416 -0.11393767 -0.06268783 -0.009561007
000300 ee fc f8 bc 72 21 bb 3d 5c f2 09 3e 06 e7 9a 3d
       -0.030394044 0.091372386 0.13471359 0.075635955
000310 6d 8d b2 bd 37 7c ff 3c 40 e5 97 3b 61 67 2b 3e
       -0.08718381 0.03118716 0.004635483 0.16738655
000320 df 24 32 3d 13 1e 1f bd 38 f6 40 3c e3 a7 1a 3d
       0.043492194 -0.03884704 0.011777453 0.037757766
000330 32 4e 8f 3c 86 a9 0c 3d bc 9b 41 3c 9f ce 11 3c
       0.017493341 0.034341358 0.011816915 0.00889936
000340 34 11 bd 3c 28 b1 2a bd 23 1a 80 3d 4f 27 47 3e
       0.023079492 -0.041672856 0.06254985 0.19448589
000350 36 d0 c4 bd 4c f6 e8 3c 3d d2 26 be ab 2c b0 bd
       -0.096100256 0.028437756 -0.16291137 -0.0860227
000360 83 26 a9 bc f2 0c f6 bb c6 dd df ba bd ea a2 bd
       -0.020648247 -0.0075088674 -0.0017079643 -0.07954929
000370 1b 45 9e bd 0c 08 5f be 8d 48 00 3d 04 08 9a 3d
       -0.077280246 -0.21780413 0.03131919 0.0752106
000380 c9 0e 9f 3d e6 56 20 3e 88 d6 76 3d b9 54 b2 3d
       0.07766492 0.15658149 0.060263187 0.08707566
000390 f6 4c cf bd 82 68 47 bd e9 89 8b bd 32 7d b0 bd
       -0.10122101 -0.04868365 -0.06813414 -0.08617629
0003a0 18 a4 cb bd 7d 97 89 3d 20 76 65 bb 36 07 8c be
       -0.09943408 0.06718347 -0.0035013035 -0.27349252
0003b0 f8 10 b6 bc 0f 64 5a 3d bf fe 4d 3d 8d 25 27 3d
       -0.022224888 0.05331808 0.050291773 0.040807296
0003c0 1a 93 90 bd 71 03 65 3d 09 b3 26 3d 2d f5 35 bc
       -0.070593074 0.055911485 0.040698085 -0.011105818
0003d0 7b 64 b1 3d b2 e0 44 3e 6d bc d2 3d e1 35 0f 3e
       0.08661743 0.1922634 0.102898456 0.13985397
0003e0 01 1a a9 3d e1 95 4f be 67 6c d1 3d 78 b0 8b be
       0.08256913 -0.20272018 0.10225754 -0.27283072
0003f0 6a 19 fa bd 73 75 72 3c 49 a8 53 be fa 33 c4 3d
       -0.122118786 0.01479851 -0.20669664 0.09580226

rnn.weights_lin_z f4 [200, 220]
000000 5d df 6b 3c 51 22 42 3d 3a 51 d4 bb 26 10 96 3d
       0.014396516 0.047396008 -0.0064794095 0.07327299
000010 0d c2 a1 bd 31 e1 08 3c 76 1c 8c 3d 47 bc 86 3d
       -0.078983404 0.008354471 0.06841366 0.0657888
000020 5f 18 0a bb 63 7a af 3d 20 47 c0 bd c0 b6 68 bd
       -0.0021071655 0.08568265 -0.09388566 -0.05681491
000030 a5 c3 37 bd 45 d9 84 bb 1d 4d 7d 3d 74 14 b0 3d
       -0.044864316 -0.004054221 0.06184112 0.08597651
000040 70 aa ae 3b 28 aa ac 3d b6 5a 75 bd 25 3f c5 3d
       0.0053303763 0.08430892 -0.05990096 0.096311845
000050 66 19 90 bc 18 28 a4 bd f5 ed d9 bd 0e c5 c3 bc
       -0.017590236 -0.0801546 -0.1064109 -0.023897674
000060 ab 7c 9b bc 67 3e e0 3c 70 d0 79 bc d7 87 81 bd
       -0.018980345 0.027373506 -0.015247449 -0.063247375
000070 96 ee 7d bd 84 f7 13 be 73 fd 2d 3d cc e4 5d 3c
       -0.06199511 -0.14449888 0.042478036 0.013543319
000080 d1 f9 8c bc 0f a0 c9 bc fc b0 c6 3c 5c 84 dc bc
       -0.017208965 -0.024612455 0.024254315 -0.026918583
000090 4e 47 d7 bc 15 4c 77 3d 75 65 bd 3a 82 fa 9f 3c
       -0.026279118 0.06037529 0.0014449792 0.019528631
0000a0 0b 25 2f bd ce 72 59 bd 25 da ba bd 81 24 41 bd
       -0.042759936 -0.053088002 -0.09123639 -0.047153953
0000b0 cc cf 11 bd 2c 92 fa 3d d7 8e 2c bc 81 5f f8 3d
       -0.03559856 0.12234911 -0.010532103 0.12127591
0000c0 c3 a9 c5 bc 25 48 aa 3c 1e 21 6c bd 8e 75 9b 3a
       -0.0241288 0.020786354 -0.05764877 0.0011860596
0000d0 3f cf 3e 3d 5a c6 f8 3c 6d 6f a5 3c 1e 1f 9d 3d
       0.046584364 0.030368019 0.020194734 0.07671951
0000e0 57 11 b4 bc 78 87 e0 3c 67 33 e0 3d 39 a7 ec 3c
       -0.021980925 0.027408347 0.10947304 0.028888332
0000f0 a9 34 23 3d 7f 13 51 3d 00 fd 91 bd 0b 2b d6 3a
       0.039845143 0.051043984 -0.07128334 0.0016339732
000100 2c 35 c0 bc a3 60 df 3d 8d da 3f bd 9f b6 e5 3b
       -0.023462854 0.10907104 -0.046839286 0.0070102955
000110 79 a5 1c bd 4e e0 c8 3d 4d 0f 92 3b 8c 59 0b 3e
       -0.038243745 0.09808408 0.0044573904 0.13608378
000120 8e 07 70 bc 1c a1 52 bd c6 66 a5 bd f8 bb a9 ba
       -0.014650239 -0.051423177 -0.08076243 -0.0012949696
000130 c5 5b bf 3c 72 7f 13 bb 93 d9 8d bb 6b 7e ab 3b
       0.023359189 -0.0022506383 -0.0043289154 0.005233576
000140 c2 ae 66 bc 72 a2 da 3c 5d 54 09 3c 59 be 93 bd
       -0.014079751 0.026688788 0.00838193 -0.0721404
000150 cf c9 6d bd ab 88 9a ba 8d a1 36 3d 5e 20 0f bd
       -0.058053788 -0.0011789998 0.04458766 -0.034942977
000160 96 91 be 3c c8 c4 27 bd de 03 cf 3d 56 c9 9b ba
       0.02326278 -0.04095915 0.101081595 -0.0011885564
000170 60 76 f7 bb 9b fe a2 3d 3f 8b a6 3c 76 45 1f bd
       -0.007551953 0.079587184 0.02033007 -0.038884602
000180 6c 8a 40 3b 87 35 6f bd 83 61 bf bd 5f 5d 59 bc
       0.002937938 -0.058400657 -0.09344771 -0.01326689
000190 e1 2a 5f 3c 7f 56 73 ba dc 3e 60 bd 9e 5d 87 3c
       0.013621063 -0.0009282603 -0.054747447 0.016524132
0001a0 57 c6 48 bd 13 42 b5 ba 89 f3 8d 3d a2 90 a0 bd
       -0.049017277 -0.0013828896 0.06931216 -0.078400865
0001b0 03 29 e7 bd 6c 4a 92 3d d5 db a6 bd b0 00 2b bc
       -0.11287119 0.07143101 -0.081473984 -0.010437176
0001c0 46 a2 92 bd 28 77 e8 bb f2 ba 9d 3d 46 22 3b bd
       -0.071598575 -0.0070942827 0.077016726 -0.045686983
0001d0 57 e2 48 bd de 61 6c bd 1b 39 c9 3c 86 d4 17 bd
       -0.04904398 -0.05771052 0.024563363 -0.037067913
0001e0 ea 1a c3 bd eb b3 bf 3b bc aa 66 3d dd 01 28 bd
       -0.09526618 0.0058503053 0.05631517 -0.041017402
0001f0 97 63 25 bd 3e bc 8b 3d 44 ec 56 bd 1f 48 89 bd
       -0.04037818 0.06823014 -0.052471414 -0.06703209
000200 ba 7c a0 3d c5 82 1d bd 5b 1d 60 3d b5 4a 01 3c
       0.0783629 -0.03845479 0.054715496 0.007891347
000210 fb 04 46 3d c6 68 99 ba 93 2b 0a 3d c7 04 1d 3b
       0.048344593 -0.0011704199 0.033732962 0.0023959146
000220 3b a1 1c 3d bf f9 7d 3d 4c e2 92 bd 25 ab a4 bd
       0.0382397 0.062005755 -0.07172069 -0.08040456
000230 39 8a f4 3d 7a 4c c1 bd 1a ac 9f bb fd 98 a3 3c
       0.119404264 -0.09438415 -0.004872811 0.019970411
000240 cb d8 61 3d a3 b1 1a 3d 11 d5 40 3d f2 0a 03 3d
       0.05513839 0.037767064 0.047078196 0.03199286
000250 be 1e 7c bc 49 8f 5f bd c1 6d b7 bd db 93 15 3d
       -0.015388189 -0.054580007 -0.08956481 0.03651796
000260 c8 15 67 bd c8 f7 ee 3c f0 8d 76 3d 2f 56 18 3d
       -0.056417257 0.029170886 0.060193956 0.037191566
000270 7d 7f f5 ba 4c 11 79 bd 53 41 a5 bd c9 a6 c5 3d
       -0.0018730011 -0.06080751 -0.080691 0.09650952
000280 db 38 80 bc 83 68 93 bd 4c 96 62 ba 23 ac bb bd
       -0.01565211 -0.071976684 -0.0008643612 -0.09163692
000290 2f 18 70 bd 22 8e c2 3d 86 bd 9d 3c 9a fd 81 bc
       -0.058616813 0.09499766 0.01925541 -0.015867997
0002a0 fe 08 87 3d dc a0 85 3b 52 64 82 bd e1 22 46 bd
       0.06593512 0.004078014 -0.06366791 -0.048373107
0002b0 5c bf 08 be 91 c4 23 3d ad c5 a5 3b 7e ff 92 3d
       -0.13354248 0.039982382 0.005058965 0.071776375
0002c0 2d 5b 18 3d 1b 3a 56 3c e7 b2 3c bd b3 2c d9 3d
       0.037196327 0.013075377 -0.046069052 0.10604229
0002d0 e8 7c 9a 3d fa a9 bc 3c 36 e0 90 bc d5 05 56 39
       0.07543355 0.02303027 -0.017685037 0.00020410803
0002e0 8f 05 7d 3d 10 e0 73 bc 6b f3 0e 3a a2 b4 81 bd
       0.06177288 -0.014884964 0.0005453142 -0.06333281
0002f0 fc 4d 74 3c 7f 59 6a 3d 0a 03 60 3c 0f 06 5c bc
       0.014911171 0.057214256 0.0136726 -0.013429179
000300 80 72 2c 3c b0 07 6b 3d 47 7c 5a bc 81 90 9f bd
       0.010525346 0.05738038 -0.013335294 -0.07791234
000310 0c b1 b6 3c e7 9b 22 3d 6b e6 1e bd bf af 1a 3c
       0.02230122 0.03969946 -0.038793962 0.009441315
000320 26 26 ad bd 10 17 a0 bb 1c 5f 09 bd 99 1b eb 3c
       -0.08454542 -0.0048855618 -0.03353797 0.028699683
000330 9b 1f 10 3c 27 3b 08 bc 11 45 0b 3d 76 9c d7 bb
       0.008796598 -0.008314884 0.034001414 -0.006579931
000340 c0 98 17 3d db f4 35 bd 82 f2 6d bd 9e 79 25 3d
       0.037010908 -0.044422965 -0.0580926 0.040399186
000350 8f a5 62 3c 95 c6 72 3d e2 73 3c bd 92 be 67 3d
       0.013833418 0.059271414 -0.046008952 0.056578226
000360 7b 40 89 bd d9 74 90 bc e4 d5 95 bc ca 8d 25 bd
       -0.06701752 -0.017633842 -0.018290468 -0.040418424
000370 79 e0 6f 3c f2 f6 26 3d a2 95 04 bd 76 68 44 3d
       0.014640921 0.04076285 -0.032369263 0.047951184
000380 a0 09 42 bd d5 1c b0 3d e9 9d 32 3b a6 d4 8d 3d
       -0.04737246 0.08599249 0.0027254766 0.06925325
000390 93 22 15 3d 3a be 28 bd db 44 e5 bc 95 63 20 bd
       0.036409926 -0.04119704 -0.027986934 -0.03915747
0003a0 27 75 19 bb 0f b1 49 3c d2 8d ba bd 34 2f 3f 3b
       -0.0023415776 0.01231028 -0.09109081 0.0029172422
0003b0 bb 33 d1 3d 37 dd a3 3b db 38 eb bc 9f 2e d8 bd
       0.10214945 0.005000736 -0.028713634 -0.10555767
0003c0 48 dd b4 3d ba 4f 9a bd 68 03 c4 3d 3d e2 cb bd
       0.088312685 -0.07534738 0.09570962 -0.09955261
0003d0 e4 0e a6 3a e5 a3 21 3e 3e 99 e8 bb d6 5a 69 3d
       0.0012669233 0.15785177 -0.007098346 0.056971394
0003e0 e6 80 63 bd 94 5d 68 3d 0c 9f 27 3b 70 8c 27 3d
       -0.05554285 0.056729868 0.0025576977 0.040905416
0003f0 85 73 2c bd 2f c8 87 3d 5f c6 89 3d c2 c0 52 3d
       -0.042102356 0.06629979 0.067272894 0.05145336

rnn.bias f4 [600]
000000 85 bd 80 3e 4c 4c a4 3e ed c1 b0 3e 62 69 25 3e
       0.25144592 0.3208946 0.34522954 0.16153482
000010 73 13 44 3e 7c fa 47 3e 10 a5 6f 3e 59 c3 9f 3d
       0.19148044 0.19529146 0.2340281 0.078009315
000020 9e 87 8e 3e dd 25 14 3e 6a 20 8c 3e 91 ee 77 3e
       0.27837843 0.14467569 0.2736848 0.242121
000030 24 c3 8e 3e 56 62 34 3e 15 82 90 3d fe b5 61 3e
       0.27883255 0.17615637 0.07056061 0.22042081
000040 1b 41 bc 3e 69 f8 e1 3d c5 de 5c 3e 2e 04 3a 3e
       0.36768422 0.110337086 0.21569355 0.18165657
000050 04 fb 5c 3d c5 69 8e 3e 62 b1 50 3e 01 21 0f 3f
       0.053950325 0.2781507 0.20380166 0.55909735
000060 ef 90 87 3e b9 38 d2 3d ba a8 26 3e ee ba e3 3e
       0.26477763 0.10264725 0.16275302 0.44478554
000070 c9 46 46 3e 12 5c 8a 3e 76 25 30 3e 0d 8a 46 3e
       0.1936294 0.2702337 0.1720179 0.193886
000080 13 68 83 3e 60 a5 66 3e 07 93 2b 3e aa 42 a6 3e
       0.2566534 0.22524023 0.16755305 0.32472736
000090 62 7e c5 3e 6b 4c ab 3e 52 0f 8e 3e 94 2e 14 3e
       0.38572985 0.3345674 0.27746063 0.14470893
0000a0 91 bd ee 3d da bf ad 3e 9e 34 12 3e 4c f1 6e 3e
       0.11657251 0.33935434 0.14277884 0.23334235
0000b0 b1 63 d0 3e dc 87 20 3e 82 5b 8d 3e 6f 06 c8 3e
       0.40701059 0.15676826 0.27608877 0.39067408
0000c0 57 da a0 3e 05 c4 44 bb 34 e7 9a 3e 99 31 c1 3e
       0.3141658 -0.0030024063 0.3025452 0.37733153
0000d0 34 4b de 3d d3 21 94 3e 81 88 88 3e 80 15 14 3e
       0.108541876 0.28932056 0.26666644 0.14461327
0000e0 d4 5b cb 3d b1 61 d5 3e e2 1d 6a 3e f9 ae 1f 3e
       0.09929624 0.41676095 0.22862962 0.1559409
0000f0 b9 97 f2 3e c4 1e 61 3e 03 ee 52 3e 79 8f ab 3e
       0.4738138 0.21984392 0.20598607 0.33507898
000100 76 00 a3 3e 4b c8 b0 3e 31 84 02 3f 91 b3 42 3e
       0.3183629 0.3452781 0.5098296 0.19013812
000110 02 c2 57 3e c4 71 8a 3e 06 b8 25 3e 2a 32 dd 3e
       0.21070102 0.2703992 0.1618348 0.43202335
000120 5d 63 37 3e d8 48 52 3e fe 65 a0 3b 74 1a 3d 3e
       0.17908998 0.205356 0.004894971 0.18467122
000130 ab 6d e4 3e 9a d4 64 3e fc 50 69 3e 8e 78 8a 3e
       0.4461492 0.22346726 0.227848 0.270451
000140 f6 b2 04 3e bd ee 8e 3e cf 1c 0f 3e c9 72 4f 3e
       0.12958893 0.27916518 0.13975833 0.20258631
000150 95 54 7e 3e 4a 9b 69 3e 61 ee 80 3e f9 19 79 3e
       0.24836953 0.22813144 0.2518187 0.24326314
000160 c4 c7 d0 3e 1e 39 88 3e 54 97 b1 3e 12 4d d0 3e
       0.4077741 0.26606077 0.34685767 0.406838
000170 b1 0d d2 3e 54 88 8f 3e d5 b8 57 3e 9b d7 7f 3e
       0.4102607 0.28033698 0.21066602 0.2498459
000180 33 09 4f 3e a8 28 b9 3e 1b 29 c8 3e 8f 6b 03 3c
       0.20218353 0.3616383 0.3909386 0.008021249
000190 06 af b8 3e d3 fc 6c 3e 17 db 77 3e 0d 55 1f 3e
       0.36071032 0.2314332 0.2420467 0.15559788
0001a0 f5 e9 82 3e 65 7f 86 3e 7f b3 28 3e 05 0c 2f 3e
       0.2556912 0.2626907 0.16474722 0.17094429
0001b0 53 9d ac 3e 16 40 7a 3e 18 9e 9e 3e da 6a ae 3e
       0.3371378 0.2443851 0.3097999 0.34065896
0001c0 5a 46 93 3e aa 87 22 3e 04 ef ab 3e 42 eb be 3e
       0.2876461 0.15872064 0.33580792 0.37288862
0001d0 12 01 55 3e 69 86 d7 3e ca 71 a2 3e 35 16 94 3e
       0.2080119 0.42094734 0.3172744 0.28923193
0001e0 0a 2f 9e 3e 4d 0a 21 3e 71 98 5a 3e 9f 58 b1 3d
       0.30895263 0.15726586 0.21347214 0.08659481
0001f0 2e ee 21 3d 0b f8 6f 3e b1 8d 23 3e 83 be 10 3e
       0.039533786 0.23434465 0.1597202 0.14135174
000200 7c 6b 64 3e 5f 82 6d 3e 9f a5 70 3e 57 4b d1 3e
       0.22306627 0.23194264 0.2350068 0.40877792
000210 c8 21 88 3e ae cf a7 3e 6e 2e 2a 3e d5 a8 7f 3e
       0.26588273 0.32775635 0.16619274 0.24966748
000220 1c 3b 85 3d db 97 b7 3e 76 54 2e 3e da 07 59 3e
       0.06505415 0.35858044 0.17024407 0.21194401
000230 ec b5 43 3e 13 e9 82 3e 5d 14 72 3e 0e c6 47 3d
       0.19112366 0.25568447 0.2364058 0.048772864
000240 b7 6b 8c 3e 53 3d 11 3e a4 20 31 3e cb 97 99 3e
       0.2742593 0.1418355 0.17297608 0.2999862
000250 48 34 55 3e 19 41 10 3e e0 36 a7 3e d1 5c cd 3d
       0.20820725 0.14087333 0.32659054 0.10027469
000260 54 d6 82 3e 79 8d 80 3d fa 63 5a 3e 7c 7d 9c 3e
       0.25554144 0.06276984 0.213272 0.30564487
000270 77 8c b9 3e 10 e4 4a 3e f2 25 b5 3e ed 7b 65 3e
       0.3623998 0.19813561 0.35380512 0.22410555
000280 6f 69 2d 3e 27 74 38 3e 1b 15 a4 3e 31 d7 25 3e
       0.16934751 0.18013059 0.32047352 0.1619537
000290 69 a9 84 3e b4 96 95 3e ef b6 74 3e 75 56 ca 3e
       0.259105 0.2921654 0.23897909 0.39519086
0002a0 6d 4c 87 3d fb 62 cf 3d 3f 2a 45 3e 3c 0f 89 bd
       0.06606374 0.10126301 0.19254397 -0.06692359
0002b0 12 57 b9 3e 5c 05 93 3e 83 9b 87 3e f9 46 3c 3e
       0.36199242 0.28715026 0.26485834 0.18386449
0002c0 35 0c 81 3e 6a 56 f1 3e 91 3e ba 3d 7a e6 34 3e
       0.25204626 0.4713624 0.09093965 0.17666045
0002d0 bc 79 9f 3e 3d cb 80 3e 92 cc de 3d 0b 38 50 3e
       0.31147563 0.25155059 0.108788624 0.20333879
0002e0 6c 03 b8 3e ad 42 36 3e af 69 1f 3e 8d 9c c1 3d
       0.3594011 0.17798872 0.15567659 0.09453688
0002f0 03 3f 8c 3e 20 b6 a9 3e 76 e9 61 3e 52 2a 49 3e
       0.27391824 0.33146763 0.22061715 0.1964505
000300 21 c7 d2 3e 6e db 35 3e 81 a9 1b 3c b6 9d 3a 3e
       0.41167548 0.17759487 0.009500862 0.18224224
000310 47 6d 5d 3d 9d d4 c3 3e 5f bd 29 3e ee 74 82 3e
       0.054059293 0.3824815 0.16576146 0.25479835
000320 50 45 92 3d 85 64 3c be f7 23 2b be 4d bd c1 bd
       0.071421266 -0.1839772 -0.16712938 -0.094599344
000330 10 fa 8e 3d 35 cd fc bd 08 15 a6 bc 98 03 90 bc
       0.069812894 -0.12343828 -0.0202737 -0.017579839
000340 1b fb c5 3d c1 6e 27 bd 4c 92 1b be 9e 63 17 3d
       0.09667035 -0.040877108 -0.15192527 0.036960237
000350 f6 b4 d4 3c 6f ee 84 bc b6 53 b6 3d e3 52 43 3c
       0.025965195 -0.016226975 0.08902685 0.011921617
000360 c8 49 15 be 12 27 f9 bd 75 c6 41 be 4e fe d7 bd
       -0.14578927 -0.12165655 -0.18923362 -0.10546552
000370 98 cb eb bd 65 40 f2 3d 8a 22 c3 bd aa c7 69 be
       -0.11513442 0.118286885 -0.09528072 -0.22830072
000380 27 c8 88 bd e6 c7 93 3d 6c 27 4f bd 1e 3b 42 be
       -0.06678801 0.07215862 -0.050574705 -0.18967864
000390 99 80 c1 3d 64 4a 43 be 8c 2a 17 3e 03 20 82 bc
       0.09448356 -0.19071347 0.14762324 -0.015884405
0003a0 d6 b9 be bd a7 a1 45 bd f9 6e 00 be fd f3 59 3e
       -0.09312789 -0.048249867 -0.12542333 0.2128448
0003b0 d7 c3 7e be f5 e4 2f 3e 97 5f a3 bd c6 e4 03 3e
       -0.24879394 0.17177184 -0.07977217 0.12880239
0003c0 ac a3 ad bb db 5a ca bb 00 aa 6d 3d ca 5c 02 be
       -0.005299052 -0.0061753816 0.058023453 -0.12730709
0003d0 ed ef b3 3c 67 19 5b 3d 22 76 6e bd 37 4b ce 3d
       0.021964991 0.053491022 -0.05821813 0.1007294
0003e0 03 75 4a be 22 9f 7e bd 6e 5f 85 bd 88 1b 2d 3e
       -0.19771199 -0.06216348 -0.065123424 0.16905034
0003f0 eb c8 55 3d 23 43 64 bd ad e1 6f bd 48 50 12 3d
       0.052193563 -0.05572809 -0.05856483 0.035721093

rnn.bias_lin_z f4 [200]
000000 4c 85 8c 3d 34 9f 30 be 99 a6 34 be 6e 2b 2f 3e
       0.06861362 -0.17248231 -0.17641677 0.17106411
000010 21 52 7c 3d ab 3a f6 bc 6d 7e 61 bd 6e 95 fe bd
       0.06160176 -0.030057272 -0.05505221 -0.12430845
000020 af 3f 11 3e a5 11 19 be d0 75 d6 bd 13 13 3f bd
       0.1418445 -0.14948137 -0.1047169 -0.04664905
000030 a3 1c dd bd fe 7d 7b bd ec 43 aa 3c 1c f6 1f bd
       -0.10796478 -0.061399452 0.02078434 -0.039053068
000040 0e df 16 be 72 69 13 bd b9 72 15 3e c6 cb e6 3d
       -0.14733526 -0.035989232 0.14594544 0.112693354
000050 81 d2 21 3d f9 75 7b 3d f8 19 3e 3c 3e d8 e5 bd
       0.039507393 0.061391804 0.011602871 -0.112228855
000060 e5 4d 06 3e 50 b4 a5 3d 32 e6 da bd 1c 97 66 3e
       0.13115652 0.080910325 -0.106884375 0.22518581
000070 34 c4 24 bd 6f 6e a4 bc d9 6b 19 3d 13 88 31 bc
       -0.040226176 -0.02007219 0.037456367 -0.010835665
000080 9b e0 70 3b b9 1c 04 be bc e6 f3 bb 53 a5 43 bd
       0.003675497 -0.12901582 -0.007443277 -0.047765087
000090 b9 5f 17 be 37 db ff 3d 7d ff 8f bd f6 bb be 3d
       -0.14782609 0.12492984 -0.070311524 0.093131945
0000a0 fa 23 15 bd b1 ec 7e 3d 82 e5 b8 bd 81 e4 e3 3d
       -0.036411263 0.062237445 -0.0902815 0.11127568
0000b0 e3 ec 5a be 41 21 9c bd c6 8b 44 3d 03 d1 4e bd
       -0.21379428 -0.0762353 0.04798486 -0.050492298
0000c0 b0 96 6d 3d 75 5b d6 3d 6d 1d 8c 3d 26 60 2c 3e
       0.058005035 0.10466663 0.0684155 0.16833553
0000d0 e5 e2 36 3e 56 eb 3f 3e 3a fb 01 3e f4 3c 2e 3e
       0.17859991 0.18742117 0.12693492 0.1701544
0000e0 fe 75 c0 3c d3 cb c1 bc 1a a1 40 bd 84 77 9b 3d
       0.023493763 -0.023656761 -0.04702864 0.07591155
0000f0 61 1b 28 3e 81 d6 2c bd e1 07 c8 bc 04 af 01 3c
       0.16416694 -0.042196754 -0.02441782 0.007915262
000100 16 e0 31 3c ef c4 09 3e 39 56 b6 bd b5 4e cf bc
       0.010856649 0.1345403 -0.089031644 -0.025306085
000110 92 c2 c6 bd 12 7a f0 3c 07 24 e8 3d 8c 9d aa 3d
       -0.0970508 0.029355083 0.11334997 0.08330831
000120 a1 fc 2a be 47 b6 ad bc 75 cc 8e 3d ad f2 11 3e
       -0.16697933 -0.02120508 0.06972591 0.1425273
000130 83 fa 4e 3e 70 4a 80 3d 20 44 25 bc 1e d4 cb 3d
       0.2021275 0.06264198 -0.010087043 0.099525675
000140 e3 2f ad bb a0 b0 9c bd e7 c2 cf bd 5c e9 38 3e
       -0.0052852496 -0.07650876 -0.101445965 0.1805777
000150 96 a2 08 be ca 62 f6 bb ba 89 ce 3d 69 f3 49 bd
       -0.13343272 -0.007519101 0.10084863 -0.0493044
000160 92 ba a3 3d 16 18 af 3d f5 11 2b 3e 5e 19 7c 3b
       0.0799457 0.08549516 0.16706069 0.0038467268
000170 2a 15 11 bc b7 3b e0 bc 6f 5a b2 bb ee a7 00 bd
       -0.008855144 -0.027372224 -0.0054429094 -0.03141015
000180 6d e9 1e 3d 65 3b d2 ba a9 0d 04 3d 85 cb 56 be
       0.03879683 -0.001603943 0.03223959 -0.20976074
000190 35 71 f6 3a 0a d0 45 3d 42 88 1e 3d a4 5e 79 3d
       0.0018802049 0.048294105 0.038704164 0.060881272
0001a0 5f d0 22 3d d7 a4 3e 3e 66 f7 84 3d fd cb 12 bd
       0.0397495 0.18617569 0.064925 -0.03583907
0001b0 40 52 4d 3d ba 08 29 be ea e8 04 3e 72 38 f3 bc
       0.050127268 -0.16507235 0.12979475 -0.029690001
0001c0 3e ad f0 3b 81 45 67 bd 28 06 19 3d 59 65 2e 3e
       0.007344871 -0.05646277 0.037359387 0.17030849
0001d0 27 ac eb 3d d0 32 02 bd a0 fc 0c 3e 1e c1 de 3d
       0.11507445 -0.03178674 0.13768244 0.10876678
0001e0 f1 ba c2 bd d5 24 0b be 4d 98 86 bc 6e 6a d5 bd
       -0.095083125 -0.13588269 -0.016430045 -0.104206905
0001f0 73 c0 3d 3c 0b ba e1 3c 3c f7 b3 bd f1 1b 2b 3e
       0.011581528 0.027554533 -0.087873906 0.16709878
000200 83 78 33 3e f2 bb 9e bd 64 99 9a ba 8d 7f 65 3d
       0.1752644 -0.077506915 -0.0011794982 0.056029845
000210 34 0a b3 3d 20 d4 23 3d 89 5e 41 3e 34 21 97 3d
       0.087421805 0.03999722 0.18883719 0.0737938
000220 2b 3f 8c bd 88 db da bb 9c 4b 2a be f1 ee 24 bd
       -0.06847986 -0.006679002 -0.16630405 -0.040266935
000230 15 6d 82 3d 87 1a c2 3d 16 75 0b 3e a2 f2 25 3e
       0.06368462 0.09477716 0.13618883 0.16205838
000240 c3 d1 91 3d b9 2d af bd b6 4f 7f bd 3f a2 99 3d
       0.07120087 -0.08553643 -0.062331878 0.07501649
000250 bb 23 f6 3d 2d 79 df bc 07 64 29 bd 32 33 19 be
       0.12018534 -0.02727946 -0.04135516 -0.14960936
000260 da 6f e8 bc d8 7a 93 bd 6d 10 22 be ab ec 2a bd
       -0.028373647 -0.07201165 -0.15826578 -0.04172961
000270 9d 18 b2 3d e7 a1 d6 3d 42 de a6 3d 34 c3 fe bd
       0.08696101 0.10480099 0.08147861 -0.12439576
000280 12 89 3a bd 04 9c 46 be 7a 6e 42 be 7c 69 33 bd
       -0.045540877 -0.19395453 -0.18987456 -0.04380177
000290 8b e0 0f be 36 b3 96 bd 10 77 a8 bd 2e 9e bf bd
       -0.140505 -0.073584005 -0.08225834 -0.09356342
0002a0 50 17 ff bd 57 f0 77 bc 18 5a fd 3d 34 a7 41 3e
       -0.124556184 -0.015132985 0.123707 0.18911439
0002b0 ef 72 23 be bf 18 e0 3c 90 9d 8f bd ae c9 05 3e
       -0.15961812 0.02735555 -0.070124745 0.13065216
0002c0 d1 d0 2f 3e 5e b0 6d 3d 1e 66 d1 3c 45 90 86 bc
       0.17169501 0.058029525 0.025561389 -0.016426215
0002d0 09 28 bf bd 79 4b 15 be b5 70 16 be d0 6b 39 3c
       -0.09333808 -0.14579572 -0.14691432 0.011317208
0002e0 12 27 d9 3c 7a c6 0c be 73 b0 e9 3d 3c 46 ee bd
       0.026507888 -0.13747588 0.11410608 -0.1163449
0002f0 1d 05 cc bd 14 da a4 bd 41 68 9a bd af 15 e1 3d
       -0.09961913 -0.080494076 -0.07539416 0.10990464
000300 d1 00 55 be e7 a8 e3 3c 20 04 92 3d 1e 24 ce bd
       -0.20801093 0.0277905 0.07129693 -0.100654826
000310 79 a9 30 bd 10 03 b9 3d a9 71 1a bd f8 28 11 3e
       -0.04313037 0.09033787 -0.03770605 0.14175785

classifier.weight f4 [20, 200]
000000 22 12 72 be 6a f5 c4 3e 50 a9 2f be dd df 6e be
       -0.2363973 0.38468486 -0.17154431 -0.23327585
000010 fd 2b 47 3e 80 b2 f6 3c a7 eb 8c bd 0d b6 16 be
       0.19450374 0.030114412 -0.068808846 -0.14717884
000020 da ec 79 bd 15 f2 cb 3d e3 e6 d9 bd 02 1b 05 be
       -0.061016895 0.09958283 -0.10639741 -0.12998584
000030 71 54 b1 3d 24 18 a7 bb eb 80 91 3e 91 ea 93 3d
       0.08658684 -0.0050993133 0.2841867 0.07222474
000040 85 f5 ae bd 7c 44 a0 bd 67 75 d0 3e d1 95 0f 3d
       -0.08542923 -0.07825562 0.4071457 0.035054985
000050 0f de 69 3d e2 6f f8 3d e6 a0 65 3e 63 5f 1f 3e
       0.057096537 0.12130715 0.22424659 0.15563731
000060 8b 10 8e 3d 8e fa 06 3e 57 8e f0 bd 96 ca 9e be
       0.06936749 0.13181517 -0.11745899 -0.31013936
000070 ac ad 0e 3e 37 87 f2 bd b9 80 be bc a0 cc 73 bc
       0.13933438 -0.118421964 -0.02325474 -0.014880329
000080 ad 78 1f be 61 33 1b 3e 22 5a 68 be 28 e4 96 be
       -0.15573378 0.15156318 -0.22690633 -0.29470944
000090 1f cd 90 be 07 9f 71 3e aa c4 b6 bb bb 26 e1 ba
       -0.28281495 0.2359582 -0.0055776434 -0.001717768
0000a0 af 6b 42 be b6 c0 1c 3e 32 f3 f4 bc 8d e1 4c bd
       -0.1898639 0.15307888 -0.02990112 -0.05001979
0000b0 be 9d 6f 3d e0 00 36 bd 54 ad 35 be ce 39 0d bd
       0.058500044 -0.04443443 -0.177419 -0.034478955
0000c0 c8 5a ee bd 6b f9 6d 3e 61 bb 17 3e 1d 24 c4 3c
       -0.11638409 0.23239677 0.14817573 0.023943001
0000d0 ca 01 ef 3d e6 8b 56 bc c1 d7 6f 3c 19 5d b0 bc
       0.11670263 -0.013094878 0.014638842 -0.021528767
0000e0 ca 58 fe 3d 3a 76 e0 3d 49 39 20 3e 78 4d 35 be
       0.12419279 0.1096005 0.15646853 -0.17705333
0000f0 eb 63 30 3e 65 3f 30 3e 02 39 a8 be e5 09 92 3c
       0.17225616 0.17211683 -0.32855994 0.017826984
000100 1f a4 56 bc f1 a2 91 be 86 b3 94 bc 5e a7 6e 3e
       -0.013100653 -0.28444627 -0.01815201 0.23306033
000110 b5 36 45 be e7 c7 22 be f5 c2 f3 3b 75 b0 36 bd
       -0.1925915 -0.15896569 0.007439012 -0.044601876
000120 cf fb bd bd 60 e1 1b be eb 9b a2 bd 9b 35 16 be
       -0.09276544 -0.15222692 -0.07939895 -0.14668886
000130 f9 8d 90 3c f8 4e 29 be 46 7e f8 3d b4 bb 9d 3c
       0.017645823 -0.1653403 0.1213346 0.019254543
000140 aa 52 d4 bd 1a 6a a4 3d 00 d4 39 bd 0e fe a8 be
       -0.103673294 0.0802805 -0.045368195 -0.33006328
000150 40 53 1d 3e b4 98 82 be 4c c5 db 3d b4 f9 ac 3d
       0.15363789 -0.25507128 0.10730991 0.084460646
000160 95 0d 01 3e d8 ca 2a be 6a ae 80 bc d0 f2 00 3e
       0.12602837 -0.16678941 -0.015708167 0.12592626
000170 63 28 25 bd 1b e1 16 be 6f 59 0c 3d 68 8f 76 bd
       -0.04032172 -0.14734308 0.034264978 -0.060195357
000180 3a a1 13 bd bc d1 96 be b8 88 c9 3d 56 5a 42 3b
       -0.03604243 -0.2945689 0.0984053 0.0029655895
000190 6b 96 31 3c 72 55 fd 3e 36 9f 98 bc 8c 7c fb bd
       0.010839085 0.49479252 -0.018630605 -0.12279615
0001a0 4d f0 c5 3d dd 0e 99 3d 23 40 ad 3c 83 e8 ab bd
       0.09664974 0.07473538 0.021148747 -0.083939575
0001b0 19 8f 0f be 71 9f cb bc a6 32 82 be 3f 3c f0 bd
       -0.14019431 -0.024856301 -0.25429267 -0.11730241
0001c0 63 74 90 3d b6 9c 67 3e 4c 9b b2 be 9e cd 0d 3e
       0.07053449 0.22618374 -0.34884107 0.13847968
0001d0 7b 92 9c bc 2c 84 75 3d 6c 37 b6 bd 98 de 4c 3e
       -0.019112816 0.059940502 -0.0889729 0.20006788
0001e0 11 02 83 be de 3e 20 3e 3b 8e e0 bc f5 17 8a bd
       -0.25587514 0.15648982 -0.02741157 -0.06742851
0001f0 68 b4 0c be a6 aa aa be 2c d4 90 3d e2 05 65 3d
       -0.13740695 -0.3333332 0.070717186 0.055913813
000200 dd 59 b9 3d 20 c1 a7 3e 4f a1 4f 3e 2f 8c 79 be
       0.09050343 0.3276453 0.20276378 -0.24369882
000210 87 bd 52 bd 70 b1 8b 3e 37 6e 11 3e cf 4f 29 3c
       -0.05145028 0.27283812 0.142022 0.010333969
000220 2f 18 a0 3d 9d f1 a5 3c 2f 8f 86 bd cd dc 4d be
       0.07817113 0.020256812 -0.06570279 -0.2010376
000230 2f f5 98 bd b4 f0 8a 3c e6 ce 1f 3e 22 a0 3c 3d
       -0.0746864 0.01696048 0.15606269 0.046051152
000240 1c 96 27 be 56 5a 61 be 8f 1d 2a 3e 3d 31 70 3e
       -0.16365856 -0.22007117 0.16612838 0.23456283
000250 78 94 18 bc 15 a3 dc 3b 49 7e 92 be 69 5f 81 bd
       -0.009312741 0.006733308 -0.28611973 -0.06317026
000260 4c 82 b9 bd 09 ab 32 3e f7 bf b3 bc 17 52 03 3e
       -0.09058055 0.17448057 -0.021942122 0.12824284
000270 b6 94 14 3d 18 16 a5 3e 60 5f 7f 3d 83 db e3 3d
       0.036274634 0.3224342 0.062346816 0.11125853
000280 a1 2d c7 3d 40 32 cb bc 1c 33 9c bc aa 61 78 be
       0.097255 -0.024804235 -0.01906734 -0.24256006
000290 5d a8 f8 3c a7 9e 4b 3d 4f e1 06 3e 98 0a cd 3d
       0.03035372 0.04971185 0.13171886 0.10011786
0002a0 24 31 f2 bc 49 06 04 be 2b 47 83 3d 71 1d a7 be
       -0.029564448 -0.12893023 0.064100586 -0.3263965
0002b0 ed 46 2c 3e 70 da d6 bb b8 7b 86 bd 9a 14 1d be
       0.16823931 -0.0065568015 -0.06566566 -0.1533989
0002c0 05 a7 8c 3d b4 77 bf 3d 6f 7e 02 3e 69 b6 7e 3e
       0.06867794 0.093490034 0.12743543 0.24874271
0002d0 e3 6c 15 3d 68 d8 3c 3e cc a9 76 bd ad 6a 02 be
       0.036480796 0.18441927 -0.060220525 -0.12736006
0002e0 15 37 36 bc 69 ea af 3e 2d 78 de bc 51 fb 21 3e
       -0.011121531 0.34358528 -0.027156914 0.15818526
0002f0 43 ff 99 3e ed 6f 25 3e 71 b6 8a be 00 7d 34 3e
       0.30077562 0.16155978 -0.27092317 0.17625809
000300 20 90 98 bc 1c 42 4b 3d e5 90 be 3d 21 94 80 3e
       -0.018623412 0.049623594 0.0930498 0.25113013
000310 78 4f 87 be ee 42 fe bc 85 40 18 bb f9 5f f7 3c
       -0.26427817 -0.031037774 -0.0023231816 0.03019713
000320 96 0c 08 bc 63 5f bb bd 76 83 fe 3d 3f 2f 69 3d
       -0.008303782 -0.09149053 0.12427418 0.056929823
000330 2b 22 ea bc 85 2b db be cc 14 94 be 5f 3d 6b bd
       -0.028580746 -0.4280664 -0.28922117 -0.057431575
000340 33 37 06 be 91 2d 9f 3d ae b2 c8 be be 6a 80 3e
       -0.13106994 0.07772363 -0.39198822 0.25081438
000350 e0 1e 71 3d 88 1f ae 3d 5e 74 23 bd 7a 10 13 3e
       0.058867335 0.08502108 -0.0399059 0.14361754
000360 0d 5f 59 bd 67 c9 da 3d 4b 52 16 3c 7a a3 9b bd
       -0.053069163 0.10682946 0.009174894 -0.0759954
000370 b6 86 61 3e aa 0b 81 be a0 eb ca bd dc c3 9e 3d
       0.22024044 -0.2520421 -0.09908223 0.07752201
000380 29 3b 07 bd f1 8f 37 3e 89 cb 39 3c 15 38 5b bd
       -0.033015404 0.17926003 0.0113400305 -0.05352028
000390 6e ff 80 3e 48 f5 1f 3e 79 ba 4f 3d 16 ce a0 3c
       0.25194877 0.15620911 0.050714944 0.01962952
0003a0 fa 1e 77 3d 82 02 94 bd c8 2e ce 3d b2 66 81 3c
       0.060332276 -0.07227041 0.100675166 0.01579604
0003b0 39 63 00 3d 30 73 5c 3c bf 1e 57 be fa a3 8b bd
       0.031344626 0.013455197 -0.21007822 -0.068183854
0003c0 29 42 16 be e8 62 9c 3b d7 9a 50 3d 6f a4 83 3d
       -0.14673676 0.0047725327 0.050928917 0.064278476
0003d0 12 eb 1a be 52 52 d6 3c 64 b7 13 bd b4 3e 90 3e
       -0.15128735 0.0261623 -0.036063567 0.2817284
0003e0 22 5e 87 3e 24 4a 91 bd d3 e4 98 3d d6 be 7a 3c
       0.26439005 -0.07094219 0.0746552 0.015304288
0003f0 bc 8f 23 bd 81 c5 82 be 3e af 95 3e 5b 19 00 3e
       -0.039931998 -0.2554131 0.29235262 0.12509672

classifier.bias f4 [20]
000000 c5 de 46 3d 2d 4f cc 3c d8 7d 01 bd 0c d3 73 bd
       0.048552293 0.024940098 -0.031614155 -0.05952744
000010 5a 02 dc 3a 73 92 33 bd 2c 52 c8 ba 12 cf 66 bd
       0.0016785369 -0.043840837 -0.0015283278 -0.05634982
000020 5e db 0a 3d c4 eb 80 3d 53 4f 61 bd 91 b5 e3 3c
       0.03390061 0.06294969 -0.05500729 0.027796539
000030 e7 cb 0b 3d f6 4f 40 3d ac c7 da bb 49 c3 1b bd
       0.034130003 0.046951257 -0.006676635 -0.038028035
000040 ba 86 dd bc ae d4 8c bd 58 c5 b9 3c a4 e3 46 bd
       -0.027041782 -0.06876503 0.022677109 -0.04855694
