Final Project/LEM-main/models/lorenz96/3/model.pt (torch, 62935 bytes, 6 tensors)

rnn.weights f4 [150, 70]
0	0x3de0eaae	0.109822616
1	0xbe83ba00	-0.25727844
2	0x3e1dca7f	0.15409277
3	0xbdb665f2	-0.08906163
4	0xbe487687	-0.19576465
5	0xbdb6af18	-0.08920115
6	0x3d56f5c7	0.052480485
7	0xbe2ef1ac	-0.17084378
8	0x3dc4a828	0.09602386
9	0xbbff5840	-0.0077925026
10	0xbd99fa31	-0.07518423
11	0xbe7857cc	-0.24252242
12	0x3e9a8ad9	0.30184057
13	0x3e964e8c	0.29356802
14	0xbd9e5413	-0.0773088
15	0x3e8f76be	0.2802028
16	0xbe0e30ea	-0.13885847
17	0x3c0d324b	0.008617948
18	0xbe1fb47a	-0.1559619
19	0x3d36e86d	0.044655252
20	0x3e1d6756	0.15371451
21	0xbde5ff2a	-0.11230309
22	0xbc920334	-0.017823793
23	0x3e4f72e8	0.20258677
24	0x3e10121d	0.1406941
25	0xbe07f35c	-0.13276428
26	0xbe5e5b41	-0.21714498
27	0x3e15e3b3	0.14637642
28	0x3db65246	0.08902411
29	0xbea80e81	-0.32823566
30	0xbab4d5d8	-0.001379664
31	0xbbcfca34	-0.006341243
32	0xbc61984f	-0.013769223
33	0xbd38cdc7	-0.04511812
34	0xbe5a104c	-0.2129528
35	0x3e80f9f8	0.2519071
36	0x3ea2b52a	0.31778842
37	0xbdecca24	-0.11561993
38	0xbcb347ed	-0.021884883
39	0x3dc19b77	0.09453481
40	0x3ddd0b3d	0.10793159
41	0xbe06a445	-0.13148601
42	0x3dabd3c7	0.08390003
43	0x3dc80d5e	0.097681746
44	0xbe14db88	-0.1453687
45	0xbdef0386	-0.11670594
46	0xbdfa382d	-0.12217746
47	0xbe9700a7	-0.29492685
48	0x3eab9098	0.33508754
49	0xbdff3d18	-0.124628246
50	0x3cf8b5e3	0.030360168
51	0x3d98b092	0.07455553
52	0x3db912ef	0.090368144
53	0xbd12213e	-0.035676233
54	0xbcac98a6	-0.021068882
55	0x3cf560cd	0.029953385
56	0xbdb013ca	-0.085975245
57	0xbd93ea4a	-0.072224215
58	0xbd4f1ecf	-0.05056649
59	0x3cae8874	0.0213053
60	0xbdd715fa	-0.105022386
61	0x3c173082	0.009227874
62	0xbd9422b0	-0.072331786
63	0xbb748edc	-0.0037316596
64	0xbcee8165	-0.029114434
65	0xbcf18504	-0.029482372
66	0x3d754ec2	0.059889562
67	0x3c5548ef	0.013017877
68	0xbcaf714e	-0.021416333
69	0xbd8b96fb	-0.068159066
70	0x3e5e8dc8	0.21733773
71	0xbe87f55e	-0.26554388
72	0x3dded830	0.10881078
73	0x3debf7f5	0.115219034
74	0x3d7bf1f5	0.061510045
75	0xbe811ab9	-0.252157
76	0x3e07184b	0.13192861
77	0xbd566d0d	-0.052350093
78	0x3d973700	0.07383537
79	0xbd66d082	-0.056351192
80	0xbd945b76	-0.07244007
81	0xbe3f1730	-0.18661189
82	0x3dc42c8b	0.095788084
83	0x3e7684b1	0.24074055
84	0xbe317689	-0.17330374
85	0x3eb354c0	0.35025597
86	0xbd48c877	-0.049019303
87	0xbdeefe02	-0.11669542
88	0xbe842b10	-0.25814104
89	0x3c092df8	0.008372776
90	0x3dbdb2a4	0.092625886
91	0xbd0efd9a	-0.034909822
92	0x3cf4aa57	0.02986638
93	0x3db04263	0.08606412
94	0x3dff26b9	0.12458558
95	0xbe6427ee	-0.22280857
96	0xbe8c2a0d	-0.27375832
97	0x3e584696	0.21120676
98	0xbcb7ec37	-0.022451503
99	0xbe3ef499	-0.18647994
100	0x3c9974d5	0.018732468
101	0x3d2b060c	0.041753814
102	0xbe029518	-0.12752187
103	0xbe0dc3c5	-0.13844211
104	0xbdafb0fb	-0.08578678
105	0x3e96c489	0.2944682
106	0x3e69037a	0.22755232
107	0xbdbeb410	-0.09311688
108	0xbe8c9776	-0.27459306
109	0x3dc43cb2	0.09581889
110	0x3dfe75db	0.12424823
111	0x3b6ee7c4	0.003645406
112	0xbb55bea7	-0.0032614858
113	0x3c3c4981	0.011492134
114	0xbd65c529	-0.05609623
115	0xbd217b99	-0.039424513
116	0xbe09d64b	-0.13460653
117	0xbe093b3d	-0.13401504
118	0x3ea382f0	0.31935835
119	0xbe1a5dd1	-0.1507485
120	0xbd98ca00	-0.074604034
121	0x3bd0ac56	0.0063682003
122	0xbafe1fcf	-0.0019388142
123	0xbd98a6cd	-0.0745369
124	0xbc87cfc8	-0.01657857
125	0x3d91a99f	0.07112431
126	0xbd1e990f	-0.038720187
127	0xbe3b6eb0	-0.18303943
128	0xbd164a44	-0.03669192
129	0x3d217962	0.0394224
130	0x3cd437f2	0.025905583
131	0xbd13cee5	-0.036085982
132	0xbc9c7f8b	-0.019103786
133	0xbcc56154	-0.024094261
134	0xbd13c2c1	-0.036074404
135	0x3d0e63fc	0.03476332
136	0x3991e405	0.00027826443
137	0x3d3023f5	0.04300304
138	0x3c0edbe1	0.008719415
139	0x3ccf7a8e	0.025326993
140	0x3dbc2f4c	0.09188709
141	0xbdfaa480	-0.12238407
142	0x3e3e1d28	0.1856581
143	0xbd5d8999	-0.0540863
144	0x3d03d4ac	0.03218524
145	0xbe816ad8	-0.25276828
146	0x3de67823	0.11253383
147	0xbd4049da	-0.04694543
148	0x3e0c6028	0.13708556
149	0x3d465d5a	0.04842887
150	0xbe3bcd08	-0.18339932
151	0xbdfd9ad8	-0.1238305
152	0x3e309fab	0.17248408
153	0x3e85337b	0.2601584
154	0xbd6a71c9	-0.05723742
155	0x3e649c35	0.22325213
156	0xbdde2d59	-0.10848493
157	0xbd3f2bd0	-0.046672642
158	0x3c918f73	0.017768597
159	0x3db04049	0.086060114
160	0x3e7524c5	0.23939808
161	0x3dd55331	0.10416258
162	0x3e29fce8	0.16600382
163	0x3e0c8b3c	0.13724989
164	0xbdee6b20	-0.11641526
165	0xbe9ebd18	-0.31003642
166	0xbe92b869	-0.2865632
167	0x3da347e7	0.07972699
168	0x3df64351	0.12024558
169	0xbe3d43e3	-0.18482928
170	0xbd8c6378	-0.0685491
171	0xbde02451	-0.10944427
172	0x3d447695	0.04796465
173	0x3de41f2f	0.1113876
174	0xbd429176	-0.047502004
175	0x3ea16ad6	0.31526822
176	0x3da79530	0.08182752
177	0xbe22c1d3	-0.1589425
178	0xbe4c46b0	-0.1994884
179	0x3e19b835	0.15011676
180	0x3d138665	0.03601684
181	0x3dbba236	0.09161799
182	0x3d90cdeb	0.07070526
183	0xbca90f83	-0.02063728
184	0xbdc2912d	-0.09500346
185	0xbdf681ea	-0.12036498
186	0xbcd073d8	-0.025445864
187	0xbe7af420	-0.24507189
188	0x3e9c3dc5	0.30515876
189	0xbe897e81	-0.26854327
190	0x3cdd979c	0.027049832
191	0xbd519295	-0.051165182
192	0x3c0039fe	0.007826326
193	0xbdd6a34f	-0.104803674
194	0xbd8d497d	-0.068987824
195	0x3e272db6	0.16326031
196	0x3e0eaf61	0.13934089
197	0x3c875d71	0.016524049
198	0xbd8c0eee	-0.06838785
199	0x3c19309e	0.00934997
200	0xbdd8e55e	-0.10590623
201	0x3dae38de	0.0850694
202	0xbd01897f	-0.031625267
203	0x3d9ce472	0.0766076
204	0x3e079bb2	0.13242987
205	0x3dda5d43	0.106623195
206	0xbd06b6db	-0.03288923
207	0xbd022e56	-0.03178247
208	0xba46f800	-0.00075900555
209	0xbd306299	-0.04306278
210	0x3e31b863	0.17355494
211	0xbe6a89b3	-0.2290409
212	0x3e4340f5	0.19067748
213	0x3cbcde25	0.023055146
214	0xbd5b608f	-0.053558882
215	0xbe66cdfa	-0.22539511
216	0x3da1703b	0.078827344
217	0xbe2dfac3	-0.16990189
218	0x3d3a9881	0.045555595
219	0x3bb6c232	0.005577349
220	0xbe146b7d	-0.14494129
221	0xbe9f5f94	-0.31127608
222	0x3e3cbae4	0.18430668
223	0x3e854cc3	0.26035127
224	0xbdf4de79	-0.11956496
225	0x3ead003a	0.33789235
226	0xbd95abbf	-0.073081486
227	0x3cb01d3c	0.021498315
228	0xbe8cc8c6	-0.27496928
229	0xbe039745	-0.12850673
230	0x3db540f6	0.08850281
231	0xbdbf377c	-0.09336755
232	0x3c412ac1	0.0117899785
233	0x3e7926dd	0.24331231
234	0x3dd70fff	0.10501098
235	0xbe7f8b0e	-0.24955389
236	0xbd8c140a	-0.0683976
237	0x3de76164	0.11297873
238	0x3e1c4f4f	0.15264629
239	0xbe926d45	-0.2859899
240	0xbe3efc25	-0.18650873
241	0x3d127085	0.03575184
242	0xbde98d37	-0.11403888
243	0xbe32a90d	-0.174473
244	0xbe15b34a	-0.14619175
245	0x3df50ca1	0.119652994
246	0x3ded1099	0.115754314
247	0x3bfa125b	0.0076315827
248	0xbd88931e	-0.066686854
249	0x3d405b23	0.046961915
250	0x3e03cb41	0.12870504
251	0xbd909c18	-0.070610225
252	0x3e2e3733	0.17013244
253	0x3e05e81e	0.13076827
254	0xbda6398e	-0.081164464
255	0xbe02d415	-0.12776215

rnn.weights_lin_z f4 [50, 70]
0	0xbdb40704	-0.087904006
1	0xbd09b18d	-0.03361659
2	0xbd34984c	-0.044090554
3	0x3d934116	0.071901485
4	0x3dbcb5f9	0.09214396
5	0x3e238226	0.15967616
6	0x3e28a540	0.16469288
7	0xbc0e9307	-0.008702046
8	0xbd7921ce	-0.060823254
9	0xbe1e233c	-0.15443128
10	0x3db81b63	0.089895986
11	0xbe3c3ee3	-0.18383364
12	0x3e319699	0.17342605
13	0xbdcd1c29	-0.10015137
14	0x3da06462	0.078316465
15	0x3e17046c	0.1474778
16	0x3ca4bc62	0.02010936
17	0x3ccae596	0.024767678
18	0x3c44a039	0.012001091
19	0x3de039ae	0.109485015
20	0xbd3ee6f3	-0.04660697
21	0x3db34b09	0.08754546
22	0xbe0b186f	-0.1358354
23	0xbe41df58	-0.18932855
24	0x3e3c60d7	0.18396316
25	0x3dc67e2d	0.09692035
26	0xbce2ecc6	-0.027700793
27	0xbdb27db1	-0.0871538
28	0xbe513247	-0.20429336
29	0xbc21fce1	-0.009886951
30	0x3e05ac7b	0.13054077
31	0xbc58077d	-0.013185379
32	0x3a783e64	0.0009469746
33	0x3d54e0ea	0.051972307
34	0x3d6ece58	0.058302253
35	0x3cbddf30	0.023177713
36	0xbe3be3fd	-0.1834869
37	0xbd0480bf	-0.032349344
38	0x3d1cd9e8	0.03829375
39	0x3a2b2ab3	0.0006529495
40	0x3b2ebcca	0.002666282
41	0x3bb0478e	0.0053796237
42	0xbd4a5a75	-0.049402673
43	0xbd4378f2	-0.047722764
44	0xbe45a741	-0.19302084
45	0xbdf3d891	-0.11906541
46	0xbe612150	-0.21985364
47	0xbd73f9dc	-0.059564456
48	0xbded455f	-0.11585497
49	0x3e1f7549	0.15572084
50	0x3d26c5bd	0.04071592
51	0x3c4366bf	0.011926352
52	0xbde48615	-0.111583866
53	0xbdd9992a	-0.10624917
54	0x3c7b823f	0.015350877
55	0x3be5ea5a	0.0070164623
56	0x3ce23e8a	0.027617712
57	0xbd3b0d04	-0.04566671
58	0xbcaf4c5d	-0.021398718
59	0xbc0a9062	-0.008457275
60	0xbd064da1	-0.032788876
61	0xbe0d6221	-0.13806964
62	0xbe668191	-0.22510363
63	0x3dbcda7a	0.092213586
64	0x3e241b4a	0.16026035
65	0x3d2bd827	0.041954186
66	0xbe07c9cd	-0.13260575
67	0x3e47d49b	0.19514696
68	0xbda050f7	-0.07827943
69	0xbc9aeaef	-0.018910853
70	0x3b8f8250	0.004379548
71	0x3ddbb54c	0.10727939
72	0xbe2a0f54	-0.1660741
73	0x3d8e1f74	0.06939593
74	0x3e4ff048	0.20306504
75	0x3d8f7fe1	0.07006813
76	0x3bf57db7	0.007491793
77	0x3d165e58	0.036711067
78	0xbd670e86	-0.056410335
79	0x3df4ee16	0.11959474
80	0x3e3d7a0d	0.1850359
81	0x3e3e6bfc	0.1859588
82	0xbd93bd9d	-0.072139
83	0xbe165788	-0.14681828
84	0x3d38e3bb	0.045139056
85	0x3e116a47	0.14200698
86	0xbd4afdeb	-0.04955856
87	0xbc04bd7e	-0.008101819
88	0x3da79bc7	0.08184009
89	0x3d540895	0.051765997
90	0x3db2ab32	0.08724059
91	0x3e2cf52c	0.168904
92	0xbc290f6a	-0.010318616
93	0xbda5265e	-0.080639586
94	0xbe3c9d0f	-0.18419288
95	0x3c7a2b73	0.015269148
96	0xbe0ada93	-0.13559942
97	0xbd664b55	-0.056224186
98	0xbd8340d0	-0.064088464
99	0xbe0fcb35	-0.14042361
100	0x3daf7d78	0.08568853
101	0xbd657766	-0.05602207
102	0xbd13477e	-0.035956852
103	0xbabb8aa8	-0.001430829
104	0xbd879339	-0.06619877
105	0xbe11143f	-0.1416788
106	0xbe56cc20	-0.20976305
107	0xbe83c57b	-0.25736603
108	0xbe0f82e5	-0.14014776
109	0xbdfcc755	-0.12342707
110	0xbdb18354	-0.08667627
111	0x3e470154	0.194341
112	0x3db8d873	0.090256594
113	0xbdda3173	-0.10653963
114	0xbd07c23e	-0.03314423
115	0xbd641398	-0.05568275
116	0xbe4c8a8b	-0.19974725
117	0xbda46ca1	-0.08028532
118	0xbc5e3952	-0.013563471
119	0xbd53f225	-0.0517446
120	0x3ce4fb94	0.027951993
121	0x3c454e8c	0.012042653
122	0x3e01bf6c	0.12670678
123	0xbe2e177e	-0.17001149
124	0xbe03b610	-0.1286242
125	0xbc12086c	-0.008913141
126	0x3d940f8e	0.07229529
127	0x3e15ed18	0.14641225
128	0xbaf79d87	-0.0018891551
129	0x3c48df6c	0.012260299
130	0xbcb43dda	-0.02200215
131	0x3d27b34a	0.040942468
132	0xbd71ed4a	-0.059064187
133	0x3d0d9415	0.03456505
134	0xbcc9bf5c	-0.02462738
135	0xbd5a912a	-0.053361095
136	0xbd939a08	-0.072071135
137	0x3c8835b3	0.016627168
138	0xbd0a35a7	-0.033742573
139	0x3dcd16da	0.10014124
140	0x3a46e648	0.0007587415
141	0xbdeeac7f	-0.11653995
142	0xbcbee1b0	-0.023300976
143	0x3dba3cd6	0.09093635
144	0x3cd14a0b	0.025548002
145	0xbd0fc0d9	-0.035096023
146	0x3d9f1c3e	0.07769059
147	0x3e1f7182	0.15570644
148	0x3d5e3227	0.054247048
149	0x3d4d898d	0.050180007
150	0x3b8ca862	0.0042925337
151	0xbe053794	-0.13009483
152	0x3dee949a	0.11649437
153	0x3e0416f4	0.12899381
154	0xbcf8bea1	-0.030364336
155	0x3cfc2372	0.03077862
156	0xbe2d065f	-0.16896962
157	0x3e332660	0.17495108
158	0xbe3e93bb	-0.18611042
159	0xbe12f2dc	-0.14350456
160	0xbe50739e	-0.20356604
161	0x3d069176	0.032853566
162	0x3e2e38a0	0.17013788
163	0xbe4d9cf7	-0.20079409
164	0xbcaa2029	-0.020767288
165	0xbdacf678	-0.08445448
166	0x3c175cf6	0.009238472
167	0x3dd25087	0.102692656
168	0xbcef4963	-0.029209798
169	0x3e03990d	0.12851353
170	0xbe4edd2d	-0.2020156
171	0xbbc384d9	-0.0059667644
172	0x3e4aadfc	0.19792932
173	0xbd8d0453	-0.068855904
174	0x3d10eea8	0.03538385
175	0x3e2d0207	0.16895305
176	0x3e00f4fe	0.12593457
177	0xbddecd46	-0.108789966
178	0x3e05181f	0.12997483
179	0x3ce50bce	0.02795973
180	0xbd8820f2	-0.06646909
181	0xbdcd9c8b	-0.10039624
182	0x3da81001	0.082061775
183	0xbe30e0af	-0.1727321
184	0xbc76fe88	-0.015075333
185	0xbe0ccabb	-0.1374921
186	0xbc91d592	-0.017802034
187	0x3dc05663	0.09391477
188	0xbdc4c96d	-0.096087314
189	0x3e3593b8	0.17732131
190	0x3d460fff	0.0483551
191	0x3d13f084	0.036118045
192	0xbce79e10	-0.028273612
193	0xbd57f7bf	-0.052726503
194	0xbe469262	-0.19391778
195	0x3dbfe07a	0.093689874
196	0x3c0da543	0.0086453585
197	0xbda28ed4	-0.079373986
198	0xbdc0daca	-0.09416731
199	0xbe156491	-0.14589144
200	0xbd553717	-0.05205449
201	0xbe1321ce	-0.14368364
202	0xbd92d554	-0.07169595
203	0xbddb2a4c	-0.10701427
204	0x3d261314	0.040545538
205	0xbd1e0a74	-0.038584188
206	0x3d1a8a6e	0.037729673
207	0xbd242a11	-0.04007918
208	0x3c581a95	0.013189931
209	0xbc4e3404	-0.012585644
210	0x3e49f3b0	0.19721866
211	0xbe612dc1	-0.2199011
212	0x3d285d19	0.04110441
213	0x3de2f727	0.11082297
214	0xbe017375	-0.126417
215	0xbc7c2ea1	-0.015391977
216	0xbd8cb6bd	-0.06870792
217	0xbe1ce699	-0.15322341
218	0x3e77c649	0.24196734
219	0x3d9f59c7	0.077807955
220	0x3e0bda6e	0.13657543
221	0x3d3c5bdf	0.045986053
222	0x3de86c5b	0.11348792
223	0xbd0702b6	-0.03296157
224	0x3d7f092f	0.062264618
225	0x3d8ed489	0.069741316
226	0xbb152e9d	-0.002276338
227	0xbb0f677d	-0.0021881752
228	0xbe568be6	-0.20951805
229	0xbc95d59a	-0.01829033
230	0xbdcfa0b4	-0.101380736
231	0x3d3a2940	0.045449495
232	0xbdafbf8c	-0.085814565
233	0xbdc32735	-0.095289625
234	0x3e6a497a	0.22879592
235	0xbd6a7e64	-0.05724944
236	0xbd2e3b47	-0.042537
237	0x3e313885	0.17306717
238	0xbdfdc892	-0.123917714
239	0x3d9b2f2a	0.07577355
240	0x3ceca1b5	0.028885702
241	0x3d94af7f	0.07260036
242	0x3d3fe50c	0.046849295
243	0x3dbaf3b3	0.09128513
244	0x3d62d0bc	0.055374846
245	0x3e14ac7a	0.1451892
246	0x3e3424a6	0.17592105
247	0x3c0f4fdb	0.008747066
248	0x3c826b1f	0.01592022
249	0x3d3e53e0	0.04646671
250	0xbc2d12e9	-0.010563591
251	0x3b9d6b2e	0.0048040366
252	0xbd276e3f	-0.040876623
253	0x3d3a8f50	0.04554683
254	0x3a780c1e	0.0009462255
255	0x3e2b43d7	0.16725098

rnn.bias f4 [150]
0	0x3e1adccc	0.1512329
1	0x3e595c4d	0.21226616
2	0x3e1d630f	0.15369819
3	0x3ea8123f	0.3282642
4	0x3edbeac1	0.4295254
5	0x3e8b7220	0.27235508
6	0x3e2a0f03	0.16607289
7	0x3e28460c	0.16432971
8	0x3eb4c1a3	0.35303983
9	0x3ea8c0a7	0.32959482
10	0x3ed2114f	0.4102883
11	0x3e2a4086	0.16626176
12	0x3e5909e8	0.21195185
13	0x3eca0f64	0.39464867
14	0x3e927587	0.2860529
15	0x3e6927cd	0.22769089
16	0x3ed94fea	0.42443782
17	0x3ea54e82	0.3228646
18	0x3e1c60ce	0.15271303
19	0x3e6fe8a3	0.23428588
20	0x3e74197a	0.23837844
21	0x3e9721d4	0.29517996
22	0x3eb54e10	0.3541112
23	0x3e83fdf6	0.25779694
24	0x3e990835	0.29889074
25	0x3e67880f	0.22610496
26	0x3ed669e7	0.41877672
27	0x3e8fee18	0.2811134
28	0x3ecb5c8e	0.3971905
29	0x3edbb462	0.4291106
30	0x3e9e3be1	0.3090506
31	0x3e1443f5	0.14479049
32	0x3e855d16	0.2604758
33	0x3ed681d5	0.4189593
34	0x3eafb49a	0.34317476
35	0x3e9eeb2d	0.310388
36	0x3e694b42	0.22782615
37	0x3eb789e7	0.358474
38	0x3e8f8f1b	0.28038868
39	0x3e4d6995	0.20059808
40	0x3ec6540b	0.38735995
41	0x3ed2777b	0.4110678
42	0x3e4f8152	0.20264176
43	0x3e97bcf9	0.29636362
44	0x3e119ecd	0.14220734
45	0x3eb92c89	0.3616679
46	0x3e3abbe4	0.18235737
47	0x3e4d3dac	0.20043057
48	0x3ed098c4	0.4074155
49	0x3edccacb	0.4312347
50	0xbd91bb87	-0.07115846
51	0xbd97d6ce	-0.074140176
52	0x3d923766	0.07139473
53	0x3c85448f	0.016268043
54	0xbc6207ac	-0.013795774
55	0x3dfde6db	0.12397548
56	0x3de08cb9	0.10964341
57	0x3d598178	0.053101987
58	0xbcef9131	-0.029244037
59	0xbdd52c51	-0.10408843
60	0xbda9a29e	-0.0828297
61	0xbe0c6428	-0.13710082
62	0xbda3fe39	-0.080074735
63	0x3a8d8796	0.0010797854
64	0xbb1ea533	-0.0024207353
65	0x3e0688e2	0.13138154
66	0x3b91bcb2	0.004447543
67	0x3d582e5d	0.05277859
68	0xbdde1b99	-0.108451076
69	0xbdb9419e	-0.090457186
70	0xbd5904e3	-0.052983176
71	0xbdfdf766	-0.12400703
72	0xbcf63bf0	-0.030057877
73	0xbd7685b8	-0.060186118
74	0x3d45ac1b	0.048259836
75	0x3d8b74dc	0.068093985
76	0x3d9bb6e5	0.07603244
77	0x3d9b2fc4	0.0757747
78	0xbc978487	-0.018495811
79	0xbd42d9ef	-0.04757112
80	0x3c293551	0.010327653
81	0xbc6f59c6	-0.014608806
82	0xbdafa73c	-0.08576819
83	0x3e189cdb	0.14903586
84	0xbe5772c7	-0.21039878
85	0x3c106bdb	0.008814777
86	0x3de4020b	0.11133202
87	0xbc1dd5a8	-0.009633459
88	0xbdc3cc81	-0.095604904
89	0x3de7ec93	0.1132442
90	0xbd33d5b4	-0.043904975
91	0xbd4f7b68	-0.0506548
92	0xbd3a277b	-0.045447808
93	0xbe001355	-0.12507375
94	0xbdc9dae9	-0.09856207
95	0x3b6b5e56	0.0035914383
96	0xbdc3f29d	-0.09567759
97	0x3d84af16	0.064787075
98	0xbc666d0e	-0.014064087
99	0x3d9c520b	0.07632836
100	0x3e38b3cc	0.18037337
101	0x3e3c9c75	0.18419059
102	0x3e595080	0.21222115
103	0x3e6da715	0.23208268
104	0x3ee8717c	0.45399082
105	0x3ebbc623	0.36674604
106	0x3ec16bb8	0.37777495
107	0x3e93ad56	0.28843182
108	0x3ed006e0	0.40630245
109	0x3ee66ad5	0.4500338
110	0x3e8c3c00	0.27389526
111	0x3e45021a	0.19239083
112	0x3e923433	0.2855545
113	0x3ead3b64	0.33834374
114	0x3e94d885	0.2907144
115	0x3ea6a83e	0.32550234
116	0x3e591c06	0.21202096
117	0x3e61377a	0.21993819
118	0x3e5685ae	0.20949432
119	0x3eec16d3	0.46111163
120	0x3e8aef95	0.27135912
121	0x3ec3dab9	0.3825281
122	0x3eb38910	0.35065508
123	0x3e667d6e	0.22508785
124	0x3e2b731a	0.16743127
125	0x3e3b504f	0.18292354
126	0x3ea4e530	0.32206106
127	0x3e9abc51	0.302218
128	0x3ec2c050	0.38037348
129	0x3ec33916	0.3812949
130	0x3e2a4547	0.1662799
131	0x3e398ded	0.18120547
132	0x3ea5693d	0.32306853
133	0x3eaaa3e5	0.33328167
134	0x3eaa2dee	0.33238167
135	0x3ebe3729	0.3715146
136	0x3e95e0be	0.29273027
137	0x3e966d91	0.29380468
138	0x3e44cab0	0.19217944
139	0x3ea9dcee	0.33176368
140	0x3ee67bd8	0.4501636
141	0x3ea2c876	0.31793565
142	0x3eb57692	0.35442024
143	0x3eab70e8	0.33484578
144	0x3e4d7f64	0.20068127
145	0x3ec2ea50	0.3806939
146	0x3eddf35f	0.4334974
147	0x3ed96e8c	0.42467153
148	0x3eb51fcc	0.35375822
149	0x3ea23094	0.31677687

rnn.bias_lin_z f4 [50]
0	0x3d82d5ba	0.06388421
1	0xbe37e55f	-0.17958592
2	0x3ddd56c7	0.10807567
3	0xbbe86ef4	-0.007093305
4	0x3c5e17cb	0.013555477
5	0xbdcd2251	-0.10016311
6	0x3e2ff81a	0.17184487
7	0xbdeab52b	-0.11460336
8	0x3c9cc126	0.01913507
9	0x3d961e45	0.07329992
10	0xbdf40db7	-0.119166784
11	0xbe860fef	-0.2618403
12	0x3d94ce90	0.07265961
13	0x3e363ac5	0.17795856
14	0x3d147e13	0.036253046
15	0x3e0dab33	0.13834839
16	0xbdc02b9e	-0.09383319
17	0xbda13c06	-0.07872777
18	0x3cc86559	0.024462389
19	0xbcc208d6	-0.023685854
20	0x3dcfb86f	0.101426
21	0xbcebae57	-0.028769655
22	0x3d837bb6	0.0642008
23	0x3df669d9	0.120319076
24	0x3d99b78c	0.07505712
25	0xbdfae483	-0.122506164
26	0xbdf997ee	-0.121871814
27	0x3e1de5a9	0.1541964
28	0xbc924f65	-0.017860124
29	0xbe553218	-0.2081989
30	0xbc905266	-0.017617416
31	0x3db72116	0.089418575
32	0xbd783d1a	-0.060605146
33	0xbd0daed5	-0.03459056
34	0xbe40f313	-0.18842725
35	0x3dcfc2b5	0.10144559
36	0x3dcbbdb0	0.099482894
37	0xbd4772bb	-0.0486934
38	0xbe070d28	-0.13188612
39	0x3e145ee0	0.14489317
40	0x3da71541	0.08158351
41	0x3d3adb86	0.04561951
42	0x3dcb329d	0.09921763
43	0x3d01ec0c	0.031719252
44	0xba5374ab	-0.0008066396
45	0xbdc5e36b	-0.09662517
46	0xbcaef229	-0.021355705
47	0xbe173cf0	-0.1476934
48	0x3e32548b	0.17415063
49	0xbdfb1dc6	-0.12261538

classifier.weight f4 [20, 50]
0	0x3eb2a5ef	0.34892222
1	0x3e4c6ed3	0.19964151
2	0x3e76959b	0.24080507
3	0x3df2a292	0.11847414
4	0x3d9b4763	0.07581975
5	0xbcb81de3	-0.022475189
6	0x3dc82baa	0.09773953
7	0x3e84ef8f	0.2596402
8	0x3d91fc49	0.07128198
9	0xbe999203	-0.2999421
10	0x3b9e3e44	0.0048292
11	0xbe3bee80	-0.183527
12	0xbd4370f7	-0.047715154
13	0xbe7f26dc	-0.24917167
14	0x3c4fe098	0.012687825
15	0x3da46d33	0.080286406
16	0xbec0de7c	-0.37669742
17	0x3ee6816e	0.45020622
18	0xbe13547d	-0.14387698
19	0x3ef8a256	0.48561352
20	0xbee241ba	-0.4419077
21	0x3e1adb23	0.15122657
22	0x3eacaef5	0.33727232
23	0xbd64f6c7	-0.055899408
24	0xbea1672a	-0.3152402
25	0x3da43304	0.08017543
26	0x3e1f54dd	0.15559717
27	0x3d1b9550	0.037984192
28	0xbee2be90	-0.44286013
29	0x3ee9b937	0.4564912
30	0x3ee3b345	0.4447271
31	0x3e316fd8	0.17327821
32	0x3ed918e5	0.42401806
33	0xbebbb59e	-0.36662
34	0xbe1115b4	-0.14168435
35	0xbcf7bb98	-0.030240819
36	0x3eea1f42	0.45726973
37	0xbe1ac53d	-0.15114303
38	0xbdc2f520	-0.0951941
39	0x3ec399c6	0.38203257
40	0xbe83e14d	-0.25757828
41	0xbe30cae2	-0.17264894
42	0x3c6758fd	0.014120338
43	0x3d8be9a1	0.068316706
44	0x3e99661f	0.29960725
45	0x3e1fccf0	0.15605521
46	0x3e0e1f11	0.13879038
47	0xbc7afd31	-0.015319155
48	0x3ea2d1c2	0.31800658
49	0x3eac130c	0.33608282
50	0x3d14ec01	0.036357883
51	0xbce932f5	-0.028466681
52	0xbcfdf27f	-0.03099942
53	0xbe92f742	-0.28704268
54	0x3edbd031	0.42932275
55	0xbe1663f6	-0.1468657
56	0xbe2592de	-0.16169307
57	0xbddbf010	-0.10739148
58	0xbddef0b8	-0.10885757
59	0xbbc87e97	-0.0061186063
60	0xbee0b571	-0.4388843
61	0xbed3bf10	-0.41356707
62	0xbeaff5fc	-0.3436736
63	0x3e3bb1ef	0.18329595
64	0xbda6bb39	-0.08141179
65	0xbe1fda92	-0.15610722
66	0x3e1e4ccd	0.15458985
67	0x3e853e56	0.2602412
68	0xbd6b8cfe	-0.057507508
69	0x3da38af4	0.079854876
70	0x3d9e747a	0.0773706
71	0x3ea0f3db	0.31436047
72	0x3f06da63	0.5267698
73	0x3e923ee3	0.28563604
74	0x3cccbffc	0.024993889
75	0xbd3fcd1c	-0.046826467
76	0x3e0e5ed9	0.13903369
77	0xbe9a93c4	-0.3019086
78	0x3e32874c	0.17434424
79	0xbe3d5531	-0.18489529
80	0xbe483a73	-0.19553547
81	0x3e365aa0	0.17808008
82	0x3e403cdb	0.18773215
83	0xbd903cbb	-0.070428334
84	0xbe89db9f	-0.2692537
85	0xbeec6911	-0.4617391
86	0xbd5ae526	-0.05344119
87	0x3eeff860	0.46869183
88	0x3e4ee426	0.20204219
89	0xbef3f1b0	-0.4764533
90	0xbe6db211	-0.23212458
91	0x3e320b54	0.17387134
92	0xbef7abea	-0.48373348
93	0x3d2f463c	0.04279159
94	0x3e586177	0.2113093
95	0x3d424ba9	0.047435436
96	0xbf0735dc	-0.5281656
97	0x3e64065e	0.22268054
98	0x3e13b983	0.14426236
99	0xbe1f8960	-0.15579748
100	0xbe104070	-0.14087081
101	0x3ea6b83c	0.32562435
102	0xba299353	-0.00064687914
103	0xbec0fcd1	-0.37692884
104	0x3cd934e3	0.026514476
105	0x3ed5eaf6	0.41780823
106	0x3eae8322	0.3408442
107	0xbed12378	-0.40847373
108	0x3b2d0143	0.0026398457
109	0x3f0c1bdc	0.5473001
110	0xbe81625f	-0.25270364
111	0x3dc96660	0.098339796
112	0xbeaa8463	-0.33304128
113	0xbe4540b1	-0.19262959
114	0xbdf01d12	-0.11724295
115	0x3df3bb0c	0.11900911
116	0xbd7d0b46	-0.06177833
117	0x3d71aa30	0.059000194
118	0x3e669390	0.22517228
119	0xbcd7b152	-0.02632967
120	0x3e6ab931	0.22922207
121	0xbe40eeaa	-0.18841043
122	0x3f0fcae8	0.56168985
123	0x3eb368b0	0.35040808
124	0xbf0095b9	-0.5022846
125	0xbe88f7b7	-0.2675149
126	0xbe9f3fd4	-0.31103384
127	0x3e8e660d	0.27812234
128	0x3db5f5a8	0.08884746
129	0x3d610431	0.054935638
130	0xbd07825f	-0.033083316
131	0x3e17a01d	0.14807172
132	0xbdc0060b	-0.093761526
133	0x3e91e877	0.2849767
134	0x3dd7040b	0.10498818
135	0x3e139816	0.14413485
136	0x3db5f37d	0.08884332
137	0xbd90179f	-0.07035755
138	0xbf23914b	-0.63893574
139	0xbc934457	-0.017976923
140	0xbcb0de6d	-0.021590436
141	0x3e16a162	0.1471
142	0xbb9f3f93	-0.0048598736
143	0xbe84a15c	-0.25904357
144	0x3e18c342	0.14918235
145	0x3e1f09a4	0.15531021
146	0x3cf1b6e9	0.029506164
147	0xbd072dfb	-0.033002835
148	0xbdabf4cb	-0.083963
149	0xbe8349b5	-0.25642172
150	0xbec756c3	-0.3893338
151	0xbee0c7d5	-0.4390246
152	0x3d140d35	0.036145408
153	0x3ed870f2	0.4227367
154	0x3d98a335	0.07453004
155	0x3da5c718	0.08094615
156	0xbe15e0bb	-0.14636509
157	0x3e6bd913	0.23032026
158	0x3dfdd22f	0.12393605
159	0x3ed4386f	0.41449305
160	0x3ee436dd	0.44573107
161	0x3b80e710	0.003933795
162	0xbde8e972	-0.11372651
163	0xbd1db04f	-0.03849822
164	0x3e7b3fce	0.24536058
165	0xbf0b4aff	-0.5441131
166	0xbe41a1d8	-0.18909395
167	0xbd860f44	-0.065458804
168	0xbe39c50b	-0.18141572
169	0x3dac8cc6	0.08425288
170	0xbcd36fc3	-0.025810128
171	0xbd1b8997	-0.037973013
172	0x3f00f861	0.50378996
173	0xbe2262ac	-0.15857953
174	0x3ebef2b4	0.37294543
175	0xbeac1400	-0.3360901
176	0xbe4ae7d0	-0.19814992
177	0x3d9fdf60	0.07806277
178	0x3ed2618e	0.41090053
179	0xba7b13fc	-0.0009577868
180	0xbe9b7396	-0.30361623
181	0x3e3a393c	0.18185896
182	0x3e35c5f6	0.17751297
183	0xbedc211c	-0.4299401
184	0x3d907a74	0.07054606
185	0xbec7d235	-0.39027563
186	0x3e1e1ed8	0.15441453
187	0x3e800fac	0.25011957
188	0xbecc8cc2	-0.3995114
189	0x3e39c4e7	0.18141519
190	0x3dfece74	0.124417216
191	0x3c4694a2	0.012120398
192	0x3e1d08e1	0.15335418
193	0xbee6d0a1	-0.45081046
194	0xbe6bdf83	-0.23034482
195	0x3bf00fae	0.007326088
196	0x3e76c1d0	0.24097371
197	0xbe1030e1	-0.14081146
198	0x3ec2e240	0.3806324
199	0xbdf3c6f5	-0.119031824
200	0xbe38a2fa	-0.1803092
201	0x3c411fd7	0.011787376
202	0xbea23053	-0.31677493
203	0x3e90b362	0.28261858
204	0x3e5b2db7	0.21404158
205	0xbe750cdd	-0.23930688
206	0x3d93dec9	0.07220227
207	0xbdec28f4	-0.11531249
208	0x3e640d9e	0.2227082
209	0xbe832adf	-0.25618646
210	0xbeef4a3f	-0.46736333
211	0x3e3b7b2e	0.18308708
212	0xbe755a4a	-0.23960224
213	0x3e368c31	0.17826916
214	0xbd9f83b4	-0.07788792
215	0x3f1ca792	0.6119319
216	0xbd59dd88	-0.053189784
217	0xbe7defa0	-0.24798441
218	0x3b379e20	0.0028017834
219	0xbe5ce865	-0.21573026
220	0xbe1ba4a6	-0.15199527
221	0x3eaca53e	0.3371982
222	0x3e655410	0.22395349
223	0xbeaf12d7	-0.3419406
224	0x3d9062f4	0.07050124
225	0x3e3c3cfd	0.1838264
226	0xbeaa6043	-0.33276567
227	0xbdeb9395	-0.115027584
228	0x3e3332e1	0.17499878
229	0x3e638840	0.22219944
230	0x3c63bb9e	0.013899712
231	0x3e213c8f	0.15745758
232	0xbdf15e2d	-0.11785541
233	0xbdac4ddb	-0.08413287
234	0x3ed0d1d1	0.40785077
235	0xbd47a8c6	-0.04874494
236	0xbd979053	-0.074005745
237	0x3ecaff60	0.3964796
238	0xbe5e32f6	-0.21699128
239	0x3eb0e23b	0.345476
240	0xbe91878a	-0.2842372
241	0x3e946afc	0.28987873
242	0xbe0e75eb	-0.1391217
243	0xbe330607	-0.17482768
244	0xbdb1530e	-0.086584195
245	0xbe0d5343	-0.13801293
246	0x3ed63a56	0.41841382
247	0xbcc2ba6f	-0.02377054
248	0x3ea4ab0b	0.32161745
249	0x3e964350	0.2934823
250	0x3c3bf8f5	0.01147293
251	0xbebd66dc	-0.36992538
252	0x3f29a2c0	0.6626396
253	0x3edcaeab	0.4310201
254	0xbe97a911	-0.29621175
255	0x3e9a1653	0.30095157

classifier.bias f4 [20]
0	0xbd90a09c	-0.07061884
1	0x3c1c03f0	0.009522423
2	0xbdd6bf7a	-0.1048574
3	0xbdc35bcd	-0.09538994
4	0xbd4bb135	-0.049729545
5	0xbdf84643	-0.12122776
6	0xbe1d053e	-0.15334031
7	0x3d639f53	0.055571865
8	0xbd06f277	-0.032946076
9	0xbd50ea13	-0.05100448
10	0xbd9d47c0	-0.07679701
11	0xbd9ba021	-0.075989015
12	0xbd79a510	-0.06094843
13	0xbcfc45ab	-0.030794939
14	0xbe03adb3	-0.1285923
15	0xbd7f03c9	-0.06225947
16	0xbd86498b	-0.06556996
17	0x3d55b959	0.052178714
18	0xbdd93124	-0.10605076
19	0x3d26632e	0.04062193
