Final Project/LEM-main/models/lorenz96/7/model.pt (torch, 424535 bytes, 6 tensors)

rnn.weights f4 [450, 170]
-0.26542893 0.08446073 -0.012097577 -0.19274181 0.015675241 -0.0073054773 -0.07602992 -0.05426322
-0.10812116 -0.05881239 0.14359973 -0.0888351 -0.11658358 0.086936176 -0.14352843 0.013404343
-0.10433088 0.19744457 -0.16765688 0.088252045 -0.03200665 -0.11714307 0.068959996 -0.09667049
-0.09816491 0.25074676 -0.17520739 0.10644075 0.051681116 0.06269994 -0.05381971 -0.026016328
0.05690589 -0.033777844 -0.07612641 0.03724759 -0.23845617 0.056502596 0.11142442 -0.09500385
-0.041912332 -0.07072462 0.07750162 -0.047206264 0.15466113 0.09468235 0.07794917 -0.15373088
0.06794915 0.06811518 -0.1348219 0.055182625 0.035686772 -0.013751981 0.07963413 -0.14808194
-0.049359884 -0.08779056 0.14096636 -0.015050356 0.18851036 -0.04015492 0.092654504 -0.23033553
0.005977348 -0.13415708 0.12350647 -0.13234825 -0.10015442 0.09583512 -0.29336703 0.07287531
-0.08381181 0.045703575 -0.12447398 -0.075889096 -0.014945857 0.05638101 -0.09970469 -0.05949244
-0.08262969 0.07720651 0.0020411198 -0.056539267 -0.014369123 0.07208142 -0.03578712 -0.086080305
-0.034432698 -0.0295883 -0.09389405 0.07934241 -0.09524788 0.04297071 -0.1310634 -0.07255998
-0.038090304 -0.13947876 -0.19790512 -0.052688755 -0.047756553 0.02029175 -0.01511725 -0.0154985925
0.02406197 0.23679373 0.08942184 -0.05280308 -0.072664484 -0.14818381 -0.017276268 0.106975034
0.0036084165 -0.041910633 0.058361113 0.13425265 -0.03096058 0.086788915 -0.020780316 0.027529217
0.11958639 -0.1811364 0.15663213 -0.069306426 -0.17647527 -0.13902847 0.074526854 0.03941097
0.19948012 -0.067653805 0.16243799 -0.053108122 0.03339151 -0.283065 0.075091995 0.16543482
0.13274254 -0.11609476 0.16655852 0.050157666 -0.09706434 0.078104794 -0.005869112 0.15782
-0.0316399 -0.12611294 0.047099337 0.047558684 -0.011913162 -0.12836485 0.06030116 0.06454998
0.009312382 0.07791974 0.008614975 0.025623227 0.09501624 0.070535414 -0.047600456 0.040219095
-0.04148986 -0.05953469 -0.08388882 -0.04316482 0.31115788 -0.053413965 0.010793658 -0.37023807
0.06432764 0.08455786 -0.08401403 -0.07555203 -0.19693956 -0.035907153 -0.15790962 0.16362552
-0.062118545 -0.15283434 -0.070841804 0.07024339 -0.041749865 0.2440251 -0.050317116 -0.0038391342
-0.2554209 0.02943999 0.08172474 0.18939058 -0.08467319 -0.039553482 0.12408265 -0.17424364
0.04946366 0.12916857 0.10936032 0.13555963 -0.15724128 0.2398475 -0.010922693 0.22317272
0.03044735 0.036504485 0.058893763 0.095569685 0.082663 0.16114242 -0.15160659 0.27259177
0.038587052 -0.18799336 0.15742958 -0.04103955 -0.21684638 -0.065616235 -0.15666497 -0.15642288
-0.2539426 0.09516477 -0.005914833 0.14762302 -0.23945579 -0.08812185 -0.037433807 0.336994
-0.25551647 0.17750151 0.087622374 -0.051271662 -0.05582035 -0.075936764 -0.02374866 -0.14973417
0.006580034 -0.14161628 0.12335681 -0.21232684 0.1275841 0.100446604 0.090736404 -0.014759994
-0.029007675 -0.22254519 0.058517266 -0.29954475 -0.027436718 -0.058495425 0.028860833 0.111716464
0.025174174 0.026836017 0.02950957 -0.12935248 0.17264956 -0.09843079 0.045336716 -0.10780628
00000000: 4de6 87be bff9 ac3d ea34 46bc 1c5e 45be
00000010: 5d69 803c c962 efbb 93b5 9bbd 1c43 5ebd
00000020: a06e ddbd 43e5 70bd cf0b 133e 2def b5bd
00000030: 5fc3 eebd 980b b23d 1ef9 12be e49d 5b3c
00000040: 6eab d5bd e92e 4a3e 3fae 2bbe 7dbd b43d
00000050: 6819 03bd b5e8 efbd e63a 8d3d 2efb c5bd
00000060: af0a c9bd e161 803e 9169 33be 9cfd d93d
00000070: 94af 533d d368 803d 0e72 5cbd 3220 d5bc
00000080: 2716 693d a35a 0abd 2ae8 9bbd ee90 183d
00000090: db2d 74be 446f 673d 7c32 e43d 6191 c2bd
000000a0: 44ac 2bbd 12d8 90bd 2bb9 9e3d 5b5b 41bd
000000b0: 7d5f 1e3e d2e8 c13d d0a3 9f3d a16b 1dbe
000000c0: ed28 8b3d f97f 8b3d c10e 0abe 2d07 623d
000000d0: 4b2c 123d fd4f 61bc 3817 a33d cba2 17be
000000e0: 972d 4abd 8acb b3bd 7c59 103e c595 76bc
000000f0: dc08 413e 7c79 24bd a5c1 bd3d 14dd 6bbe
00000100: a1dd c33b 7960 09be f6f0 fc3d 4d86 07be
00000110: c31d cdbd 3445 c43d 3434 96be a73f 953d
00000120: 87a5 abbd ac33 3b3d 37ec febd be6b 9bbd
00000130: 78df 74bc c6ef 663d f931 ccbd 58ae 73bd
00000140: c139 a9bd 721e 9e3d 4fc4 053b b895 67bd
00000150: 786c 6bbc 6c9f 933d 8495 12bd df4a b0bd
00000160: 4d09 0dbd 2a63 f2bc 864b c0bd 467e a23d
00000170: 5211 c3bd 0e02 303d 7c35 06be 549a 94bd
00000180: 9404 1cbd 85d3 0ebe a4a7 4abe 2ad0 57bd
00000190: 609c 43bd e23a a63c 58ae 77bc cfed 7dbc
000001a0: 9c1d c53c 0e7a 723e cc22 b73d 0b48 58bd
000001b0: 1ed1 94bd 7fbd 17be f686 8dbc ba15 db3d
000001c0: 2f7b 6c3b 7caa 2bbd 100c 6f3d 8779 093e
000001d0: 0ba1 fdbc 63be b13d 7b3b aabc f484 e13c
000001e0: b6e9 f43d d27b 39be 2c64 203e 87f0 8dbd
000001f0: efb5 34be 7b5d 0ebe 89a1 983d 666d 213d
00000200: 8444 4c3e 148e 8abd 2556 263e e787 59bd
00000210: 89c5 083d e5ed 90be d5c9 993d bf67 293e
00000220: a9ed 073e 17c3 edbd 518e 2a3e 2072 4d3d
00000230: abc9 c6bd 68f5 9f3d ae51 c0bb 919b 213e
00000240: d798 01bd c023 01be 3ceb 403d e5cc 423d
00000250: 6c2f 43bc 1372 03be 59fe 763d c832 843d
00000260: f692 183c 6294 9f3d d325 0d3c cde7 d13c
00000270: e097 c23d df74 903d b2f8 42bd c7bc 243d
00000280: 45f1 29bd a6da 73bd e7cd abbd 98cd 30bd
00000290: 1650 9f3e 9ac8 5abd e2d7 303c d88f bdbe
000002a0: 36be 833d ac2c ad3d 8c0f acbd 06bb 9abd
000002b0: 86aa 49be 6113 13bd 0fb3 21be 738d 273e
000002c0: 0470 7ebd 9b80 1cbe 8215 91bd c4db 8f3d
000002d0: e801 2bbd b7e1 793e 5219 4ebd fc99 7bbb
000002e0: 87c6 82be 222c f13c 4d5f a73d 9bef 413e
000002f0: 2369 adbd d502 22bd 0b1f fe3d ed6c 32be
00000300: 689a 4a3d c444 043e 4ef8 df3d 25d0 0a3e
00000310: dc03 21be 959a 753e 18f5 32bc 6487 643e
00000320: b96c f93c ba85 153d 963a 713d 0aba c33d
00000330: 384b a93d 8502 253e c23e 1bbe 2691 8b3e
00000340: 750d 1e3d 5581 40be 3835 213e 1619 28bd
00000350: fa0c 5ebe ce61 86bd c86c 20be 522d 20be
00000360: c404 82be bfe5 c23d 37d1 c1bb 7d2a 173e
00000370: e633 75be 3a79 b4bd 3154 19bd 7a8a ac3e
00000380: 0ed3 82be f5c2 353e 5c73 b33d 3c02 52bd
00000390: e1a3 64bd bc84 9bbd 8d8c c2bc ea53 19be
000003a0: 539d d73b dc03 11be 7fa2 fc3d 356c 59be
000003b0: 68a5 023e f3b6 cd3d 02d4 b93d e7d3 71bc
000003c0: 81a1 edbc e3e2 63be cdaf 6f3d ee5d 99be
000003d0: f8c2 e0bc e698 6fbd 8e6d ec3c 9acb e43d
000003e0: 123a ce3c 35d7 db3c 0ebe f13c fa74 04be
000003f0: 0ccb 303e 1596 c9bd feb2 393d 8ac9 dcbd

rnn.weights_lin_z f4 [150, 170]
0.009494278 -0.042139053 0.1516039 0.14136638 0.04755161 -0.08653624 -0.027522182 -0.09823776
-0.064224355 -0.037828393 -0.019852184 0.14671594 0.032005124 0.052265264 -0.032663528 -0.107356235
-0.12772544 0.030177586 0.04397162 -0.10455224 0.114208475 0.029108621 0.025041938 0.0340404
0.06605558 -0.010064619 0.020895999 0.06764054 -0.039270535 0.04159177 -0.092366315 0.021734871
0.022280194 -0.027405053 0.04464502 -0.105145395 -0.08533035 0.0031453033 0.07705926 0.027401067
0.08972559 -0.016626645 -0.13692722 -0.014362214 -0.16301966 -0.0114548 -0.053648893 0.06962182
0.092711106 -0.052520912 0.06266353 -0.15861394 0.10015389 0.06270555 0.14859064 -0.17796043
-0.061982438 0.102485366 -0.010834356 -0.07649057 0.040234406 0.019334245 0.08564614 0.09172657
-0.10840314 0.062322624 -0.053794224 0.0014732645 -0.029174246 -0.01483714 0.048559945 -0.07480703
-0.048015308 -0.00937157 -0.052378602 0.036041416 -0.03422434 0.08646412 -0.044556133 -0.019197024
-0.13810454 -0.0011673474 0.07542566 -0.04492412 0.100160286 -0.024388831 0.016037073 -0.061157953
0.06550986 0.078740224 0.018876038 -0.12350864 0.112305045 0.004839303 -0.013983759 0.12650609
-0.1510068 -0.015652427 0.059851315 -0.08175425 -0.06550251 -0.0075414213 0.080130726 0.12137397
0.026974995 0.117207274 0.11746529 0.0365044 0.18641233 0.07485129 0.056134686 -0.029047674
0.113100395 0.045290086 -0.038729433 -0.009660788 -0.039157707 -0.08255241 0.04040839 -0.010032669
0.06483379 -0.06411575 0.004698569 0.007426221 -0.08079142 -0.123449504 0.054392233 0.06580336
0.028496368 0.019241877 0.01684577 0.061246008 0.051818024 0.024983056 0.06284751 0.050111834
-0.09983081 0.057068437 -0.06605786 -0.05090135 -0.103278145 0.058422584 -0.018610965 0.03933666
0.03430919 0.009491817 0.044633236 -0.059495818 -0.098898865 -0.0795034 0.025043672 -0.02439578
0.05523641 0.062337108 0.07130055 0.05219553 -0.060053885 0.0144326305 -0.010984262 -0.032855786
0.21078023 -0.001090554 0.10888501 0.037840154 0.016503695 0.0038873882 -0.008361903 0.051414717
0.017435728 0.0009015268 0.01569604 -0.042567465 0.040604696 -0.10058021 0.04554353 0.019619146
-0.047063243 -0.0032193952 -0.11570167 -0.05436438 -0.04615215 -0.090470746 -0.03928192 -0.011324845
-0.09388277 -0.024957936 -0.051735938 -0.100409314 0.046526723 0.06422491 -0.12182504 0.07489514
-0.017292026 -0.01356419 0.08859121 -0.09068591 -0.095279925 0.16544093 0.041305598 -0.07065894
0.07046992 0.017576532 0.025161784 -0.15609744 0.042687166 0.07817778 -0.011744277 0.04840536
0.023375958 0.00078923587 0.011665273 0.020552196 0.04720503 0.07533756 -0.016039368 0.04043277
0.00939849 -0.035794694 -0.030447861 -0.02912741 0.01871437 0.17137867 0.010880113 -0.008825395
0.029638298 -0.1441321 -0.051336892 -0.01100818 0.03902148 -0.08055428 -0.116994485 0.07303213
-0.021140056 -0.027056329 0.06166289 -0.010034209 -0.02011114 0.21830198 -0.026972348 0.113771774
0.07962952 0.11023263 -0.037345916 -0.07488782 0.016020846 0.08443866 -0.003745742 0.15552737
0.081565596 0.017927794 -0.04089313 0.028398963 -0.07177062 -0.07670884 0.015571409 -0.018170806
00000000: e38d 1b3c 009a 2cbd 0e3e 1b3e 59c2 103e
00000010: 7ac5 423d ea39 b1bd 3376 e1bc e130 c9bd
00000020: 0f88 83bd f2f1 1abd 0ca1 a2bc b43c 163e
00000030: ce17 033d 1a14 563d 31ca 05bd 96dd dbbd
00000040: 75ca 02be fc36 f73c 961b 343d 7c1f d6bd
00000050: 22e6 e93d 3475 ee3c c024 cd3c f26d 0b3d
00000060: 2648 873d 12e6 24bc 162e ab3c 2087 8a3d
00000070: 24da 20bd 225c 2a3d 8d2a bdbd 540d b23c
00000080: f484 b63c 9080 e0bc b2dd 363d 7856 d7bd
00000090: aec1 aebd 6f21 4e3b 3fd1 9d3d 3478 e03c
000000a0: 0dc2 b73d 9a34 88bc a636 0cbe 7e4f 6bbc
000000b0: a0ee 26be eaac 3bbc f1be 5bbd e295 8e3d
000000c0: 52df bd3d 2b20 57bd bd55 803d b16b 22be
000000d0: 7c1d cd3d c46b 803d 2528 183e 423b 36be
000000e0: 4ce1 7dbd d9e3 d13d 9582 31bc 17a7 9cbd
000000f0: d5cc 243d da62 9e3c 3e67 af3d 24db bb3d
00000100: 7702 debd 0246 7f3d 5557 5cbd 8e1a c13a
00000110: d4fe eebc 7a17 73bc cbe6 463d 6e34 99bd
00000120: b3ab 44bd 378b 19bc f28a 56bd 2aa0 133d
00000130: d22e 0cbd 1a14 b13d 7e80 36bd 1443 9dbc
00000140: 476b 0dbe ae01 99ba c578 9a3d 5b02 38bd
00000150: d620 cd3d 16cb c7bc 2e60 833c c380 7abd
00000160: 092a 863d 8e42 a13d eca1 9a3c 19f2 fcbd
00000170: 3000 e63d 0493 9e3b 231c 65bc d08a 013e
00000180: 87a1 1abe 8539 80bc a726 753d c66e a7bd
00000190: 2e26 86bd 071e f7bb 941b a43d ea92 f83d
000001a0: aafa dc3c 5e0a f03d a491 f03d a385 153d
000001b0: e0e2 3e3e a24b 993d 7ced 653d 63f5 edbc
000001c0: 2ea1 e73d 1982 393d c1a2 1ebd 4848 1ebc
000001d0: d563 20bd 3d11 a9bd 4583 253d 1060 24bc
000001e0: 94c7 843d 1e4f 83bd 74f6 993b a857 f33b
000001f0: f975 a5bd 18d3 fcbd 64ca 5e3d e9c3 863d
00000200: 3771 e93c 24a1 9d3c 2400 8a3c 18dd 7a3d
00000210: 233f 543d 44a9 cc3c 32b6 803d 1142 4d3d
00000220: 1974 ccbd 98c0 693d 5849 87bd ef7d 50bd
00000230: 7e83 d3bd 854c 6f3d 0676 98bc 7a1f 213d
00000240: cb87 0c3d 9183 1b3c 57d1 363d e3b1 73bd
00000250: 7d8b cabd aed2 a2bd 6328 cd3c a9d9 c7bc
00000260: 933f 623d 3255 7f3d 0606 923d fbca 553d
00000270: 10fb 75bd d776 6c3c 56f7 33bc ca93 06bd
00000280: c6d6 573e ecf0 8eba 1bff de3d 47fe 1a3d
00000290: c232 873c 8dc3 7e3b 5d00 09bc 3d98 523d
000002a0: 5fd5 8e3c 7054 6c3a fb94 803c 395b 2ebd
000002b0: 1c51 263d fffc cdbd da8b 3a3d 55b8 a03c
000002c0: 63c5 40bd 7dfc 52bb fff4 ecbd 2fad 5ebd
000002d0: 090a 3dbd ba48 b9bd 14e6 20bd d88b 39bc
000002e0: 9c45 c0bd 9674 ccbc 10e9 53bd 66a3 cdbd
000002f0: ce92 3e3d 5a88 833d 687f f9bd a062 993d
00000300: 02a8 8dbc 563c 5ebc 4f6f b53d 89b9 b9bd
00000310: 1f22 c3bd 5969 293e 0f30 293d a2b5 90bd
00000320: 8952 903d a9fc 8f3c 1620 ce3c 02d8 1fbe
00000330: bdd8 2e3d ac1b a03d 116b 40bc b344 463d
00000340: f07e bf3c b9e4 4e3a b41f 3f3c 145d a83c
00000350: 105a 413d 944a 9a3d fe64 83bc d59c 253d
00000360: 20fc 193c 759d 12bd cb6d f9bc 9b9c eebc
00000370: e14e 993c e47d 2f3e 8042 323c 6498 10bc
00000380: 04cc f23c 5d97 13be a246 52bd a75b 34bc
00000390: fdd4 1f3d a4f9 a4bd ce9a efbd df91 953d
000003a0: e92d adbc 3ca5 ddbc 3a92 7c3d 8666 24bc
000003b0: 1ec0 a4bc 8e8a 5f3e 1df5 dcbc 2d01 e93d
000003c0: cd14 a33d a5c1 e13d 08f8 18bd c95e 99bd
000003d0: 263e 833c 2dee ac3d 1f7b 75bb 9142 1f3e
000003e0: dd0b a73d 4fdd 923c 8e7f 27bd f1a4 e83c
000003f0: 7afc 92bd 8619 9dbd 391f 7f3c f1da 94bc

rnn.bias f4 [450]
0.28551263 0.3503766 0.28952286 0.26496828 0.13646016 0.29561704 0.32925996 0.18535848
0.23184 0.29775634 0.06280661 0.17747068 0.2227121 0.12068231 0.17751658 0.32455587
0.22035745 0.19152124 0.18201351 0.26274365 0.15014634 0.37662038 0.28773743 0.5058075
0.16704637 0.30547038 0.34946445 0.24179576 0.26463264 0.3756961 0.037610587 0.17280976
0.16231278 0.5018738 0.21758531 0.36519396 0.40602663 0.31639272 0.41191578 0.5144785
0.21971746 0.21859764 0.18554185 0.29483628 0.20382391 0.21529464 0.43977925 0.12579706
0.44117624 0.12480337 0.22784017 0.24187757 0.12880634 -0.042045537 0.31452942 0.16757178
0.031064462 0.30034074 0.22428636 0.26372096 0.27825445 0.22294113 0.133115 0.101393946
0.326797 0.37528202 -0.02275716 0.04642954 0.43973246 0.31896305 0.07064358 0.22409573
0.19216885 0.017794915 0.28350312 0.2051119 0.15333803 0.3844616 0.32719943 0.37847605
0.26172513 -0.039127894 0.36731914 0.22086978 0.26358533 0.20751503 0.12073816 0.30519614
0.1981172 0.105121285 0.22033407 0.07349099 0.2191838 0.12109052 0.3255666 0.16855809
0.1396844 0.12592235 0.17119603 0.19001023 0.27664298 0.2184736 0.31207678 0.29240328
0.23118044 0.24411269 0.26469997 0.47693956 0.49632767 0.27596992 0.32991016 0.27613163
0.46077067 0.4327959 0.54707766 0.3441852 0.32570603 0.09499313 0.28537023 0.34955335
0.15018097 0.33029014 0.34171873 0.2858142 0.4550606 0.31461677 0.36717233 0.019453285
0.5168424 0.27031526 0.3342472 0.24772218 0.25780845 0.1545323 0.13973196 0.20201501
0.1723234 0.055628695 0.045633968 0.15520954 0.3854164 0.3523774 0.20604677 0.41356042
0.34328693 0.24367906 0.31566286 0.20882656 0.3097366 0.23219495 0.17603898 -0.24327262
0.09388467 0.08158599 -0.07112902 0.11900101 0.17270543 -0.12450571 -0.11585684 0.22249159
-0.005526903 0.09330809 -0.11382256 -0.11255343 0.07257869 -0.23055092 -0.043846834 0.12313548
-0.09298515 -0.15938307 0.04212071 0.3233904 0.023941342 0.19722968 -0.062280215 -0.10212713
0.12524894 0.17697568 -0.009357342 0.0061840625 0.16022125 -0.12182319 0.025943017 -0.06172906
-0.028304396 -0.09909777 -0.056225102 0.0137175955 0.015716737 0.045658376 -0.10884987 -0.21267171
-0.13815166 -0.13076815 -0.0032824248 0.057267673 0.03563516 0.09855981 0.28242388 0.033110034
0.10205575 0.024329364 0.043555412 0.12092258 0.15905647 0.029846942 -0.06301783 -0.00962912
0.0598965 -0.20128109 0.1909047 -0.056091435 0.0048550796 -0.018742565 0.0742798 0.22753191
0.04515401 -0.041149314 -0.06968718 0.04060093 -0.06356104 -0.0612209 0.03497965 0.10614324
-0.054927774 -0.049584094 0.009895434 -0.14554194 -0.06273573 0.024450941 -0.20172215 0.035256132
-0.07754334 -0.08968275 0.046365947 0.17284912 0.046737336 -0.067022376 -0.003073919 0.006114209
0.10734175 0.0032705646 0.072759196 0.086934194 0.06894899 0.0323048 -0.052674957 -0.041106254
0.0054795323 0.056582022 -0.00438633 0.15962043 0.09700976 -0.021325588 0.08601663 -0.05378845
00000000: b62e 923e 9064 b33e 573c 943e eca9 873e
00000010: 36bc 0b3e 1e5b 973e c394 a83e 9dce 3d3e
00000020: 7767 6d3e 8573 983e c0a0 803d e0ba 353e
00000030: a40e 643e 4928 f73d e8c6 353e 302c a63e
00000040: 62a5 613e 251e 443e c061 3a3e 5686 863e
00000050: f6bf 193e 63d4 c03e 5252 933e 9a7c 013f
00000060: 340e 2b3e 9d66 9c3e 01ed b23e 4f99 773e
00000070: ee7d 873e 3d5b c03e 8f0d 1a3d 0bf5 303e
00000080: 5235 263e cd7a 003f afce 5e3e b4fa ba3e
00000090: b9e2 cf3e 3afe a13e a0e6 d23e ddb4 033f
000000a0: 9dfd 603e 0fd8 5f3e affe 3d3e c8f4 963e
000000b0: 37b7 503e 3376 5c3e bf2a e13e f2d0 003e
000000c0: dae1 e13e e998 ff3d ef4e 693e c1ae 773e
000000d0: cfe5 033e f137 2cbd 000a a13e f097 2b3e
000000e0: e67a fe3c 43c6 993e 53ab 653e 6f06 873e
000000f0: 5e77 8e3e ae4a 643e 4c4f 083e a1a7 cf3d
00000100: f051 a73e f724 c03e 396d babc e72c 3e3d
00000110: 9d24 e13e 204f a33e 95ad 903d 5a79 653e
00000120: e9c7 443e a4c6 913c 5227 913e db08 523e
00000130: a504 1d3e 27d8 c43e af86 a73e 9dc7 c13e
00000140: d600 863e 9244 20bd 4111 bc3e b02b 623e
00000150: a8f4 863e d27e 543e 9245 f73d ab42 9c3e
00000160: 3cdf 4a3e d449 d73d 419f 613e 7282 963d
00000170: b871 603e 4efe f73d aab0 a63e 7e9a 2c3e
00000180: 6d09 0f3e caf1 003e 034e 2f3e 0b92 423e
00000190: 26a4 8d3e 8bb7 5f3e 87c8 9f3e e2b5 953e
000001a0: 91ba 6c3e adf8 793e c186 873e 6c31 f43e
000001b0: a91e fe3e ee4b 8d3e fce9 a83e 2061 8d3e
000001c0: 22ea eb3e 6d97 dd3e 480d 0c3f 0b39 b03e
000001d0: f1c2 a63e c28b c23d 0c1c 923e a8f8 b23e
000001e0: 0ac9 193e ca1b a93e c2f5 ae3e 3d56 923e
000001f0: b4fd e83e 7315 a13e 03fe bb3e 7f5c 9f3c
00000200: c94f 043f c366 8a3e 7322 ab3e e2aa 7d3e
00000210: 78ff 833e b73d 1e3e e515 0f3e 06dd 4e3e
00000220: 8c75 303e eada 633d afea 3a3d 40ef 1e3e
00000230: 4c55 c53e d06a b43e edfd 523e 31be d33e
00000240: 4ec3 af3e 0187 793e 909e a13e a1d6 553e
00000250: cc95 9e3e 83c4 6d3e 9043 343e 751c 79be
00000260: 9b46 c03d 8e16 a73d 17ac 91bd cdb6 f33d
00000270: b1d9 303e dafc febd 5a46 edbd d6d4 633e
00000280: 061b b5bb 5018 bf3d cd1b e9bd 6a82 e6bd
00000290: 23a4 943d 8a15 6cbe bd98 33bd 742e fc3d
000002a0: 006f bebd 5135 23be c486 2c3d 6d93 a53e
000002b0: a220 c43c 94f6 493e 8a19 7fbd 0728 d1bd
000002c0: 4241 003e 1d39 353e 894f 19bc ada3 ca3b
000002d0: 0a11 243e 707e f9bd 7386 d43c 9cd7 7cbd
000002e0: 9fde e7bc c6f3 cabd 4b4c 66bd c4bf 603c
000002f0: 63c0 803c 4704 3b3d aeec debd 9dc6 59be
00000300: a177 0dbe 16e8 05be f31d 57bb 8291 6a3d
00000310: 2cf6 113d bad9 c93d dd99 903e 639e 073d
00000320: 9b02 d13d 604e c73c 2967 323d 42a6 f73d
00000330: b3df 223e 9381 f43c 7e0f 81bd 75c3 1dbc
00000340: 0856 753d a11c 4ebe 867c 433e 22c0 65bd
00000350: 5c17 9f3b 028a 99bc 0220 983d 20fe 683e
00000360: 69f3 383d 2f8c 28bd 27b8 8ebd 294d 263d
00000370: 4a2c 82bd c4c2 7abd d246 0f3d a161 d93d
00000380: f2fb 60bd b118 4bbd 7520 223c f208 15be
00000390: 977b 80bd 574d c83c 4090 4ebe bc68 103d
000003a0: 0bcf 9ebd 97ab b7bd 38ea 3d3d 5cff 303e
000003b0: a66f 3f3d 0743 89bd ce73 49bb b459 c83b
000003c0: fed5 db3d f856 563b c602 953d 8e0a b23d
000003d0: 2135 8d3d 0a52 043d b2c1 57bd 085f 28bd
000003e0: a68d b33b 8dc2 673d 34bb 8fbb 8a73 233e
000003f0: 0ead c63d 00b3 aebc 7d29 b03d 4751 5cbd

rnn.bias_lin_z f4 [150]
0.18589406 0.0008016383 -0.18625751 -0.09740137 -0.043273143 0.16455713 -0.07238157 0.05452782
0.041150477 0.02745859 0.08491066 0.029873777 -0.038803916 -0.07179023 0.05173812 0.13271412
0.10178123 0.07126847 -0.07900984 0.033752494 0.15878727 0.02132169 -0.09045267 0.0031099261
-0.005296901 0.12944156 -0.00065921753 0.081178606 -0.010051009 0.019244727 0.06596383 0.1657061
-0.025219504 0.04760675 0.11667959 0.06730238 0.12916215 0.025443632 0.10725249 -0.11732304
0.17101532 -0.04895816 0.014162923 -0.099343546 -0.0046360693 -0.08391359 -0.13541721 0.07413562
0.075278334 0.05187562 0.0564173 0.0597737 -0.18719196 0.14757743 -0.11912543 -0.0007960763
-0.090362765 0.07319371 0.01608585 -0.24064845 -0.150433 -0.034943778 -0.10238125 0.11286963
0.155696 0.043753628 0.0054961573 0.1394196 -0.008071142 -0.04199271 0.07666647 -0.123680204
0.11573543 -0.12826464 -0.0059017697 -0.15250415 0.12224 -0.10185028 0.04750905 0.09203599
0.22450918 0.013455881 -0.08504705 -0.17979544 -0.040004417 0.041337322 0.15739596 -0.11730004
-0.07072692 0.1029609 -0.09742623 0.13926268 0.11783515 0.0958307 -0.06469983 0.14631623
0.0684418 -0.045298703 0.08441206 0.089271255 0.0651659 -0.020899767 -0.0033956312 -0.1375148
0.025016205 -0.015501204 0.067167856 0.2022165 0.11942392 -0.014806966 0.0068588853 0.18369709
0.1696775 0.012600518 -0.14043374 0.0854418 -0.17919204 -0.15084206 -0.0054649725 0.21008198
-0.105828196 0.09063754 0.067529835 -0.14741944 0.056807164 0.07431439 -0.027157495 0.055790212
0.31901082 0.09184623 0.014044699 0.10449814 -0.035942588 0.013596353 -0.0374767 -0.06364869
0.13407783 0.016564017 -0.07593116 0.090314426 0.12926635 -0.17744206 -0.031400077 -0.005328519
0.0009082505 -0.008623415 0.17219132 -0.02035154 -0.20133536 0.25787356
00000000: 035b 3e3e 0925 523a 4aba 3ebe 5f7a c7bd
00000010: 2e3f 31bd aa81 283e ca3c 94bd 9058 5f3d
00000020: 678d 283d d6f0 e03c a4e5 ad3d dab9 f43c
00000030: dbf0 1ebd c206 93bd 5aeb 533d 36e6 073e
00000040: ad72 d03d 34f5 913d e9cf a1bd 0e40 0a3d
00000050: 2199 223e d3aa ae3c 403f b9bd e7cf 4b3b
00000060: a091 adbb 548c 043e 57cf 2cba f840 a63d
00000070: fdac 24bc 1ea7 9d3c 0b18 873d dcae 293e
00000080: 2299 cebc 4cff 423d b5f5 ee3d d5d5 893d
00000090: 1543 043e 2a6f d03c 32a7 db3d 1047 f0bd
000000a0: a41e 2f3e 5a88 48bd 9b0b 683c a174 cbbd
000000b0: 2bea 97bb e3da abbd cfaa 0abe 6ad4 973d
000000c0: 872b 9a3d 887b 543d d415 673d 44d5 743d
000000d0: 40af 3fbe 8a1e 173e 09f8 f3bd c7af 50ba
000000e0: 1d10 b9bd 95e6 953d 79c6 833c 8c6c 76be
000000f0: 1c0b 1abe 3521 0fbd 43ad d1bd 3128 e73d
00000100: c66e 1f3e 0137 333d 1c19 b43b 03c4 0e3e
00000110: d33c 04bc 8c00 2cbd 4f03 9d3d 0c4c fdbd
00000120: b206 ed3d ce57 03be a263 c1bb 0c2a 1cbe
00000130: f758 fa3d e196 d0bd da98 423d 5d7d bc3d
00000140: bce5 653e 0e76 5c3c 262d aebd 4c1c 38be
00000150: acdb 23bd 5351 293d 682c 213e 013b f0bd
00000160: 47d9 90bd 2add d23d 6787 c7bd e09a 0e3e
00000170: 8e53 f13d e342 c43d 5881 84bd ecd3 153e
00000180: 372b 8c3d 228b 39bd 3be0 ac3d d9d3 b63d
00000190: b375 853d fd35 abbc 3d89 5ebb aed0 0cbe
000001a0: c9ee cc3c c3f8 7dbc 4d8f 893d d811 4f3e
000001b0: 8794 f43d eb98 72bc 80c0 e03b 171b 3c3e
000001c0: f0bf 2d3e 6772 4e3c ddcd 0fbe 1cfc ae3d
000001d0: 1e7e 37be 5776 1abe 8313 b3bb bb1f 573e
000001e0: 74bc d8bd 2da0 b93d 154d 8a3d 1ff5 16be
000001f0: a1ae 683d 2532 983d 6579 debc 4784 643d
00000200: 6355 a33e e019 bc3d bd1b 663c 1f03 d63d
00000210: 8938 13bd 3dc3 5e3c 2b81 19bd 3f5a 82bd
00000220: b34b 093e 43b1 873c cc81 9bbd c5f6 b83d
00000230: 665e 043e 5fb3 35be 5e9d 00bd db9a aebb
00000240: a917 6e3a 3949 0dbc ec52 303e 46b8 a6bc
00000250: db2a 4ebe 0108 843e

classifier.weight f4 [20, 150]
0.052514162 -0.29306227 -0.03905742 0.5161406 -0.3648493 -0.14654125 -0.042479463 -0.22337314
0.2560631 0.00074526714 -0.04797441 0.079971656 0.0921281 0.09243905 0.14569324 -0.26341146
0.15740459 0.28064755 -0.21597797 -0.19477628 -0.045447327 0.19854523 0.3555703 0.24848537
0.053069085 0.28290686 -0.12479008 0.37751737 -0.03428332 -0.17612106 0.06145646 0.12661636
0.16459912 -0.139591 0.10878556 -0.050467715 -0.02457378 0.06517991 0.055978317 -0.19971155
-0.2712778 -0.015879948 0.26072222 -0.1255847 -0.21557942 -0.11347737 -0.014929054 0.3060062
-0.12507583 0.2617099 0.1252216 0.22671352 0.18139656 0.1030011 -0.38129967 -0.24741545
-0.024887811 -0.14942485 -0.008141852 -0.14379281 0.10427222 0.051762998 0.044537064 -0.1275533
-0.12677833 0.029887594 -0.0058376645 0.016078718 0.096550606 0.028054172 -0.24728276 0.25279942
0.08613252 0.21264346 0.16272038 -0.1309431 -0.14568122 -0.20323077 0.1364723 -0.17840073
-0.10618257 -0.18143985 0.06927157 0.12236388 -0.35391918 0.27812952 0.2119656 0.12821801
0.041580606 0.01727862 0.25736767 -0.16001745 0.20613796 -0.19460504 0.030538274 -0.037817184
0.025602767 0.2821259 0.0041931192 -0.10815352 -0.031198623 0.01792374 0.28113478 -0.13188419
0.20529518 -0.06905809 -0.2765782 -0.078457154 0.29188776 0.1907631 -0.121395916 -0.33692932
-0.016903894 -0.022217121 -0.1945168 0.3730676 -0.2534146 -0.3443675 -0.1998123 0.097080745
-0.16271031 -0.16839036 -0.024019465 0.24514206 0.16438268 0.06636358 0.113254994 0.024442028
-0.049684674 0.018105678 0.15706469 0.12865627 -0.1897001 0.04060979 0.41760775 0.35721728
-0.05775188 0.09819698 0.074179284 -0.04745345 -0.25440374 -0.2593124 0.13038352 0.124236315
0.26839226 0.2076965 -0.045758497 0.48304594 -0.047887716 0.12659422 -0.071777344 -0.12583627
0.2586313 -0.35923457 -0.309351 -0.095897324 0.13086231 0.32258 -0.11709827 -0.22725387
0.0627235 -0.11654041 -0.07216637 0.052327685 0.062133934 -0.15358682 -0.12261386 -0.4376337
0.05401539 -0.05660386 -0.16314402 -0.08497891 0.032844353 0.10886197 -0.05499061 -0.124745995
-0.1789612 -0.09124294 -0.08185783 -0.24018686 -0.31057402 0.084457256 -0.30548826 -0.3504871
-0.030441748 0.052485824 0.000774115 -0.11067667 -0.22473249 0.18249933 0.108386636 -0.17709611
0.12265172 0.4838158 -0.20951267 0.014491882 -0.2127807 0.07976902 0.04703946 -0.07777249
-0.08096455 0.095411964 -0.032233056 -0.081118725 -0.026430903 0.28318763 -0.06631865 -0.050025888
-0.02995859 0.04192226 0.19387394 0.09460179 0.12656961 -0.18112452 0.10176531 0.12318176
0.22946753 -0.051254094 0.009317646 0.090095304 0.0066827447 -0.009164651 -0.40638128 0.34426302
-0.10083956 -0.37632498 0.20648167 0.16686988 -0.11544841 0.08374558 0.24671268 -0.15619713
-0.006505641 -0.05901784 -0.60264057 0.14510983 -0.014143223 0.14923745 0.24813545 0.1663569
-0.13832714 -0.26109192 0.052124996 0.031083008 -0.07514796 -0.14502475 -0.075452074 -0.46028376
-0.057184324 -0.120103076 0.3722823 0.032341976 0.11463147 0.19084638 -0.11347896 0.17623052
00000000: 1719 573d 420c 96be acfa 1fbd ca21 043f
00000010: 87cd babe e90e 16be f2fe 2dbd eebb 64be
00000020: b41a 833e 085e 433a d180 44bd 2ec8 a33d
00000030: a8ad bc3d af50 bd3d 9c30 153e dedd 86be
00000040: ab2e 213e 09b1 8f3e 5429 5dbe 6f73 47be
00000050: fa26 3abd 714f 4b3e 4f0d b63e f372 7e3e
00000060: f85e 593d 2bd9 903e f191 ffbd f549 c13e
00000070: ab6c 0cbd 1459 34be c5b9 7b3d b8a7 013e
00000080: ac8c 283e f1f0 0ebe f7ca de3d 3cb7 4ebd
00000090: f44e c9bc 0b7d 853d 8549 653d 2f81 4cbe
000000a0: ece4 8abe aa16 82bc 627d 853e 4799 00be
000000b0: dac0 5cbe d366 e8bd fe98 74bc d8ac 9c3e
000000c0: e113 00be d7fe 853e 173a 003e 9727 683e
000000d0: 05c0 393e 3ef2 d23d b639 c3be 7a5a 7dbe
000000e0: 86e1 cbbc d402 19be 6765 05bc 6c3e 13be
000000f0: ac8c d53d 7005 543d 7f6c 363d 559d 02be
00000100: 2ed2 01be d4d6 f43c e149 bfbb 84b7 833c
00000110: 53bc c53d ddd1 e53c b137 7dbe ed6e 813e
00000120: 3f66 b03d 35bf 593e 2ca0 263e f315 06be
00000130: 752d 15be ba1b 50be 65bf 0b3e aeae 36be
00000140: 3f76 d9bd 5ecb 39be 41de 8d3d ea99 fa3d
00000150: e534 b5be fe66 8e3e 830d 593e 954b 033e
00000160: 6d50 2a3d e48b 8d3c b2c5 833e 9ddb 23be
00000170: d415 533e 8b46 47be 672b fa3c 31e6 1abd
00000180: e5bc d13c ce72 903e 6f66 893b 987f ddbd
00000190: 4194 ffbc cfd4 923c e6f0 8f3e a60c 07be
000001a0: e638 523e 546e 8dbd a89b 8dbe 25ae a0bd
000001b0: 5072 953e 6757 433e 6c9e f8bd 0082 acbe
000001c0: 097a 8abc ae00 b6bc 692f 47be b702 bf3e
000001d0: 8fbf 81be f050 b0be 989b 4cbe 45d2 c63d
000001e0: 889d 26be 866e 2cbe 78c4 c4bc 8506 7b3e
000001f0: ef53 283e a1e9 873d 3cf2 e73d a63a c83c
00000200: 2882 4bbd 5c52 943c 91d5 203e 78be 033e
00000210: be40 42be 7356 263d afd0 d53e 2fe5 b63e
00000220: 3c8d 6cbd 801b c93d 4feb 973d 8c5e 42bd
00000230: 3541 82be 98c4 84be 4283 053e 9c6f fe3d
00000240: b66a 893e 64ae 543e 436d 3bbd cc51 f73e
00000250: e925 44bd eaa1 013e 0000 93bd 39db 00be
00000260: 526b 843e 98ed b7be 4163 9ebe d165 c4bd
00000270: c500 063e 3529 a53e 38d1 efbd 3db5 68be
00000280: 2e75 803d bdac eebd f6cb 93bd 8e55 563d
00000290: 2780 7e3d dd45 1dbe fa1c fbbd 8611 e0be
000002a0: 3e3f 5d3d 73d9 67bd 3a0f 27be 6c09 aebd
000002b0: cd87 063d 06f3 de3d d53d 61bd d47a ffbd
000002c0: 9b41 37be 94dd babd 14a5 a7bd 8bf3 75be
000002d0: 8f03 9fbe edf7 ac3d f568 9cbe 0c73 b3be
000002e0: f960 f9bc 60fb 563d faed 4a3a 73aa e2bd
000002f0: 4620 66be 1be1 3a3e d0f9 dd3d af58 35be
00000300: d330 fb3d b4b6 f73e 7d8a 56be 5c6f 6d3c
00000310: 2fe3 59be f15d a33d 73ac 403d 2f47 9fbd
00000320: bed0 a5bd 5967 c33d cf06 04bd 9321 a6bd
00000330: 9f85 d8bc f8fd 903e 13d2 87bd f2e7 4cbd
00000340: b86b f5bc adb6 2b3d e486 463e 95be c13d
00000350: 779b 013e b578 39be 556a d03d b846 fc3d
00000360: 89f9 6a3e d0ef 51bd 0aa9 183c e383 b83d
00000370: edfa da3b 5527 16bc 3511 d0be 3e43 b03e
00000380: f984 cebd abad c0be ee6f 533e f0df 2a3e
00000390: 3770 ecbd cd82 ab3d 40a2 7c3e 24f2 1fbe
000003a0: 462d d5bb b1bc 71bd a746 1abf ac97 143e
000003b0: fab8 67bc b4d1 183e 3817 7e3e 7759 2a3e
000003c0: a1a5 0dbe d7ad 85be 0581 553d cba1 fe3c
000003d0: 2ce7 99bd 5e81 14be 9e86 9abd 50aa ebbe
000003e0: 1c3a 6abd 9af8 f5bd c99b be3e 0579 043d
000003f0: e7c3 ea3d 3c6d 433e a867 e8bd c675 343e

classifier.bias f4 [20]
-0.061842725 -0.0013562398 0.03267403 0.0053981445 -0.021508768 0.039119698 -0.03206962 -0.020017471
-0.112991296 -0.01852701 -0.078519434 0.038162842 -0.011002303 0.017550116 0.013062831 0.069864444
-0.031071927 -0.011835046 0.005898316 0.05326673
00000000: cc4e 7dbd dbc3 b1ba 34d5 053d ebe2 b03b
00000010: 2833 b0bc fa3b 203d 6f5b 03bd aefb a3bc
00000020: fb67 e7bd f5c5 97bc ccce a0bd a450 1c3d
00000030: 0143 34bc 43c5 8f3c 7c05 563c 1715 8f3d
00000040: 8e8a febc c8e7 41bc a946 c13b 372e 5a3d
