Final Project/LEM-main/models/lorenz63/2/model.pt (torch, 7191 bytes, 6 tensors)

rnn.weights f4 [48, 19]
0.010710012 -0.060688216 -0.27252087 -0.3259707 -0.10287774 -0.080362715 -0.0075387554 0.07313034
-0.15741812 -0.123199575 0.07091122 -0.099336036 -0.0041980464 0.10229792 -0.015307139 0.003900383
-0.19051011 -0.10735455 0.09202559 -0.0046150507 -0.44348744 0.23161717 -0.24373324 -0.3217189
-0.124255575 0.079003416 -0.3100903 -0.18354647 0.53201365 0.26068938 -0.17603752 0.20735995
0.017588612 -0.6085089 0.35856986 0.54661345 0.4632625 0.0480083 0.34606972 -0.16725539
-0.17183454 -0.4472733 0.09207463 -0.15199621 -0.0063440055 0.18535525 -0.25029618 -0.21115704
0.08642442 0.092544705 0.07796404 0.113632895 0.20321561 0.06266432 0.11297219 -0.15732642
0.030127654 -0.036903415 0.014914922 -0.10283053 -0.27125344 0.13971315 -0.1224972 -0.08601581
-0.05551635 -0.2651285 0.23621194 -0.17398335 -0.20840275 -0.014737045 -0.080719106 -0.013231452
-0.26415488 0.30295163 0.15352647 0.105310656 -0.0185224 -0.21372859 0.13439167 -0.4442418
0.08683523 0.115326464 -0.073914275 0.07689367 -0.3446005 0.13106008 0.16136368 -0.48271796
-0.30966222 -0.15501301 -0.044436514 -0.035250943 -0.2669514 -0.22489601 0.54176223 -0.17085731
-0.14809191 0.12669104 0.03285206 0.035955336 -0.116751514 0.21577115 -0.0326747 -0.27855477
0.26209736 0.273467 -0.013826627 -0.104289584 -0.24686041 -0.29193595 0.0076710754 -0.05739523
-0.023838127 0.09303647 0.4496728 0.24177937 -0.30759528 -0.14430061 0.208638 0.041303117
-0.025262805 0.2151868 0.121180214 -0.21832839 0.0967637 0.03241576 -0.32080507 -0.22322339
0.30778798 -0.21430476 0.0644109 -0.10508285 -0.015669428 -0.20922491 -0.17743605 0.44081092
0.16532262 0.35721728 0.42566925 0.08595625 -0.008637869 0.2440038 -0.1882752 -0.05146939
0.045840677 -0.5285535 -0.13693202 0.10873902 0.06557574 -0.25405172 -0.23670553 0.29793787
-0.07566655 -0.035011552 -0.008501563 0.22542092 -0.084970415 0.23882559 0.07504473 0.02315404
0.34569484 0.26190752 0.31889758 -0.046469748 -0.08677077 -0.2898265 -0.3352506 -0.04204821
0.25436187 0.18880048 -0.2922873 -0.101253174 0.13902716 0.40424997 0.008957866 -0.029658496
-0.4997629 0.32004514 -0.514301 -0.5250954 -0.03934226 0.31958333 -0.4100325 0.2029181
-0.23589115 -0.1444502 0.21943483 0.08409006 0.5539868 -0.011792015 0.2749919 -0.37832794
-0.05509463 -0.28108636 0.22235765 -0.07026331 0.2920563 -0.039387252 -0.31063977 0.33070293
-0.36749953 -0.036452565 -0.12150234 0.07115307 0.21419348 0.23623227 0.09562459 0.15594426
0.19924664 0.18411872 0.09858149 -0.20000346 -0.17039621 0.19236341 -0.44506276 -0.03903915
-0.17051755 -0.19828044 0.09426774 -0.12263432 -0.17125815 -0.12958078 0.014172331 0.26855594
-0.19005108 0.2004564 0.16068196 0.36971444 -0.23862804 -0.26546595 0.18150829 -0.19081788
-0.16177535 0.26548475 0.13585973 -0.18092473 0.26577297 -0.05372223 0.24127375 -0.15122245
-0.29520434 -0.29076597 -0.09286776 -0.2272586 -0.083286874 -0.28130922 -0.08771126 0.40128875
-0.23475859 -0.084752366 -0.3349521 -0.20576198 -0.2001754 0.44246772 -0.19620298 -0.38848042
00000000: 0c79 2f3c 3594 78bd db87 8bbe a2e5 a6be
00000010: 91b1 d2bd 3595 a4bd aa07 f7bb 5cc5 953d
00000020: 3732 21be 0f50 fcbd e739 913d b170 cbbd
00000030: c48f 89bb 9281 d13d cbca 7abc 919d 7f3b
00000040: 1515 43be b4dc dbbd ea77 bc3d da39 97bb
00000050: c910 e3be 0d2d 6d3e 3595 79be 57b8 a4be
00000060: b579 febd 8bcc a13d 28c4 9ebe 9bf3 3bbe
00000070: 0c32 083f 1479 853e 2e43 34be 2b56 543e
00000080: fe15 903c 3dc7 1bbf 7896 b73e dcee 0b3f
00000090: be30 ed3e 5aa4 443d 0d30 b13e ff44 2bbe
000000a0: 65f5 2fbe 0201 e5be a091 bc3d e5a4 1bbe
000000b0: 60e1 cfbb c4cd 3d3e d226 80be 8d39 58be
000000c0: 49ff b03d 1488 bd3d 9cab 9f3d 5db8 e83d
000000d0: c117 503e 2756 803d f75d e73d 2d1a 21be
000000e0: 45ce f63c 0928 17bd b85d 743c d098 d2bd
000000f0: bbe1 8abe f710 0f3e d0df fabd 0f29 b0bd
00000100: 1d65 63bd ecbe 87be 8be1 713e b128 32be
00000110: 8867 55be a673 71bc 0f50 a5bd bbc8 58bc
00000120: 4f3f 87be 7a1c 9b3e 0b36 1d3e 1dad d73d
00000130: 4abc 97bc abdb 5abe f89d 093e a973 e3be
00000140: abd6 b13d 4830 ec3d 5e60 97bd 6e7a 9d3d
00000150: 7a6f b0be 9d34 063e 853c 253e cf26 f7be
00000160: 0c8c 9ebe bbbb 1ebe 1003 36bd 4b63 10bd
00000170: dbad 88be 244b 66be eeb0 0a3f 38f5 2ebe
00000180: 68a5 17be 4cbb 013e e28f 063d e745 133d
00000190: 6b1b efbd 1df3 5c3e e8d5 05bd bb9e 8ebe
000001a0: a031 863e de03 8c3e 1489 62bc c795 d5bd
000001b0: fac8 7cbe a178 95be a55d fb3b 4317 6bbd
000001c0: 2d48 c3bc e889 be3d 833b e63e 0395 773e
000001d0: 217d 9dbe 8ac3 13be 33a5 553e 752d 293d
000001e0: f1f3 cebc ee59 5c3e 552d f83d 7a91 5fbe
000001f0: 0c2c c63d 63c6 043d 9040 a4be ac94 64be
00000200: 6396 9d3e b572 5bbe dde9 833d ad35 d7bd
00000210: 2c5d 80bc 0e3f 56be ccb1 35be f8b1 e13e
00000220: 554a 293e 2fe5 b63e 52f1 d93e d509 b03d
00000230: d985 0dbc 22dc 793e 37cb 40be 91d1 52bd
00000240: 6fc3 3b3d 484f 07bf e837 0cbe 90b2 de3d
00000250: 934c 863d 1113 82be ef62 72be 508b 983e
00000260: 10f7 9abd 4668 0fbd 244a 0bbc bed4 663e
00000270: f804 aebd b28e 743e 0db1 993d 8bad bd3c
00000280: eafe b03e be18 863e 8b46 a33e 1057 3ebd
00000290: e0b4 b1bd 2464 94be f7a5 abbe be3a 2cbd
000002a0: b83b 823e ea54 413e aea6 95be d35d cfbd
000002b0: 235d 0e3e daf9 ce3e 03c4 123c 60f6 f2bc
000002c0: ece0 ffbe f5dc a33e 3ba9 03bf a76c 06bf
000002d0: 5a25 21bd 6da0 a33e c8ef d1be c3c9 4f3e
000002e0: 738d 71be c1ea 13be 86b3 603e 6937 ac3d
000002f0: 14d2 0d3f 4c33 41bc bdcb 8c3e 33b4 c1be
00000300: e8aa 61bd 8dea 8fbe b9b1 633e 36e6 8fbd
00000310: 6788 953e 8754 21bd 2d0c 9fbe e551 a93e
00000320: e628 bcbe 494f 15bd 38d6 f8bd b3b8 913d
00000330: 8955 5b3e dfe6 713e d3d6 c33d daaf 1f3e
00000340: 5007 4c3e 9e89 3c3e 18e5 c93d b5cd 4cbe
00000350: 587c 2ebe eafa 443e 44df e3be 84e7 1fbd
00000360: 279c 2ebe 070a 4bbe 720f c13d b427 fbbd
00000370: 4c5e 2fbe d3b0 04be 1133 683c 2a80 893e
00000380: c09c 42be 7144 4d3e d089 243e 364b bd3e
00000390: e95a 74be 27eb 87be 4fdd 393e c365 43be
000003a0: 70a8 25be 9eed 873e d01e 0b3e 5544 39be
000003b0: 6513 883e d70b 5cbd 7710 773e 0fda 1abe
000003c0: 0625 97be 47df 94be 7431 bebd 7ab6 68be
000003d0: 4f92 aabd c307 90be f6a1 b3bd b875 cd3e
000003e0: 8e64 70be a692 adbd d77e abbe 45b3 52be
000003f0: c8fa 4cbe 218b e23e 6fe9 48be e8e6 c6be

rnn.weights_lin_z f4 [16, 19]
-0.21251398 -0.025972756 -0.16544637 0.256397 -0.21453698 0.21517879 0.28310978 -0.008282287
0.18612498 -0.035587814 0.17711474 -0.09091169 -0.1254607 -0.12380786 -0.12445867 -0.2317178
-0.26906365 -0.22520046 0.30124217 -0.08059654 -0.09884114 -0.28974524 -0.15873834 -0.15475956
0.28678367 -0.26565987 -0.23141363 -0.16684224 -0.11055668 0.1875932 0.13910875 -0.066262364
-0.20950495 0.021731472 0.3276566 -0.12690727 0.103293695 -0.15932107 -0.18605836 0.035647564
0.072842166 -0.08349081 -0.030665653 0.012432352 0.31317952 -0.11884507 -0.17516805 -0.18163106
0.23785754 -0.16673014 0.014464515 -0.19672506 -0.07112457 -0.23738682 0.13477714 0.24502781
0.055409018 -0.052988254 0.014131794 0.077473134 -0.041512344 0.19108418 0.17576723 0.06128582
0.15351434 0.14778264 -0.09950559 -0.25910488 0.26723054 0.26222444 -0.16534843 0.29524666
-0.098724425 -0.03112808 0.14907065 -0.1733787 0.08918807 -0.059371337 -0.020931164 -0.05684308
0.121318474 -0.11438149 0.09693434 0.15123738 -0.00821419 -0.3579063 0.09307794 -0.26521564
0.04557566 0.35143587 0.06616496 0.2045272 -0.23083293 -0.29915082 0.14129137 0.01595835
-0.10339149 0.035056863 -0.08172978 -0.016363958 0.39298812 0.25675485 0.15120749 -0.028479064
-0.13475531 -0.09298673 0.309235 0.13936035 -0.09737152 -0.02073727 0.26865193 -0.0719441
-0.20715477 -0.024021031 -0.05063474 0.096330605 -0.3239015 0.24773027 -0.39234245 -0.13963571
0.26526955 -0.07921137 0.26999062 0.15083748 0.26319176 -0.25340638 -0.0015027208 -0.17812794
-0.09419932 0.06898223 0.11907562 -0.04812139 0.025562419 -0.1361845 -0.21285067 -0.018622505
-0.114784434 0.02646166 0.14955664 0.10075511 -0.06677497 0.11242186 -0.2998795 -0.09837161
0.06450756 0.036552716 0.30764025 -0.16917516 0.21357554 0.019979395 -0.31372014 -0.012672434
-0.084292606 0.3665614 0.18792872 -0.35149074 0.3461405 0.3495615 -0.0140998345 -0.112816505
0.10110955 -0.118452094 -0.113723695 0.11551144 0.0054730265 0.065476455 0.05326366 -2.331276e-05
-0.06360921 0.006738624 -0.029507725 0.28818592 0.039832138 -0.2636621 -0.10245687 -0.17186184
-0.04827621 -0.14057586 0.2250463 0.24632195 -0.28817007 0.004016415 -0.20780212 -0.08658148
0.18108134 -0.09707074 0.08018598 0.19572331 0.068640105 -0.065981165 0.043218113 -0.24653678
0.24160598 0.33957207 -0.029403271 0.017266987 -0.20794958 0.21175243 0.0036004526 0.27849063
-0.025050966 -0.18463184 0.2693944 0.22517034 0.062180277 0.021531977 0.36046177 -0.21511179
-0.100203946 -0.24417123 0.0021080875 0.33786243 -0.28153655 0.067158155 -0.16360578 0.15500884
0.16570441 0.014679229 -0.06322331 -0.10726743 0.24264616 0.090219334 -0.14939338 -0.030115185
0.2690876 0.08372133 -0.27516136 -0.31392744 0.09400832 0.27953926 -0.052505147 -0.22412547
0.09667824 -0.13878316 0.035862558 0.12539002 0.104535446 0.11773629 -0.13632928 -0.12851349
0.13373204 0.09410419 0.122432195 -0.16871946 0.09765853 0.34800982 -0.15019281 -0.09945399
-0.12796812 0.2689791 -0.2564517 -0.07982509 -0.07936419 0.09166109 0.055938404 -0.21991472
00000000: 449d 59be d1c4 d4bc c66a 29be 7846 833e
00000010: 95af 5bbe d457 5c3e c4f3 903e 6eb2 07bc
00000020: 8c97 3e3e 87c4 11bd 915d 353e e82f babd
00000030: c578 00be fa8e fdbd 30e4 febd 6e47 6dbe
00000040: b6c2 89be f39a 66be 6a3c 9a3e cc0f a5bd
00000050: 396d cabd 7d59 94be 4e8c 22be 4a79 1ebe
00000060: 4fd5 923e 9204 88be b2f7 6cbe b1d8 2abe
00000070: 8a6b e2bd 6f18 403e 8672 0e3e 90b4 87bd
00000080: 7788 56be 3306 b23c 9bc2 a73e fbf3 01be
00000090: a58b d33d 1025 23be 1586 3ebe 2e03 123d
000000a0: 462e 953d 3bfd aabd 8936 fbbc 10b1 4b3c
000000b0: 1159 a03e 0b65 f3bd 415f 33be 7efd 39be
000000c0: ed90 733e 4ebb 2abe 93fc 6c3c 4b72 49be
000000d0: c2a9 91bd 8815 73be 0503 0a3e 92e8 7a3e
000000e0: 91f4 623d 360a 59bd 0a89 673c 3caa 9e3d
000000f0: d908 2abd 92ab 433e 53fc 333e d706 7b3d
00000100: dd32 1d3e 5554 173e 96c9 cbbd 65a9 84be
00000110: 71d2 883e 4842 863e 1951 29be 922a 973e
00000120: 0830 cabd 5100 ffbc faa5 183e 308a 31be
00000130: 3ca8 b63d 5c2f 73bd d577 abbc 4ad4 68bd
00000140: d275 f83d d840 eabd 8385 c63d f9dd 1a3e
00000150: cf94 06bc 7f3f b7be a69f be3d 58ca 87be
00000160: 8bad 3a3d 67ef b33e 7f81 873d 946f 513e
00000170: 785f 6cbe 4c2a 99be afae 103e 16bb 823c
00000180: ebbe d3bd c997 0f3d f161 a7bd b50d 86bc
00000190: bd35 c93e 5f75 833e 23d6 1a3e ed4c e9bc
000001a0: 4cfd 09be d46f bebd 0d54 9e3e 7bb4 0e3e
000001b0: b86a c7bd 35e1 a9bc bf8c 893e 6e57 93bd
000001c0: 6120 54be c1c7 c4bc 6066 4fbd fb48 c53d
000001d0: 6bd6 a5be 01ad 7d3e 1ce1 c8be aafc 0ebe
000001e0: 69d1 873e 9239 a2bd 363c 8a3e 2475 1a3e
000001f0: 12c1 863e 7bbe 81be f1f6 c4ba 2c67 36be
00000200: 93eb c0bd 8e46 8d3d ebdd f33d ef1a 45bd
00000210: 4768 d13c f373 0bbe 87f5 59be 398e 98bc
00000220: 1a14 ebbd 20c6 d83c 6025 193e b258 ce3d
00000230: 51c1 88bd 6f3d e63d ce89 99be 0e77 c9bd
00000240: 8a1c 843d 4db8 153d 0683 9d3e 413c 2dbe
00000250: 8cb3 5a3e d4ab a33c ed9f a0be 0aa0 4fbc
00000260: 9aa1 acbd f0ad bb3e 6370 403e 98f6 b3be
00000270: 5439 b13e baf9 b23e fe02 67bc 570c e7bd
00000280: 8612 cf3d 0397 f2bd f8e7 e8bd 4391 ec3d
00000290: 1357 b33b 8518 863d ff2a 5a3d c58f c3b7
000002a0: 8c45 82bd adcf dc3b 2fba f1bc 1b8d 933e
000002b0: 0627 233d b8fe 86be e8d4 d1bd 8dfc 2fbe
000002c0: 46bd 45bd 1ef3 0fbe 8a72 663e d23b 7c3e
000002d0: 078b 93be 229c 833b 14ca 54be a251 b1bd
000002e0: 636d 393e 06cd c6bd 8c38 a43d b16b 483e
000002f0: 2f93 8c3d 2221 87bd 7a05 313d 2374 7cbe
00000300: 8f67 773e 64dc ad3e 21df f0bc 7f73 8d3c
00000310: bcf0 54be a1d5 583e 92f5 6b3b 5396 8e3e
00000320: af37 cdbc 2110 3dbe 10ee 893e 0e93 663e
00000330: bfb0 7e3d d463 b03c 728e b83e 4446 5cbe
00000340: ba37 cdbd 0608 7abe d727 0a3b 4efc ac3e
00000350: 8f25 90be 378a 893d 4688 27be a3ba 1e3e
00000360: 6bae 293e 2681 703c 397b 81bd 07af dbbd
00000370: 3c78 783e eac4 b83d 94fa 18be 1fb4 f6bc
00000380: dac5 893e 1776 ab3d f3e1 8cbe 19bb a0be
00000390: 6f87 c03d c51f 8f3e a30f 57bd 2681 65be
000003a0: 3eff c53d 2c1d 0ebe 9ee4 123d 3e66 003e
000003b0: ae16 d63d b91f f13d e799 0bbe 0a99 03be
000003c0: 0df1 083e b3b9 c03d bbbd fa3d cbc4 2cbe
000003d0: 3201 c83d 582e b23e 25cc 19be 89ae cbbd
000003e0: 130a 03be a1b7 893e a34d 83be 567b a3bd
000003f0: b189 a2bd cfb8 bb3d ab1f 653d 5331 61be

rnn.bias f4 [48]
0.3454486 0.101594724 0.22259292 0.24991229 -0.09846844 0.078330494 -0.16262496 -0.48544016
-0.019709842 0.19823733 0.24657173 0.009884784 -0.18859379 -0.019295406 0.27184686 0.13478264
0.17527628 0.1109949 -0.34347767 0.20749441 -0.13855109 -0.051335 -0.28933698 -0.049502518
0.10627455 0.12089393 0.20068368 -0.24812768 -0.25581127 -0.21068254 -0.10296102 -0.09787443
0.39163533 0.12509437 0.15380536 0.4573598 0.04363613 0.040761717 -0.13821033 0.35228986
0.31654897 -0.22364962 0.22932704 0.3385451 0.07322321 0.21316308 0.33995306 0.31031907
00000000: a4de b03e e510 d03d 66ef 633e 02e9 7f3e
00000010: d2a9 c9bd bd6b a03d 2887 26be 9d8b f8be
00000020: 8976 a1bc bafe 4a3e 4d7d 7c3e caf3 213c
00000030: bb1e 41be 6611 9ebc 832f 8b3e 7604 0a3e
00000040: a07b 333e 4b51 e33d 4edc afbe 6a79 543e
00000050: 56e0 0dbe a644 52bd fa23 94be 27c3 4abd
00000060: 79a6 d93d 3d97 f73d 0680 4d3e 2f15 7ebe
00000070: b2f9 82be 2abd 57be 3add d2bd 6472 c8bd
00000080: 6d84 c83e bd18 003e 277f 1d3e 102b ea3e
00000090: ccbb 323d c2f5 263d 0287 0dbe 565f b43e
000000a0: b512 a23e 6804 65be b5d4 6a3e c955 ad3e
000000b0: 0df6 953d 6c47 5a3e 540e ae3e 24e2 9e3e

rnn.bias_lin_z f4 [16]
0.27516317 0.035796568 -0.23449752 -0.19689187 -0.120101444 0.021280404 0.11855989 0.078675404
-0.23448475 -0.01834247 0.041923244 0.068917654 0.13909164 0.1336797 0.21124598 -0.12331089
00000000: 30e2 8c3e 6c9f 123d 1e20 70be 069e 49be
00000010: bff7 f5bd 3e54 ae3c 87cf f23d 9220 a13d
00000020: c51c 70be f342 96bc b5b7 2b3d b324 8d3d
00000030: 0a6e 0e3e 55e3 083e de50 583e 6b8a fcbd

classifier.weight f4 [3, 16]
-0.24717775 -0.55984217 0.14994977 0.13680516 -0.41219908 -0.31518987 0.08724548 -0.006931611
-0.114757545 0.23040645 0.9259059 0.0012676814 0.21383096 -0.16176876 -0.12889808 0.1809333
-0.41514477 0.16954143 0.24659148 0.067206696 -0.10643474 -0.3050097 0.0338831 -0.5514984
-0.110711776 0.20809636 -0.5396 -0.5064265 0.029980728 0.2652475 -0.49040824 0.858053
0.36556724 -0.26986775 0.15111348 -0.8602832 0.64389575 -0.03593721 0.2551301 -0.063421056
-0.358904 0.35985404 -0.19949362 -0.5190181 -0.48579714 -0.5406073 -0.36853042 0.22655258
00000000: 2a1c 7dbe d151 0fbf 6f8c 193e a716 0c3e
00000010: c20b d3be 9160 a1be c2ad b23d 9122 e3bb
00000020: 0106 ebbd abef 6b3e 2b08 6d3f 5428 a63a
00000030: 81f6 5a3e b6a6 25be dcfd 03be 9446 393e
00000040: db8d d4be 459c 2d3e 7a82 7c3e aaa3 893d
00000050: 75fa d9bd 3b2a 9cbe 01c9 0a3d 002f 0dbf
00000060: dbbc e2bd 3617 553e 3a23 0abf 2ba5 01bf
00000070: 259a f53c 85ce 873e ca16 fbbe 5da9 5b3f
00000080: a12b bb3e 1b2c 8abe 7ebd 1a3e 853b 5cbf
00000090: 5ad6 243f e532 13bd 6aa0 823e e6e2 81bd
000000a0: 44c2 b7be ca3e b83e 0e48 4cbe 5fde 04bf
000000b0: 67ba f8be 3d65 0abf 05b0 bcbe 66fd 673e

classifier.bias f4 [3]
0.07693424 0.0064703925 -0.08952033
00000000: b38f 9d3d 9605 d43b 6f56 b7bd
