Final Project/LEM-main/models/lorenz63/6/model.pt (torch, 45847 bytes, 6 tensors)

rnn.weights f4 [150, 53]
00000000: 0f28 c0be 5485 90be 22c7 343c f19f b23d
00000010: d33d 69be 99e5 0c3e d5bc 5abe ff83 3a3d
00000020: 18ee 19be 9b0f 42be 54da 0ebe c4c0 38be
00000030: 04e0 88bc d80c 8c3c 81ee a8bd d574 c2bd
00000040: aa5f 683d 7176 03be 8c4c 6b3d 79a9 623e
00000050: 8268 1c3e 7898 afbb cd06 34bd 87d3 2cbe
00000060: 1fcd bfbd 892d d13d 55a1 f4bd c98f 083e
00000070: 4e91 a63e 770e a4be fc59 813e 1b91 353e
00000080: bc13 293e 14eb 07be ddd3 0c3e 626d 8b3e
00000090: 60c7 993e 3234 b63d 7651 50bd 3e2c 2b3d
000000a0: 3834 81be f4db e3bd 8eaf 523e 1a47 8d3e
000000b0: ad74 b73d 8ccf 8a3b 5837 f63d c8d4 83bd
000000c0: 550e 9ebd 747d 183e 639d 78bd 4856 223e
000000d0: 469b a53e de3a c23c faf0 cbbd 402f d83d
000000e0: 5c81 89be dddf 65be 5cc1 f13d 8da4 d23d
000000f0: 1616 b53d 5a67 d93d 8241 0dbd ab4d 2abe
00000100: 3aed b1bd cfe3 4ebd c940 debc 2209 0abe
00000110: 5cd6 0ebe 38e2 17bd 42c9 40bc 1e08 513e
00000120: e0ab a3be 6477 453e ab7c 163d a5a3 1fbe
00000130: 1e5c 22be 119c 02bd 6825 643c 7a7e 69be
00000140: 4550 a63c 02ec d73d 25d2 09be fae5 033e
00000150: 7c92 cdbc 446b 7b3e 367f 453e 96e1 d2bb
00000160: 48f1 8f3d 44df 653d 2281 0f39 77c7 abbc
00000170: 61d0 e4bc 79a6 7fbe bf9f 0e3e 7a54 b3bc
00000180: 92bc 9b3c 6767 3fbd 544e e0bd 5c2e f93d
00000190: f896 a13d 0e40 d1bc 96e8 ebbc 9fb2 84bd
000001a0: 8406 243e 1e1d 843e 0252 82be d78b 96be
000001b0: a6e8 d6bb fbfa 34be 1a62 04be a086 e23d
000001c0: 7864 323c d582 0f3e 8e13 623d cc47 063c
000001d0: cecd 42be eaa4 9bbb ba5b 4a3b 09b2 823c
000001e0: 0116 8bbe dc6a 0abe dc6b 8c3e 0034 6cbe
000001f0: 8de2 8f3d fa7e bd3d 9513 afbc 8100 d138
00000200: b548 ca3d d9b5 afbe 4c21 06be 125c 943d
00000210: 5011 f3bd 756b 813d 27b9 5ebd 2f46 34be
00000220: 99f5 703e aee9 9a3d b228 103e 15d8 2c3e
00000230: 6058 d4bb 1c20 333e 1d83 b93d 1dc4 23bd
00000240: 1ce3 0fbe 8dd8 16be 5e43 49be 3f06 643d
00000250: 772e 623e 1e82 2b3e a868 e6bc 1ae5 da3b
00000260: 09fe 703e 6aa7 903d 1d29 7fbe 7565 8cbb
00000270: dae6 0d3e febc fc3d ee7d 563e 66f2 1ebe
00000280: b60e 6abe 7dfa 9c3e 4754 ddbd ce67 80be
00000290: 2f31 6c3d 870b 813d 3276 ed3c 1cd6 acbd
000002a0: ec61 39be a396 67be f6f3 74bb f354 eb3b
000002b0: 8c7d 50bd fcb0 98bd 3041 11be 597b c23e
000002c0: fbe5 fabc 28c6 213e 4ac9 4ebe af96 693e
000002d0: c839 a2be ba10 04bd a9cf 6fbe a6ff 9abe
000002e0: fa34 72be c503 3bbe 891a 8e3e 1259 ca3d
000002f0: 0c22 bbbd c6ce 243e 41bf e23d 58f2 c93d
00000300: 13b0 063e cfc1 393e d439 ac3e 7cad 183e
00000310: 4e23 b4bd edeb 8cbe c4fd efbc af6b 3cbe
00000320: 53be 863d 5df5 963e 74ee c03d 2678 1e3c
00000330: f34a 35bd b28c 963e 90d7 b23d 080e 1abe
00000340: 9692 4abe 20c7 193e 6819 8a3e 8277 753e
00000350: 18f4 39bd e78d f83a 773b 3ebe 29a6 97bd
00000360: 4de4 12bd d637 183c 6a11 b83c b856 bcbc
00000370: ccc2 613c 7a05 13be e995 30bd 774e 3c3e
00000380: 2214 4dbd 9465 4a3e 09c2 9f3c 4213 413e
00000390: 6fab 3d3d a6bd 3cbe 6edc c53d 3aa1 66bd
000003a0: 82f1 87bd 5fae cf3d 1c02 063e 2ae2 06be
000003b0: 2fb7 4a3d 0268 843c a8ad 1a3e 427f 9dbd
000003c0: 601a 30be 48d0 fcbd 8962 003c 36e1 34be
000003d0: e7e8 a7bd 0e9a 41bd feea 85bc d0de adbd
000003e0: 13cc 5c3c ce2a 42be 5dff e03d af12 31be
000003f0: eb1a e63d d116 0e3d fa39 dbbc ed9c 093d
-0.37530562 -0.2822672 0.011033805 0.08721913 -0.2277749 0.1375946 -0.21361096 0.045536038
-0.15032232 -0.18951266 -0.13950473 -0.18042284 -0.016708381 0.017095968 -0.08248616 -0.0949494
0.056731857 -0.1283815 0.057446048 0.22134961 0.15274242 -0.005358752 -0.0439518 -0.16877566
-0.093652956 0.10213763 -0.11944834 0.133361 0.32532734 -0.32042286 0.25263965 0.17731135
0.16511434 -0.13273269 0.13752694 0.2723189 0.30034924 0.08896674 -0.050858937 0.04179024
-0.25235152 -0.11125937 0.20574781 0.2759331 0.08957801 0.0042361673 0.12022275 -0.06437069
-0.07717577 0.14891607 -0.06069697 0.15853226 0.32345027 0.02370971 -0.09958072 0.10555887
-0.26856506 -0.22448678 0.118044585 0.10285292 0.08842103 0.10615416 -0.0344863 -0.1663119
-0.086878255 -0.050510224 -0.027130501 -0.13480046 -0.13948959 -0.037080973 -0.011766734 0.20413253
-0.31967068 0.19283825 0.036739986 -0.15589769 -0.15855452 -0.031887118 0.013924934 -0.22802153
0.020301947 0.10543062 -0.1345907 0.12880698 -0.025094263 0.24552637 0.19286808 -0.0064355833
0.070284426 0.056121126 0.00013685648 -0.020969136 -0.027931394 -0.24965848 0.13928126 -0.021890868
0.019010816 -0.04672947 -0.1095244 0.121670455 0.07890123 -0.025543239 -0.028797429 -0.06479382
0.1601811 0.25803465 -0.25453192 -0.29403564 -0.0065584956 -0.17673866 -0.12928048 0.11060834
0.010888211 0.14014752 0.05519443 0.008195829 -0.19023821 -0.004749884 0.0030877427 0.015954034
-0.27165225 -0.13517326 0.2742604 -0.23066711 0.07025633 0.092527345 -0.021371642 9.9659905e-05
0.09877149 -0.34318426 -0.13098639 0.072441235 -0.118685365 0.06319324 -0.054375794 -0.17604898
0.23531188 0.07564102 0.14078024 0.16879304 -0.0064802617 0.17492718 0.09058211 -0.03998195
-0.14051479 -0.14731045 -0.19654605 0.05567002 0.22088037 0.16748855 -0.028126076 0.006680143
0.23534407 0.07063182 -0.24918027 -0.0042845556 0.13857594 0.12340735 0.20946476 -0.15522155
-0.22857174 0.30659857 -0.1080709 -0.25079197 0.057664093 0.06301027 0.028987024 -0.084392756
-0.1810376 -0.22616057 -0.0037376857 0.0071817576 -0.05090098 -0.07455632 -0.14185023 0.37984732
-0.030627241 0.15798247 -0.20193973 0.22811387 -0.3168471 -0.032242514 -0.2341906 -0.3027317
-0.23653021 -0.18263157 0.2775462 0.0988027 -0.09137353 0.16094503 0.11071635 0.098606765
0.13153104 0.18140338 0.3363787 0.14909929 -0.08795796 -0.27523747 -0.02929581 -0.18400453
0.0657927 0.29484072 0.09420481 0.0096722 -0.04426093 0.29404217 0.087325215 -0.15044415
-0.1978248 0.15017366 0.26972508 0.2397137 -0.0453988 0.0018963189 -0.18577372 -0.074047394
-0.035862256 0.009290656 0.022469241 -0.02299057 0.013779353 -0.14357558 -0.043111715 0.18389307
-0.05006803 0.19765311 0.019501703 0.18855003 0.04630607 -0.1843172 0.09661184 -0.0563061
-0.06637861 0.101406805 0.13086742 -0.13172212 0.049491104 0.016162876 0.15105307 -0.07690288
-0.17197561 -0.12344414 0.007835993 -0.17664036 -0.081987195 -0.04726606 -0.016347405 -0.08489764
0.013476389 -0.18961641 0.10986207 -0.17292283 0.11235603 0.03468973 -0.026761044 0.03359692

rnn.weights_lin_z f4 [50, 53]
00000000: e9b3 b4bd 4532 143e be4c b93d 82b1 093c
00000010: cd46 e3bc 159f 643d 56c8 debd e281 a6bd
00000020: 3dd9 8f3d ef6b 61bd 9964 2d3d af2d e2bd
00000030: 4aed 98bc 9543 d43d 9754 193e 4964 c33d
00000040: 6e69 b8bc 1eaf 55bd e613 55bd e5c0 99bd
00000050: 2f2e 11be 437b 02bb 31fa 923c f4d5 993d
00000060: 828d 7cbd f8e5 f0bd b758 a4bd e8a8 16be
00000070: 18b6 d93c 82a3 4abc 1811 bebd e869 3ebd
00000080: cf8b 13bd 7fd3 e93b 822c 533d c574 303d
00000090: d4a6 e83d b4f5 56bd 0ca5 f23d ff17 f9bd
000000a0: 34c0 2d3d 5c3c 1bbe 9570 cfbd 0b04 fabd
000000b0: fff6 883d a061 823c 8af2 efbd f286 323e
000000c0: a94e fc3d ba5b 713d 621b 1c3e 2831 bcbd
000000d0: 9acb ffbd dd29 e0bd 6a28 053e a201 fcbc
000000e0: 5e41 e6bb 653a c2bd f7b0 13bd 0173 993d
000000f0: 2df5 ad3d f5d1 2cbc 3a4e 64bd eec6 b53d
00000100: 714f 543d c5de e7bc 1864 683d e622 da3d
00000110: ed64 533c 75ca 0fbe ea46 3c3d c775 38be
00000120: 0e00 4f3d a6f7 d6bd e7fb c2bd 62ce 583d
00000130: 092d 28bc d268 0bbe 4189 51bd 7d09 e03d
00000140: 3b0f d0bc 8d03 19bd 5b4d d33d 939e 9e3d
00000150: b2d6 4a3e c081 953d 8a61 8dbd ba3d e7bc
00000160: 6e10 30be c306 78be a84a 883d 6fb5 7dbd
00000170: 2330 d53d 69fa 103e c933 bc3c bde6 d3bc
00000180: e485 17be 94ad 113e c3b9 14be 02c0 223e
00000190: 26b3 9ebd 84a5 713c da57 2f3e a141 16be
000001a0: 4214 19bd 3ec6 e1bd 6e42 4fbc 8569 d3bd
000001b0: 091f 9bbb b407 873d 4deb 4dbd cd38 0f3d
000001c0: 9cd2 593d 32b4 a1bd f8ea 113c dbb8 02bd
000001d0: a731 453e b536 4cbd dbdf 73bc a953 fbbd
000001e0: 9075 bf3d cc5c 4d3c 06f8 0c3e 6d3c 293d
000001f0: 18dd f73d 7372 04be 2893 113e baf1 d7bd
00000200: d909 b63c 1806 13be b66b b0bd ac28 7fbb
00000210: f191 dc3d 19f1 bd3d e264 0c3e 67e9 f4bd
00000220: dd4d 193d efdf 9dbd e068 27bc 9e58 bc3d
00000230: a495 f9bc 605b 19bc df2e e13d 608d 723d
00000240: a482 16be 518b d73d 916e 7cbd e660 bebd
00000250: ccbf 623d d9dd 9a3d ba71 7abd 77ff d8bd
00000260: 0514 a2bd 7593 e23c 7f73 063e b71a 9c3d
00000270: 5c12 0cbb 7394 9b3c 0355 c5bd 507b 013c
00000280: 5daf c83c feb4 e3bc 4117 df3d 2d4d c43d
00000290: d905 a93d d2a1 e73c 6994 10be 1f83 763d
000002a0: 3512 aebd 6d37 283d 8355 71bd 2969 e43d
000002b0: b49a 7abd 5428 1bbb 4929 21be d0c4 ebbd
000002c0: 3523 333d 3d84 a6bd 09fc 33bd 9b7f 5fbd
000002d0: eea2 dabd 9c50 d2bd db3d 86bd 5dea e73c
000002e0: d2a6 2fbd 3dac 353e 2ebc 8fbd d04c fcbd
000002f0: 5a46 b3bd 9f0d a23d dcb1 0fbd e355 83bd
00000300: d7ea 8cbb aa27 d43d e8d9 ff3c 217a 823d
00000310: 6d71 f73c 4127 cd3d 9e7a 263e cc41 1b3e
00000320: aefc 5f3d 4b43 d2bd 7dd4 50bd bb13 a6bd
00000330: f488 d13d 0e73 d83d 10e3 0f3d 128b 863d
00000340: b422 143d cf88 ccbd fc4b b53c 4a70 f03d
00000350: b1ea de3d a986 b83a 00c4 ab3c 2125 203e
00000360: 9b14 993d 7d48 25bc 873d cf3d 85b8 b3bd
00000370: c5fe 283d 6c97 20be dc2a 04be 0d0d e1bd
00000380: 0827 b83d af02 56bd 6a69 033d a6fb 25be
00000390: 720a b83c 1263 0abd 1dd7 b3bd 9c25 dd3b
000003a0: bedb 843d a216 19be d644 70bd b743 d33d
000003b0: ae7d 2a3d 507f afbd 59a2 a13d 1858 dabd
000003c0: 4525 c0bd 7e3f 97bd 100b 843d 38c4 093d
000003d0: 684c 363d 6f6d 163b 3c34 313d ea6a 2fbe
000003e0: 2c77 08bd 7350 9f3d 0e11 9a3d a62c 033d
000003f0: 1278 103d 66bd abbd 97fc b03c e95e 9a3d
-0.08823378 0.14472301 0.090478405 0.008404138 -0.027743721 0.055815775 -0.10878055 -0.08130242
0.07023857 -0.055034574 0.042332266 -0.1104387 -0.018667836 0.10364453 0.14973675 0.09540612
-0.02251121 -0.052168958 -0.05202093 -0.07507495 -0.14177774 -0.0019909895 0.017941566 0.075115114
-0.06165839 -0.11762613 -0.080247335 -0.1471287 0.026576087 -0.012368085 -0.09280604 -0.04648772
-0.036022004 0.007135808 0.051556118 0.04308011 0.11359945 -0.052480415 0.118478864 -0.1216278
0.042419627 -0.15159744 -0.10128895 -0.122078024 0.06687736 0.015915692 -0.117161825 0.1743429
0.12319691 0.058925368 0.1524482 -0.09189063 -0.12490006 -0.10945485 0.13003698 -0.030762497
-0.0070268353 -0.09483794 -0.03605744 0.074926384 0.08494029 -0.0105481045 -0.055738665 0.088758335
0.051833574 -0.028304467 0.05673608 0.106511876 0.012902481 -0.14042075 0.045966066 -0.18013678
0.05053716 -0.10496454 -0.09520703 0.052931197 -0.0102646435 -0.13614205 -0.051156286 0.1093931
-0.025397887 -0.037356902 0.10317489 0.077450894 0.19808462 0.073001385 -0.0690337 -0.028227676
-0.17193767 -0.2422133 0.066548645 -0.061940607 0.10409572 0.14158024 0.022973912 -0.02586686
-0.14797169 0.14226371 -0.14523987 0.15893558 -0.077490136 0.014748935 0.17123356 -0.14673473
-0.037372835 -0.1102414 -0.012650115 -0.10322861 -0.0047339243 0.06593266 -0.05027323 0.03496628
0.05317937 -0.07895698 0.008906119 -0.031914573 0.19257222 -0.04985686 -0.014884914 -0.12271816
0.09348595 0.0125343315 0.13766488 0.041317392 0.12102717 -0.12934284 0.14216292 -0.105441526
0.022221493 -0.14357793 -0.08614294 -0.0038934154 0.107700236 0.09274501 0.13710359 -0.119585805
0.03742777 -0.077087276 -0.010217875 0.0919659 -0.030466862 -0.009360164 0.10995268 0.059216857
-0.14698273 0.10524619 -0.06162888 -0.09295826 0.055358693 0.07561845 -0.061143614 -0.10595601
-0.07913975 0.027658204 0.13129996 0.07622283 -0.0021373248 0.018991685 -0.09635355 0.007902935
0.024497682 -0.027796265 0.10893107 0.095850326 0.082530685 0.028275404 -0.14119114 0.06018364
-0.084995665 0.041068483 -0.05891944 0.1115287 -0.061182693 -0.002367516 -0.15738405 -0.115121484
0.043734748 -0.08130691 -0.04394153 -0.054565053 -0.106756076 -0.10269281 -0.06554767 0.028309995
-0.0428837 0.17741485 -0.07018314 -0.12319338 -0.08753653 0.07912754 -0.03508173 -0.06412866
-0.004300456 0.10359128 0.031231835 0.063709505 0.030205453 0.10017253 0.16257712 0.15161818
0.054684334 -0.10266741 -0.050983895 -0.08109232 0.102312 0.1056882 0.035128653 0.06569494
0.036165908 -0.09987032 0.022130959 0.117401674 0.108846076 0.0014078218 0.020967484 0.15639164
0.07474633 -0.010088083 0.10119157 -0.08775429 0.041258592 -0.15682763 -0.12906975 -0.10988817
0.089918196 -0.052248653 0.032082953 -0.16209278 0.022465918 -0.033785887 -0.08781264 0.006748868
0.06487225 -0.1495004 -0.058659397 0.1031565 0.041623764 -0.08569205 0.078922935 -0.10661334
-0.093821086 -0.07385157 0.064474225 0.033634394 0.04450646 0.002295341 0.043262705 -0.17130628
-0.033316776 0.07779016 0.07522784 0.032025002 0.035270758 -0.08385734 0.02160482 0.07537634

rnn.bias f4 [150]
00000000: 5a0c 17bd 4b80 7d3d ad85 e33d f401 273d
00000010: 2042 01be b44b 933d f672 ce3c c0df f5bd
00000020: e219 b53b f60b a43d 235c 07be 8445 ae3e
00000030: fc8b 4a3e 1adb 7dbd a367 273d 4c1f 103c
00000040: f7df 1bbe d0dc 90bd 6bb9 1e3e 1445 263e
00000050: ed42 093e 0283 853e baad db3d a2a9 d03c
00000060: e919 58be 2340 963e 453a 413e 4203 793e
00000070: 56d7 b03d 7bb7 913d 573a dcbc 3f94 4d3d
00000080: 38fe f4bc 6acc 1d3e 326e 51bb dc34 43bd
00000090: 7f05 2bbd 0079 a13c b9e4 133e 142d f63d
000000a0: 6f03 263e 1fdb ff3d 588d df3d 8d3b ab3e
000000b0: 2be8 343e 446e e4bd 9962 653e 4eaf 5a3e
000000c0: 40b1 893d 50d4 6d3e 67af b93d 8cca a5bd
000000d0: d932 0e3e 61aa 883d 957b 19bd c9cf 813d
000000e0: 23f8 99bd 89c5 f03d 4367 e0bd dad1 1abe
000000f0: 35d2 d0bd 7488 c1bd ed5e 003e ebaa eabd
00000100: 511b 8abd 7708 d3bd 66f8 9cbc e664 b93d
00000110: 27e1 ffbc a952 6b3d 2443 1bbe 3279 303d
00000120: df04 333e 5a51 8bbd c9b0 f63d e462 133e
00000130: eb98 c23d 6f81 10be 8e3c 363e be1b 5a3c
00000140: e837 01be 74c5 e3bd 874d c83d d96f 19be
00000150: aef1 9c3c 1e28 f6bd baa5 ab3d 1cb2 f33d
00000160: b066 4fbd 7416 773d 4e2b 18bd b07a bdbc
00000170: d5d6 22bd 1686 fabd 7b0d b7bd a251 a63a
00000180: 4180 cbbd 7795 fe3c b099 31be 65f5 58bd
00000190: 8527 053e 1cfd 913d 4f33 953e dead 363d
000001a0: c7c2 1fbd 3642 a03d 0a3c 9c3e b892 c4bd
000001b0: 3a64 0a3d 87c4 363e de48 953e 75c1 82be
000001c0: 231a 113e 2b04 083e 6737 42be 9cf0 d13d
000001d0: be0b 373d f8de b53d c61f 913e 2354 833e
000001e0: 2324 453e c54e 6a3e db7f 993e 5dbc 053e
000001f0: c7f6 4c3e f01d 493e cce0 013e 75f7 d93d
00000200: dc6a 96bd 07a5 0c3e 1740 ad3d 7f2b e63d
00000210: 871e e93c ffe6 b13d 5471 a23e 9a45 bc3d
00000220: 1110 0d3e 0613 8b3e 39d2 e73d 8a12 8cbc
00000230: 1bd1 733e 0c26 733e ce9b 293e 5c94 6b3e
00000240: 7822 833e 0ecd 0e3e db3f 863e 6df7 db3d
00000250: 08ef 343e b070 0c3e
-0.036877014 0.061889928 0.11109481 0.040773347 -0.12622881 0.071921736 0.025201302 -0.120055676
0.005526767 0.08010094 -0.13218741 0.3403741 0.19779962 -0.06197653 0.04087032 0.008796524
-0.15222155 -0.07073367 0.15500419 0.16237289 0.13404436 0.26076514 0.10726495 0.025471512
-0.21103634 0.29345807 0.18869884 0.24317649 0.08634822 0.07115074 -0.026883287 0.050190207
-0.029906377 0.15410009 -0.003195655 -0.047657833 -0.04175329 0.019711018 0.1444272 0.12020317
0.16212247 0.12492966 0.10915631 0.3344387 0.1766669 -0.11153844 0.22400893 0.21355936
0.06723261 0.23225522 0.090666585 -0.080952734 0.13886584 0.06673122 -0.037471373 0.0633846
-0.075180314 0.11756427 -0.109571956 -0.15119115 -0.10196344 -0.094498545 0.12536211 -0.11458381
-0.067434914 -0.10304349 -0.019161414 0.09052448 -0.03123529 0.057451878 -0.15162331 0.04308433
0.17482327 -0.06802626 0.12045438 0.14393193 0.09501823 -0.14111875 0.17796537 0.013312278
-0.12618983 -0.111216456 0.09780412 -0.14984073 0.01915821 -0.120193705 0.08381219 0.11899206
-0.05063504 0.060324147 -0.037150674 -0.023129791 -0.03975566 -0.12232606 -0.08938118 0.0012689123
-0.09936572 0.03107713 -0.17343783 -0.0529684 0.13003357 0.07128355 0.29140708 0.044599406
-0.039004114 0.07825129 0.30514556 -0.09598297 0.03378699 0.17848407 0.29157156 -0.2553822
0.14170127 0.1328284 -0.18966447 0.10250971 0.044688933 0.088804185 0.28344554 0.2565013
0.19252066 0.2288161 0.29980358 0.13060136 0.20016013 0.19640326 0.1268341 0.10642902
-0.073446006 0.13734828 0.0845949 0.11238765 0.02845694 0.08686637 0.31727087 0.09192963
0.1377566 0.2716295 0.11319394 -0.017098684 0.23810236 0.23744982 0.16563341 0.23005813
0.25612235 0.1394541 0.26220593 0.10740552 0.17669308 0.13714862

rnn.bias_lin_z f4 [50]
00000000: 8b93 d53b 653e 9fbd ae1d 003b 5ab2 55bd
00000010: 4bd4 8f3d b0e5 ec3d c27b 293e bf28 2fbd
00000020: 9bee 853c 28f3 73bd 1eda 32bd abdb 943d
00000030: 0a18 cebd 1a33 3c3e c938 153c eb50 043e
00000040: 6651 f43d 98a0 14bd be10 bf3d 7c9b 1a3c
00000050: ea31 e43d 339c c13d 7d35 093e 6fc1 f3bc
00000060: e8f3 8a3c 6ef5 f53d 8f75 1d3d fb41 063d
00000070: 9303 0ebe e96f 3e3c b84d 143e e0b3 093d
00000080: 0819 1ebd 1bc6 0b3e b0e3 c8bc 10ad d1bd
00000090: 5b3b d33d 0a73 1ebe e000 de3d 30da 13be
000000a0: d226 743d ef9e 3ebe abc7 c93d a273 f83c
000000b0: dbbb 06be 3d39 7bbd 4c6a 173d c9b8 b8bd
000000c0: 46c7 9d3c b525 a0bd
0.0065178326 -0.07775573 0.001954894 -0.052172042 0.070229135 0.11567247 0.16551116 -0.042763468
0.016349128 -0.059558064 -0.043665044 0.07268461 -0.10063179 0.18378869 0.009107777 0.12921493
0.11929588 -0.036285967 0.09329365 0.009436484 0.11142333 0.09453621 0.1339931 -0.029755322
0.016962007 0.120097026 0.03844219 0.032777768 -0.13868551 0.011623361 0.14482772 0.033618808
-0.03859809 0.1364979 -0.024522632 -0.10238087 0.103140555 -0.15473571 0.10840011 -0.144387
0.059607334 -0.18615316 0.09852537 0.030328576 -0.13157599 -0.061333884 0.036966607 -0.0901962
0.01926006 -0.07819692

classifier.weight f4 [3, 50]
00000000: 6398 c63e 1315 8dbd cb2f c33e de4e e6be
00000010: ae8e 97bd 8117 543e 2518 933d 36b3 b93d
00000020: 0e07 023e 8752 97be 926e aabe e476 1ebe
00000030: 5f2a 42be 9568 fe3d 7403 5b3e f2c8 adbe
00000040: 949c adbd fc6f 143d e181 e53a 1614 9abe
00000050: a4f0 823e 8abf 86bc f138 aabe f64a 693d
00000060: 67ec 903e 0769 2dbe 33bd 76bc 8752 01bc
00000070: e9f8 19be bea5 623e 9d57 833d 9328 31be
00000080: 6b46 613e cd37 773e adb6 f23d ae06 ba3d
00000090: 8cd4 2a3d 833b 90bd de81 3dbe ace7 cf3c
000000a0: f7f6 293d 2daa e33d 1ba4 6d3e 9605 57be
000000b0: fc78 1c3e 5596 01be 8acd 503e 4599 97bd
000000c0: 3c5b 10be 3999 aabe eaa5 0abe b6a1 46be
000000d0: 3dcc 99be 6528 66be c9f6 a23d e6e9 a23e
000000e0: 4988 303e 8444 eebd 0d7b 3b3e 6c8f 20be
000000f0: 6dd8 71bd ca80 123e 4fe0 103f c8b1 91be
00000100: 5986 b13d 4d7b 253d 3912 8e3d e33c 503e
00000110: 285f dd3e 0d85 01bf 9e9d c93d 0b4e 4bbe
00000120: 35ea 6c3b 1500 70bb 60cd 04be 7691 bdbe
00000130: c655 3b3d 3e70 b73e 5bce 3e3e 656a 043e
00000140: 11fc ca3e 715b f63c 2275 533e afab 8cbd
00000150: 9aa2 8a3e d6c9 7b3e 0470 d9bd e7ea 1fbe
00000160: 3d9b 863e 853b 163e b647 cbbd 28ca d33d
00000170: 2dcb 08bd 5e90 213e 07c6 97be 0213 2dbd
00000180: 12c7 7f3e 8748 a73d 4fde 0a3d d1c1 4e3c
00000190: 018d 08bf ddd1 90be 2992 ffbd 4c14 6d3e
000001a0: f4a6 0dbe 35b8 d63d 26fb edbc db05 ec3d
000001b0: a425 07be 0c67 cebe ba34 dcbe 950a 583d
000001c0: 0448 26bd 4cfa 19be be83 02bd 897b b23b
000001d0: 9f3f 8c3e 41d9 dcbd 97dd 76bd 6816 1a3e
000001e0: 03ef 92be a331 443e 187b 363d f507 69be
000001f0: 70cd a1be 11c0 2b3e e200 8dbd 1225 aabd
00000200: cdbf 6ebd dc41 a8bd 5ffd 1f3e e74a f13e
00000210: 176f 7ebd add0 90be e083 7e3e 0c0e c83d
00000220: 79cb c53d 7862 2c3b d3ed dbbe 699c c43d
00000230: 4d21 cdbd 26c8 a7bd cde8 6a3e 8650 cf3e
00000240: 4d57 913e 32f1 40bc 1afe 58bc 6b9d 5d3d
00000250: f49e 30be 43f3 053e
0.38788137 -0.06888785 0.381224 -0.44982046 -0.07400261 0.20712091 0.071823396 0.09067385
0.12698004 -0.2955515 -0.33287483 -0.1547504 -0.18961476 0.12422291 0.21388036 -0.33942372
-0.084771305 0.03623961 0.001751002 -0.3009345 0.2557422 -0.016448755 -0.33246568 0.056956254
0.2830536 -0.16934596 -0.015059757 -0.007893211 -0.15036358 0.22133538 0.06413195 -0.17300634
0.21999519 0.2414238 0.11851249 0.09083305 0.041706607 -0.07042601 -0.18506572 0.025379024
0.04149529 0.11116443 0.23207133 -0.20998225 0.15280527 -0.12655003 0.20390907 -0.07402281
-0.14097303 -0.33320025 -0.13539854 -0.19397625 -0.30038634 -0.22476347 0.07957227 0.31819075
0.17239489 -0.11634162 0.18308659 -0.15679711 -0.05904429 0.14306942 0.5659227 -0.2845595
0.08668203 0.040400792 0.069370694 0.20335726 0.4323666 -0.50593644 0.09844516 -0.1985399
0.003615034 -0.0036621143 -0.1296897 -0.3702504 0.045736097 0.35827821 0.18633406 0.12931211
0.39645436 0.0300729 0.20650151 -0.068686835 0.2707718 0.24588713 -0.106170684 -0.15616952
0.26290312 0.14671142 -0.09925787 0.103412926 -0.03339689 0.15777728 -0.2964327 -0.042254455
0.24978283 0.0816813 0.033903416 0.012619452 -0.53340155 -0.28285113 -0.1247905 0.23152274
-0.13833219 0.104843535 -0.029050421 0.11524554 -0.13197953 -0.40312994 -0.43008977 0.052744467
-0.040596023 -0.15036887 -0.03186392 0.0054468554 0.2739229 -0.107836254 -0.06026992 0.1504761
-0.28697976 0.1915956 0.044550985 -0.22756942 -0.3160205 0.16772486 -0.06884934 -0.08307852
-0.058288384 -0.08215687 0.15623997 0.47127458 -0.062117662 -0.28284207 0.24854994 0.09768304
0.0965795 0.002630381 -0.42954883 0.09600145 -0.10016117 -0.08192472 0.22940369 0.40491122
0.28386918 -0.011776255 -0.013244176 0.054105204 -0.17248136 0.13081078

classifier.bias f4 [3]
00000000: 00c2 783c e24b a1bd 55da 8a3d
0.015182972 -0.078758016 0.06779925
