Final Project/LEM-main/models/lorenz96/8/model.pt (torch, 725207 bytes, 6 tensors)

rnn.weights f4 [600, 220]
-0.068631396 -0.16422054 -0.09162765 0.0404706 0.06322911 0.12950246 -0.21005407 0.06714532
0.12614444 -0.045814656 -0.11927894 -0.11453645 0.0013594843 0.06463221 -0.04737684 -0.056193497
-0.19213596 -0.05728848 0.029137926 0.028149776 -0.0986542 0.050463416 0.14022075 0.01530825
0.122949 0.15910448 -0.11282356 0.1534535 0.109707534 -0.15854013 0.07150939 -0.12130504
-0.1198834 -0.050595973 0.014163487 -0.10263531 0.0023330122 0.05432064 0.10083714 -0.10208049
-0.07028485 0.06520623 0.005345346 0.014851631 -0.05677592 -0.22341068 -0.02050608 -0.02557086
0.1521721 0.15378207 0.13163787 0.21147144 0.05383508 0.15346712 0.1243826 0.0134585835
0.027830487 0.05916991 -0.1224529 0.09901838 0.08322643 -0.08645612 0.101965845 -0.21052521
-0.17493826 0.048988704 -0.021217605 0.026071358 -0.19935283 0.053868927 0.14391255 0.072181836
-0.23505479 0.03242917 0.0385733 -0.000574613 0.04205819 0.09321135 0.19292153 -0.0016151036
-0.015412182 -0.015931154 -0.08034175 0.00018355873 -0.06903071 0.11538397 -0.026384514 -0.09889282
-0.12828608 0.07816076 0.111747526 -0.010843582 -0.17294115 -0.007831096 -0.1075297 -0.17748815
-0.1882354 -0.07857754 0.021123597 -0.10243077 -0.13930093 0.13187626 0.13211596 0.060453687
-0.089837536 0.20571485 0.061748803 0.021047229 0.0045866417 -0.11155793 -0.006175341 -0.07815249
0.07336365 -0.06213429 -0.020808289 0.13422294 -0.0054321676 0.06304729 0.048444763 0.134352
-0.21128815 0.032427676 -0.052540276 -0.06628557 0.070835546 0.11898517 0.012281085 -0.069156945
0.18850797 -0.04403882 0.037014056 0.19754158 -0.10780267 -0.053524733 -0.031828634 0.027745932
-0.08207997 -0.13607381 -0.07025722 -0.12768656 -0.0010358108 0.027144264 0.011218159 0.022222737
0.03736504 0.097078435 -0.11991595 0.054390114 -0.03256724 -0.16545686 -0.10842186 0.09002677
0.052873593 -0.072697036 -0.06075484 -0.14636664 -0.082691714 0.21681342 0.239176 -0.10052232
0.015066964 0.009920315 0.100497685 -0.11548575 -0.13586898 -0.003645947 -0.17250893 -0.06592272
0.0044336757 0.16463442 0.08408415 -0.09424461 -0.016664864 -0.0050308835 -0.061135013 0.056338705
0.05412904 0.0060621127 -0.017932203 0.012474044 -0.044460043 -0.019346554 -0.102309376 -0.14478077
-0.007889212 -0.16611554 0.12472196 -0.0023918634 -0.09018232 -0.12384361 0.01732228 0.0028811195
-0.0013736456 0.08931533 0.11955363 0.09807317 -0.0027889232 -0.05937778 0.010099371 0.10051828
0.03244243 0.006678274 0.0302556 0.03315234 0.023042392 0.07154811 0.0029642656 -0.0038749776
0.053515714 -0.036177177 0.07713582 0.24203478 -0.17338933 0.08543099 -0.23783873 -0.13053025
-0.057034004 -0.02007258 0.016957123 -0.06408971 -0.10943403 -0.13813181 0.03143629 0.08435418
0.06443588 0.13492984 0.11065846 0.07875895 -0.092386186 -0.051217686 -0.02358821 -0.12330489
-0.13658199 0.06444552 -0.023472022 -0.1948058 -0.02640062 0.0823384 0.040059295 -0.022756578
-0.069739036 0.017967397 0.064207636 -0.012900401 0.111835964 0.052982986 0.08328106 0.1300208
0.0719476 -0.20655903 0.08036321 -0.19354862 -0.07772461 0.12457264 -0.16712609 0.05776172
00000000: 9e8e 8cbd 6e29 28be 47a7 bbbd 80c4 253d
00000010: 437e 813d 4b9c 043e 6a18 57be 7c83 893d
00000020: 022c 013e 26a8 3bbd 8448 f4bd 1692 eabd
00000030: b930 b23a e45d 843d 380e 42bd 272b 66bd
00000040: 4abf 44be 53a7 6abd a9b2 ee3c 5c9a e63c
00000050: 370b cabd bab2 4e3d 0796 0f3e 74cf 7a3c
00000060: afcc fb3d 49ec 223e 0a10 e7bd ea22 1d3e
00000070: 58ae e03d 5858 22be 8473 923d c76e f8bd
00000080: 6e85 f5bd b93d 4fbd f80d 683c 7632 d2bd
00000090: 73e5 183b 527f 5e3d b483 ce3d 930f d1bd
000000a0: 81f1 8fbd d88a 853d 0328 af3b 4154 733c
000000b0: de8d 68bd c5c5 64be 5efc a7bc fb79 d1bc
000000c0: 01d3 1b3e 0c79 1d3e 14cc 063e f88b 583e
000000d0: 2c82 5c3d 7c26 1d3e 4ebc fe3d 6481 5c3c
000000e0: c3fc e33c 265c 723d 96c8 fabd 26ca ca3d
000000f0: 9e72 aa3d e80f b1bd 78d3 d03d ec93 57be
00000100: 0423 33be 61a8 483d 8bd0 adbc 9a93 d53c
00000110: 2623 4cbe aaa5 5c3d d05d 133e 12d4 933d
00000120: 34b2 70be 73d4 043d 09ff 1d3d a0a1 16ba
00000130: 3545 2c3d 98e5 be3d 398d 453e e2b1 d3ba
00000140: 6083 7cbc 0d82 82bc 378a a4bd ac79 4039
00000150: f95f 8dbd 6e4e ec3d 5624 d8bc 5288 cabd
00000160: 6d5d 03be c012 a03d e3db e43d 48a9 31bc
00000170: 7c17 31be ff4d 00bc 8838 dcbd 74bf 35be
00000180: c8c0 40be 43ed a0bd 650b ad3c 39c7 d1bd
00000190: e7a4 0ebe 920a 073e 6849 073e 499e 773d
000001a0: befc b7bd eaa6 523e 50ec 7c3d 3d6b ac3c
000001b0: 8a4b 963b 7c78 e4bd 845a cabb 6a0e a0bd
000001c0: ae3f 963d 8680 7ebd 2576 aabc bd71 093e
000001d0: 5300 b2bb f01e 813d 046e 463d 9293 093e
000001e0: ec5b 58be e2d2 043d 7934 57bd bbc0 87bd
000001f0: 3a12 913d 7fae f33d 9b36 493c 28a2 8dbd
00000200: 3c08 413e 0d62 34bd 0d9c 173d 5748 4a3e
00000210: a5c7 dcbd c03c 5bbd be5e 02bd 704b e33c
00000220: 8b19 a8bd ef56 0bbe 04e3 8fbd 44c0 02be
00000230: 0bc4 87ba a65d de3c 5fcc 373c 750c b63c
00000240: 160c 193d 0fd1 c63d 7e96 f5bd 2bc8 5e3d
00000250: 3a65 05bd 866d 29be 480c debd f55f b83d
00000260: fb91 583d 2fe2 94bd 11da 78bd 23e1 15be
00000270: 465a a9bd 5604 5e3e 8eea 743e a5de cdbd
00000280: 6ddb 763c d188 223c bbd1 cd3d cb83 ecbd
00000290: 3d21 0bbe d7f0 6ebb 2ea6 30be 7e02 87bd
000002a0: 5e48 913b ed95 283e 5034 ac3d 5103 c1bd
000002b0: c184 88bc 1cda a4bb b568 7abd 6ac3 663d
000002c0: 6ab6 5d3d b0a4 c63b 8ee6 92bc ef5f 4c3c
000002d0: bc1b 36bd aa7c 9ebc 9487 d1bd 6941 14be
000002e0: c141 01bc 311a 2abe 3a6e ff3d cfc0 1cbb
000002f0: 82b1 b8bd b8a1 fdbd 74e7 8d3c 2ad1 3c3b
00000300: e60b b4ba f5ea b63d 89d8 f43d 96da c83d
00000310: 5ec6 36bb 1d36 73bd d577 253c 87dc cd3d
00000320: 5ae2 043d 6cd5 da3b 98da f73c c0ca 073d
00000330: 66c3 bc3c d187 923d 2044 423b 56f3 7dbb
00000340: 4b33 5b3d 852e 14bd 63f9 9d3d f7d7 773e
00000350: f98c 31be 71f6 ae3d ff8b 73be b9a9 05be
00000360: 7d9c 69bd 406f a4bc aae9 8a3c 7741 83bd
00000370: f31e e0bd 6d72 0dbe 57c3 003d e2c1 ac3d
00000380: f5f6 833d 0c2b 0a3e e7a0 e23d 5f4c a13d
00000390: f834 bdbd a3c9 51bd 103c c1bc 4687 fcbd
000003a0: 26dc 0bbe 03fc 833d 6648 c0bc 2c7b 47be
000003b0: 1d46 d8bc 09a1 a83d 3715 243d 016c babc
000003c0: 57d3 8ebd 5d30 933c 4b7f 833d 345c 53bc
000003d0: 410a e53d b004 593d 438f aa3d 2c24 053e
000003e0: 4359 933d 3684 53be 7795 a43d 9c31 46be
000003f0: 152e 9fbd f11f ff3d 1a23 2bbe 8e97 6c3d

rnn.weights_lin_z f4 [200, 220]
0.015663581 0.052299056 -0.006672651 0.08115944 -0.073151335 -0.001490736 0.066675365 0.073530935
-0.00037353628 0.08059579 -0.092231855 -0.05617804 -0.04291555 -0.0012338316 0.05860794 0.0835443
0.0059161056 0.075216785 -0.055011384 0.09050157 -0.020042336 -0.07871449 -0.09985023 -0.018802742
-0.019652227 0.023961267 -0.012638166 -0.060451888 -0.054366026 -0.14032842 0.050495096 0.018559525
-0.0051650433 -0.02398083 0.026502883 -0.020613823 -0.025159074 0.06968714 0.005121209 0.01729112
-0.030602103 -0.05313018 -0.0959134 -0.051638667 -0.035849564 0.12195723 -0.012777671 0.114207044
-0.022729943 0.012750374 -0.059058104 -0.0036998636 0.045003716 0.017122345 0.010630663 0.07386312
-0.02131896 0.030166024 0.10557233 0.03702212 0.04094514 0.051715735 -0.060510065 0.010515887
-0.023559278 0.11327337 -0.050415475 -0.003676077 -0.034657884 0.10099048 -0.001135181 0.13220553
-0.00079248124 -0.051881157 -0.07744186 -0.021361515 0.020077325 0.002640973 -0.011992236 0.007330101
-0.008651701 0.014999973 0.009768881 -0.07175808 -0.057754096 -0.00046636577 0.05191264 -0.036635417
0.021833533 -0.029725518 0.09343981 -0.00080941414 -0.0041960585 0.07566165 0.024865637 -0.03935202
0.00070830324 -0.059074428 -0.085006826 -0.0024243954 -0.01589844 0.006221857 -0.05068358 0.009585459
-0.050651953 -0.008386797 0.071538374 -0.070725426 -0.10821203 0.07248459 -0.08116091 -0.007923907
-0.05283578 -0.012071617 0.07190958 -0.041448362 -0.05005966 -0.059885796 0.028906852 -0.028276281
-0.09226282 0.0053579016 0.05651162 -0.055159565 -0.020806445 0.06677305 -0.04763974 -0.06332965
0.08551226 -0.038654163 0.052149855 0.015238007 0.040705483 0.020392513 0.038430236 -0.0034608513
0.031134257 0.063839555 -0.06827482 -0.08854589 0.11182494 -0.09507396 -0.0027457292 0.027575966
0.06193178 0.03598152 0.04575854 0.03259578 -0.036628548 -0.05777658 -0.07746367 0.036396094
-0.05990811 0.03526405 0.056151606 0.027796086 -0.0032084165 -0.06276348 -0.07514602 0.09634187
-0.012841855 -0.06648303 -0.0020078574 -0.08013754 -0.057684857 0.08813808 0.022797998 -0.01564322
0.06572488 -0.0006467884 -0.06289686 -0.04180057 -0.129954 0.033928376 0.016198816 0.062372252
0.03620668 0.017073337 -0.045035295 0.103155896 0.070805036 0.018747127 -0.019875675 0.0067480956
0.061038658 -0.02386651 0.004128804 -0.06303979 0.017411942 0.057953637 0.020501629 -0.01828823
-0.0026116718 0.055745717 -0.020258583 -0.07926527 0.017502997 0.0356967 -0.036389798 0.016208969
-0.087776914 -0.020950226 -0.044646133 0.03795357 0.015599203 0.014344057 0.027145129 -0.0214697
0.03065291 -0.062355153 -0.06400558 0.034941167 0.0421019 0.051204566 -0.04260235 0.063355096
-0.061421055 -0.020684365 -0.02978394 -0.027827995 0.014081803 0.039684065 -0.030313393 0.043086387
-0.047024548 0.06825247 0.007472932 0.07754188 0.039343935 -0.023675365 -0.031301994 -0.051030703
0.0033446872 0.013452025 -0.08940602 0.0146449115 0.08016314 0.004688104 -0.025446512 -0.10238804
0.08191705 -0.07240149 0.09118695 -0.09332744 0.0010680733 0.15020904 -0.0047072144 0.06305673
-0.056797635 0.02282969 0.0078512635 0.03657893 -0.048969816 0.058882415 0.048435662 0.0456988
00000000: e950 803c 8937 563d 41a6 dabb ec36 a63d
00000010: 5ed0 95bd cd64 c3ba 188d 883d 6397 963d
00000020: 31d7 c3b9 680f a53d 0ee4 bcbd f21a 66bd
00000030: 37c8 2fbd 85b8 a1ba e10e 703d 4619 ab3d
00000040: e4db c13b 420b 9a3d 9e53 61bd e358 b93d
00000050: d32f a4bc 1035 a1bd 477e ccbd 3508 9abc
00000060: b5fd a0bc 6b4a c43c 4f10 4fbc 669c 77bd
00000070: e9ae 5ebd 41b2 0fbe f2d3 4e3d 250a 983c
00000080: 863f a9bb 7273 c4bc 931c d93c 52de a8bc
00000090: 671a cebc 22b8 8e3d d1cf a73b 1ba6 8d3c
000000a0: 43b1 fabc 089f 59bd 3f6e c4bd 1183 53bd
000000b0: fed6 12bd b6c4 f93d 7059 51bc 62e5 e93d
000000c0: 2534 babc f2e6 503c e9e6 71bd 6979 72bb
000000d0: d155 383d 2944 8c3c 3b2c 2e3c 8c45 973d
000000e0: 19a5 aebc bd1e f73c 4e36 d83d 82a4 173d
000000f0: 17b6 273d e1d3 533d 67d9 77bd d44a 2c3c
00000100: 63ff c0bc defb e73d 7580 4ebd 56ea 70bb
00000110: 6df5 0dbd 19d4 ce3d 5bca 94ba e360 073e
00000120: 84be 4fba 5681 54bd d799 9ebd 58fe aebc
00000130: 3479 a43c 2d14 2d3b 157b 44bc 5831 f03b
00000140: ddbf 0dbc 72c2 753c a80d 203c e6f5 92bd
00000150: 8f8f 6cbd 8e82 f4b9 59a2 543d 050f 16bd
00000160: 3ddc b23c ee82 f3bc 5f5d bf3d dd2e 54ba
00000170: 177f 89bb 7ff4 9a3d 05b3 cb3c 952f 21bd
00000180: 6dad 393a 07f8 71bd 0f18 aebd 9be2 1ebb
00000190: 723d 82bc b8e0 cb3b 9699 4fbd 540c 1d3c
000001a0: 6c78 4fbd c768 09bc b682 923d 7ed8 90bd
000001b0: 459e ddbd cd72 943d b137 a6bd 46d3 01bc
000001c0: 556a 58bd 08c8 45bc 5445 933d c2c5 29bd
000001d0: 5c0b 4dbd cf4a 75bd 10ce ec3c a9a3 e7bc
000001e0: 4af4 bcbd 5691 af3b ba78 673d ffee 61bd
000001f0: 4772 aabc 4fc0 883d e321 43bd fab2 81bd
00000200: 0d21 af3d d453 1ebd 169b 553d d5a8 793c
00000210: cbba 263d 330e a73c 0669 1d3d 73cf 62bb
00000220: 450d ff3c 50be 823d abd3 8bbd 8c57 b5bd
00000230: 7904 e53d 23b6 c2bd b1f1 33bb fee6 e13c
00000240: 2eac 7d3d 5c61 133d 4f6d 3b3d 2783 053d
00000250: d107 16bd 23a7 6cbd 46a5 9ebd 1214 153d
00000260: 3562 75bd 0971 103d 3aff 653d 9eb4 e33c
00000270: 4c44 52bb 248a 80bd 28e6 99bd e34e c53d
00000280: a566 52bc 4128 88bd 4296 03bb 271f a4bd
00000290: f546 6cbd bd81 b43d dec2 ba3c 3626 80bc
000002a0: c49a 863d 3c8d 29ba 12d0 80bd 1337 2bbd
000002b0: a912 05be 7bf8 0a3d 61b3 843c 0c7a 7f3d
000002c0: 754d 143d 62dd 8b3c ee76 38bd 6643 d33d
000002d0: 3b02 913d 9393 993c 50d2 a2bc 211f dd3b
000002e0: ac03 7a3d b383 c3bc eb4a 873b 011b 81bd
000002f0: 7da3 8e3c cb60 6d3d 08f3 a73c 33d1 95bc
00000300: 9528 2bbb 9f55 643d 54f5 a5bc d455 a2bd
00000310: 7262 8f3c b436 123d 780d 15bd acc8 843c
00000320: 62c4 b3bd cf9f abbc ddde 36bd 3475 1b3d
00000330: cd93 7f3c 5603 6b3c 765f de3c 39e1 afbc
00000340: d01b fb3c 1e68 7fbd 5c15 83bd 781e 0f3d
00000350: 0b73 2c3d e1bb 513d cd7f 2ebd 51c0 813d
00000360: a594 7bbd 4272 a9bc 73fd f3bc 89f7 e3bc
00000370: 5db7 663c c28b 223d cb53 f8bc 5a7b 303d
00000380: d09c 40bd f3c7 8b3d 7fdf f43b 47ce 9e3d
00000390: 1b27 213d d7f2 c1bc 8536 00bd 9205 51bd
000003a0: 8a32 5b3b e265 5c3c 811a b7bd 36f1 6f3c
000003b0: 932c a43d ab9e 993b 3475 d0bc d2b0 d1bd
000003c0: 20c4 a73d 3b47 94bd 39c0 ba3d 7522 bfbd
000003d0: 98fe 8b3a 66d0 193e fa3e 9abb e323 813d
000003e0: a3a4 68bd 5405 bb3c 96a2 003c cad3 153d
000003f0: 9394 48bd b02e 713d 7964 463d aa2e 3b3d

rnn.bias f4 [600]
0.17773093 0.2303117 0.28197652 0.07581882 0.15038088 0.15531243 0.1725709 0.043621596
0.24723949 0.10594606 0.16995582 0.15097027 0.22659776 0.121041864 0.05859081 0.21917725
0.21770717 0.059093475 0.16291618 0.11768007 0.021667255 0.2119364 0.16878378 0.36916518
0.21944869 0.06526057 0.09638259 0.3306587 0.1535809 0.2141092 0.07848263 0.15273023
0.19140647 0.16619012 0.1445077 0.22984299 0.3117267 0.2700334 0.2021432 0.10472831
0.05126058 0.24060363 0.08561549 0.16603823 0.3328836 0.08406357 0.21544895 0.30538425
0.24207157 0.038703572 0.2669261 0.27581847 0.08478673 0.2509363 0.20274995 0.09782905
0.04533625 0.32298496 0.15584615 0.100006595 0.4258004 0.17797458 0.10712715 0.2912663
0.23799981 0.26895577 0.3818159 0.12251924 0.13116878 0.21590468 0.058574174 0.33727357
0.12390119 0.15428826 -0.06205608 0.15621124 0.38980514 0.18948473 0.13792717 0.18658069
0.06540601 0.1794465 0.104138866 0.15952143 0.20392478 0.16618125 0.19990385 0.18658951
0.33331054 0.19312112 0.2085076 0.31216592 0.33076236 0.23839097 0.15165213 0.2107919
0.16421583 0.32223812 0.32199043 -0.037500568 0.3129897 0.2026958 0.17435963 0.09320427
0.11875455 0.20370997 0.12773085 0.12651047 0.26622683 0.14014658 0.19810814 0.29024765
0.22697207 0.085861124 0.26244324 0.30490407 0.20711802 0.38357282 0.23677275 0.2566724
0.26419854 0.12904933 0.17747024 0.0777889 -0.03438196 0.19146001 0.109461784 0.12359034
0.13094635 0.17005317 0.21353856 0.31655964 0.18036947 0.2664015 0.1272799 0.19092515
0.033521913 0.23292477 0.10381589 0.18461339 0.13074303 0.18086457 0.16097748 0.02783216
0.1991992 0.13004471 0.121711776 0.20168237 0.15311493 0.10061108 0.27154803 0.0588904
0.1955851 0.010080821 0.19761203 0.23610069 0.2705433 0.16293183 0.29054475 0.19786756
0.1886349 0.14483547 0.18221942 0.13195685 0.19278027 0.23513117 0.1753028 0.2241609
0.022020163 0.03687911 0.1708172 -0.076673515 0.2896526 0.21955778 0.18547365 0.16235092
0.22456346 0.3591475 0.00393912 0.14403263 0.2787113 0.22783342 0.06741299 0.1920527
0.3135767 0.13506325 0.099369705 0.021513127 0.22524498 0.21570325 0.17598307 0.18114072
0.33340347 0.1072195 -0.04528271 0.14974579 0.045872755 0.29966167 0.07247601 0.23883082
0.06361108 -0.17461146 -0.15014131 -0.089363046 0.06677014 -0.11484622 -0.021477627 -0.017814202
0.08672936 -0.04075827 -0.14364393 0.03265651 0.019962372 -0.017553959 0.0844296 0.009719685
-0.13527247 -0.11505649 -0.1816001 -0.09490448 -0.10565231 0.11174776 -0.08895217 -0.2161414
-0.060483802 0.07239912 -0.03894859 -0.17669968 0.08997052 -0.17746009 0.13085173 -0.006553526
-0.08834812 -0.050667416 -0.11824068 0.20573317 -0.23831543 0.15825969 -0.076790415 0.12417701
-0.002918417 -0.0050258273 0.0531798 -0.1155243 0.022824433 0.045131512 -0.05104226 0.09275399
-0.18721645 -0.05548561 -0.06644035 0.15058509 0.050256666 -0.052533187 -0.051870584 0.029839067
00000000: 19ff 353e d5d6 6b3e 3a5f 903e e646 9b3d
00000010: 72fd 193e 390a 1f3e 6db6 303e 8fac 323d
00000020: 592c 7d3e 3ffa d83d e608 2e3e f397 1a3e
00000030: 3e09 683e cce4 f73d ebfc 6f3d 0070 603e
00000040: a1ee 5e3e 000c 723d 80d3 263e 4002 f13d
00000050: 877f b13c db05 593e a8d5 2c3e 3803 bd3e
00000060: 28b7 603e 55a7 853d 3c64 c53d 194c a93e
00000070: 5044 1d3e 713f 5b3e 80bb a03d 5065 1c3e
00000080: 0f00 443e be2d 2a3e d4f9 133e f65b 6b3e
00000090: a49a 9f3e d141 8a3e a1fe 4e3e cc7b d63d
000000a0: 9df6 513d cc60 763e 2d57 af3d ed05 2a3e
000000b0: b86f aa3e 8529 ac3d a69e 5c3e 535b 9c3e
000000c0: 9ce1 773e a387 1e3d 8aaa 883e 1438 8d3e
000000d0: aaa4 ad3d b97a 803e af9d 4f3e 995a c83d
000000e0: 81b2 393d 495e a53e 2296 1f3e 42d0 cc3d
000000f0: 8302 da3e f83e 363e 7b65 db3d db20 953e
00000100: 39b6 733e 92b4 893e 607d c33e 5eeb fa3d
00000110: 1c51 063e 1e16 5d3e 79eb 6f3d 1faf ac3e
00000120: e8bf fd3d befd 1d3e 842e 7ebd d7f5 1f3e
00000130: 8a94 c73e 4908 423e c83c 0d3e 020f 3f3e
00000140: 96f3 853d d3c0 373e c246 d53d 9659 233e
00000150: a8d1 503e 6b2b 2a3e 98b3 4c3e 5211 3f3e
00000160: aea7 aa3e 8bc1 453e 0483 553e 36d4 9f3e
00000170: af59 a93e c31c 743e b24a 1b3e d5d9 573e
00000180: 3228 283e 65fc a43e eedb a43e 329a 19bd
00000190: 3040 a03e 7d8f 4f3e 558b 323e e1e1 be3d
000001a0: 9635 f33d 5999 503e e0cb 023e f68b 013e
000001b0: e24e 883e 9682 0f3e dcdc 4a3e 579b 943e
000001c0: 5e6b 683e f5d7 af3d f65e 863e 631c 9c3e
000001d0: bf16 543e a863 c43e 8e74 723e 916a 833e
000001e0: 0845 873e 8225 043e c2ba 353e c94f 9f3d
000001f0: 19d4 0cbd 180e 443e 802d e03d ef1c fd3d
00000200: cd16 063e 6b22 2e3e daa9 5a3e 1b14 a23e
00000210: c6b2 383e c765 883e a955 023e e281 433e
00000220: 464e 093d d583 6e3e 6d9d d43d 4b0b 3d3e
00000230: 80e1 053e 9034 393e 48d7 243e 4500 e43c
00000240: e0fa 4b3e 712a 053e 0644 f93d d385 4e3e
00000250: 29ca 1c3e 2f0d ce3d 5808 8b3e 0f37 713d
00000260: 7647 483e 072a 253c cf5a 4a3e 61c4 713e
00000270: a784 8a3e 9ad7 263e 48c2 943e cb9d 4a3e
00000280: 8229 413e c04f 143e ba97 3a3e b21f 073e
00000290: 3168 453e 3ac6 703e 9482 333e 6f8a 653e
000002a0: a163 b43c 8d0e 173d b4ea 2e3e 0107 9dbd
000002b0: 584d 943e c1d3 603e ceec 3d3e 523f 263e
000002c0: f7f3 653e 2ee2 b73e bc13 813b 4a7d 133e
000002d0: 3fb3 8e3e 2a4d 693e d20f 8a3d 77a9 443e
000002e0: 208d a03e 054e 0a3e 5882 cb3d 4c3c b03c
000002f0: 9fa6 663e 50e1 5c3e e834 343e f47c 393e
00000300: dcb3 aa3e e695 db3d 5d7a 39bd f656 193e
00000310: 12e5 3b3d 416d 993e 4d6e 943d 1190 743e
00000320: 8746 823d 59cd 32be a5be 19be f903 b7bd
00000330: c8be 883d 7f34 ebbd d9f1 afbc 17ef 91bc
00000340: 2a9f b13d 25f2 26bd 6517 13be d5c2 053d
00000350: 2188 a33c 52cd 8fbc 6de9 ac3d 503f 1f3c
00000360: de84 0abe bda2 ebbd 60f5 39be 485d c2bd
00000370: 3d60 d8bd 02dc e43d 8e2c b6bd 2c54 5dbe
00000380: ddbd 77bd fd45 943d 8f88 1fbd c3f0 34be
00000390: 7742 b83d 19b8 35be fffd 053e f6be d6bb
000003a0: dcef b4bd a388 4fbd 2b28 f2bd b7ab 523e
000003b0: f608 74be d40e 223e 4b44 9dbd 8450 fe3d
000003c0: ea42 3fbb b2af a4bb 10d3 593d 0198 ecbd
000003d0: 4efa ba3c d2db 383d b011 51bd cef5 bd3d
000003e0: abb5 3fbe e144 63bd e111 88bd fa32 1a3e
000003f0: efd9 4d3d 0a2d 57bd 4076 54bd 0f71 f43c

rnn.bias_lin_z f4 [200]
0.06572723 -0.16687731 -0.17092487 0.16368842 0.058997545 -0.022684548 -0.051109776 -0.12349733
0.14246443 -0.14629617 -0.104454175 -0.049908135 -0.09633512 -0.054934613 0.023107838 -0.037377052
-0.14510603 -0.033199992 0.14463942 0.10783296 0.033474263 0.06829081 0.009910548 -0.10831937
0.13059792 0.07837455 -0.10043472 0.21512794 -0.035752885 -0.029080205 0.036969367 -0.01983327
0.0035901868 -0.12404259 -0.009271362 -0.040582277 -0.14323357 0.12110256 -0.06778198 0.08967376
-0.036941145 0.059888985 -0.08592274 0.101343974 -0.20188268 -0.069015265 0.047920328 -0.04613823
0.055620626 0.104914546 0.06979366 0.16327967 0.17100795 0.1852116 0.11963852 0.15899122
0.026160534 -0.02138021 -0.053955548 0.07753833 0.15516305 -0.037939385 -0.028741514 0.01045122
0.008077218 0.13520527 -0.09123304 -0.027386712 -0.08854383 0.02976442 0.10810044 0.080128
-0.15998684 -0.025021749 0.07210411 0.13544323 0.19475666 0.066383675 -0.008219345 0.0945864
-0.0048570777 -0.07853997 -0.10026823 0.17139122 -0.13273919 -0.010427338 0.09691049 -0.04033791
0.07190345 0.083876364 0.16160508 0.00086955365 -0.013969326 -0.02660805 -0.0061381743 -0.03463756
0.04163636 -0.004931984 0.029058881 -0.20749941 0.0053064674 0.046096265 0.036809646 0.06476852
0.033635184 0.17552677 0.06342867 -0.033117253 0.045920566 -0.16249816 0.12070021 -0.027504811
0.0070429733 -0.05497289 0.038038507 0.16736287 0.116932034 -0.031403285 0.13491684 0.105852105
-0.09241726 -0.12943152 -0.0078960275 -0.09566814 0.0151173165 0.026107833 -0.08213816 0.15862837
0.16623878 -0.075413115 -0.0027663442 0.055223107 0.082629584 0.038382713 0.17753243 0.070209734
-0.06675799 -0.008934095 -0.16204254 -0.039269943 0.061872933 0.087717295 0.13175054 0.15801898
0.06566624 -0.082408495 -0.06320536 0.07599264 0.12553377 -0.020749493 -0.039869606 -0.14332575
-0.031189578 -0.071934216 -0.14476888 -0.042220753 0.08496531 0.10285707 0.07467688 -0.11517408
-0.042769466 -0.18809971 -0.18703535 -0.046855085 -0.13841873 -0.066871464 -0.07629807 -0.08468734
-0.1155474 -0.011900598 0.11721325 0.17892833 -0.15143046 0.026859999 -0.06814453 0.13000475
0.16194387 0.06190555 0.029645342 -0.015994458 -0.092016146 -0.1374371 -0.14031309 0.001722762
0.026284961 -0.1363041 0.10487871 -0.10678956 -0.10559676 -0.078934684 -0.07050371 0.10234386
-0.1984709 0.02918434 0.070834115 -0.09351434 -0.043482643 0.08580471 -0.039479416 0.1391669
00000000: ff9b 863d e3e1 2abe ee06 2fbe f09d 273e
00000010: 69a7 713d f2d4 b9bc 7c58 51bd 2bec fcbd
00000020: 32e2 113e aace 15be 12ec d5bd 796c 4cbd
00000030: 594b c5bd 1e03 61bd a64c bd3c ae18 19bd
00000040: ad96 14be b7fc 07bd 5b1c 143e 87d7 dc3d
00000050: 4f1c 093d 0ddc 8b3d da5f 223c 8cd6 ddbd
00000060: 76bb 053e d682 a03d b8b0 cdbd 804a 5c3e
00000070: 9e71 12bd 9c39 eebc 316d 173d 6279 a2bc
00000080: 5749 6b3b 0b0a febd e9e6 17bc 9a39 26bd
00000090: d2ab 12be 9e04 f83d 47d1 8abd e0a6 b73d
000000a0: 994f 17bd 274e 753d 43f8 afbd 6e8d cf3d
000000b0: 55ba 4ebe e057 8dbd 1b48 443d 71fb 3cbd
000000c0: 74d2 633d 70dd d63d faef 8e3d c932 273e
000000d0: b51c 2f3e 1ca8 3d3e 0a05 f53d 98ce 223e
000000e0: 9e4e d63c 8d25 afbc 7e00 5dbd 6acc 9e3d
000000f0: 10e3 1e3e 5466 1bbd 5373 ebbc 983b 2b3c
00000100: 4f56 043c 4073 0a3e 63d8 babd 195a e0bc
00000110: 7856 b5bd 83d4 f33c c363 dd3d 261a a43d
00000120: 97d3 23be 69fa ccbc 52ab 933d a1b1 0a3e
00000130: 4a6e 473e 2af4 873d 6eaa 06bc 84b6 c13d
00000140: 1f28 9fbb 90d9 a0bd 6e59 cdbd 2e81 2f3e
00000150: c8ec 07be 6dd7 2abc 0279 c63d 5d39 25bd
00000160: 1e42 933d 5fc7 ab3d cd7b 253e c2f2 633a
00000170: 9adf 64bc 20f9 d9bc bd22 c9bb 1de0 0dbd
00000180: e38a 2a3d 7b9c a1bb e40c ee3c ba7a 54be
00000190: e0e1 ad3b 70cf 3c3d b6c5 163d 5ca5 843d
000001a0: 0cc5 093d 4abd 333e e4e6 813d f5a5 07bd
000001b0: 3417 3c3d eb65 26be ac31 f73d c551 e1bc
000001c0: bec8 e63b 412b 61bd 44ce 1b3d 2c61 2b3e
000001d0: 107a ef3d bba0 00bd a427 0a3e fdc8 d83d
000001e0: 4345 bdbd b289 04be 575e 01bc a8ed c3bd
000001f0: 9fae 773c 18e0 d53c 0d38 a8bd 7a6f 223e
00000200: 803a 2a3e 3172 9abd 8e4b 35bb a031 623d
00000210: b339 a93d 3137 1d3d 10cb 353e 1fca 8f3d
00000220: 6ab8 88bd 4f60 12bc 7bee 25be 85d9 20bd
00000230: 796e 7d3d 20a5 b33d 9de9 063e bacf 213e
00000240: 067c 863d c9c5 a8bd d071 81bd 07a2 9b3d
00000250: ed8b 003e d7fa a9bc 504e 23bd fcc3 12be
00000260: 4981 ffbc 3f52 93bd 4b3e 14be abef 2cbd
00000270: 4b02 ae3d baa6 d23d 31f0 983d 63e0 ebbd
00000280: 092f 2fbd 369d 40be 3286 3fbe 1eeb 3fbd
00000290: a4bd 0dbe e8f3 88bd 2a42 9cbd 8e70 adbd
000002a0: 1ea4 ecbd bafa 42bc 800d f03d fd38 373e
000002b0: 9610 1bbe 8009 dc3c 5c8f 8bbd f71f 053e
000002c0: 9dd4 253e ad90 7d3d cada f23c cf06 83bc
000002d0: f672 bcbd 50bc 0cbe 3cae 0fbe 4dce e13a
000002e0: 8f53 d73c 4d93 0bbe a6ca d63d 7cb4 dabd
000002f0: 1d43 d8bd 82a8 a1bd 4064 90bd a899 d13d
00000300: f53b 4bbe ff13 ef3c 7a11 913d 7284 bfbd
00000310: db1a 32bd 61ba af3d 2bb5 21bd c581 0e3e

classifier.weight f4 [20, 200]
-0.22274186 0.3458477 -0.16967872 -0.23111218 0.19970281 0.02939568 -0.067013994 -0.15161027
-0.05802358 0.1043235 -0.09965062 -0.117519096 0.08364727 -0.0059494227 0.27737007 0.0668897
-0.07823466 -0.0748597 0.37024072 0.035301123 0.045923565 0.12121471 0.21811001 0.13977815
0.06896811 0.12436548 -0.11850308 -0.30711928 0.13877305 -0.111407205 -0.02788935 -0.017225275
-0.15772444 0.15533009 -0.22747448 -0.29082778 -0.27286214 0.22286548 0.014241954 0.0018396598
-0.19138773 0.146918 -0.021283304 -0.047600742 0.062328227 -0.047239687 -0.16497856 -0.030854324
-0.10411112 0.19449864 0.1527433 0.011891673 0.110819556 -0.018417012 0.013529731 -0.023412948
0.12790376 0.11257659 0.16091432 -0.1688043 0.1717659 0.16532579 -0.30293012 0.010458
-0.016623002 -0.26884452 -0.012358336 0.2129722 -0.18964864 -0.149773 0.008491175 -0.04468279
-0.082709186 -0.14977585 -0.06705032 -0.13354348 0.017328294 -0.16246143 0.10869509 0.015541578
-0.104656875 0.077374004 -0.03944492 -0.31477082 0.15646192 -0.24365845 0.10420333 0.08353352
0.12543674 -0.16820776 -0.01670104 0.13440466 -0.035361055 -0.146082 0.004266086 -0.06158141
-0.040910862 -0.27830142 0.09440258 0.0060011065 0.007160261 0.47266683 -0.011802468 -0.124405645
0.092267044 0.08020395 0.017957715 -0.06821393 -0.11369803 -0.02639038 -0.23424593 -0.118070364
0.07477175 0.23372018 -0.31476825 0.1350461 -0.02224603 0.07095288 -0.073390804 0.19950703
-0.24532425 0.14657344 -0.04159237 -0.06748051 -0.13377483 -0.2718792 0.06710811 0.051068626
0.114737794 0.30523774 0.1907503 -0.23085688 -0.054253537 0.24965008 0.13999873 0.016774016
0.066116266 0.02200814 -0.06709894 -0.17998788 -0.07487237 0.023958847 0.14848316 0.04283156
-0.15901661 -0.21540065 0.15543988 0.21575822 -0.011539672 0.009238187 -0.2693271 -0.061149612
-0.08710388 0.16750056 -0.023721239 0.12784924 0.02712033 0.27530634 0.060518052 0.09966603
0.07593363 -0.028424473 -0.015014938 -0.2418833 0.023588158 0.052380614 0.12718326 0.09874656
-0.035789542 -0.11542411 0.058405764 -0.2957583 0.16293226 -0.001340336 -0.06964161 -0.1626122
0.069429874 0.089173086 0.121028125 0.22314876 0.030985123 0.17928441 -0.060934246 -0.13134582
-0.014967531 0.32609466 -0.026723055 0.16308124 0.28431606 0.13837889 -0.26226026 0.17767936
-0.016016308 0.055798117 0.08998719 0.2505042 -0.25404546 -0.024964983 0.011951018 0.021206588
-0.0008544259 -0.078584544 0.12132455 0.047608368 -0.03475903 -0.4099998 -0.28308004 -0.04875719
-0.13091367 0.076550096 -0.35564688 0.24070576 0.06268488 0.087672755 -0.03613294 0.11415171
-0.041787762 0.11586693 0.015056256 -0.08020971 0.22531761 -0.24209611 -0.08902516 0.093676426
-0.043267 0.16083312 0.021407895 -0.05398424 0.22735842 0.13896751 0.048372675 0.017430102
0.06904615 -0.07731015 0.09934103 0.012316837 0.04432869 0.01859648 -0.19514816 -0.06942091
-0.14721115 0.0068881414 0.040925786 0.061481405 -0.15766428 0.026167477 -0.035936847 0.27303264
0.26028997 -0.06241798 0.09046908 0.02744373 -0.04234767 -0.24288274 0.28368202 0.122464426
00000000: 7116 64be f312 b13e 42c0 2dbe aca8 6cbe
00000010: e57e 4c3e 36cf f03c a23e 89bd b93f 1bbe
00000020: 22aa 6dbd 8fa7 d53d a015 ccbd daad f0bd
00000030: 434f ab3d 60f3 c2bb 7303 8e3e 78fd 883d
00000040: 7e39 a0bd 0b50 99bd 3190 bd3e e997 103d
00000050: 591a 3c3d 6b3f f83d 3b58 5f3e 0122 0f3e
00000060: 273f 8d3d 54b3 fe3d beb1 f2bd bd3e 9dbe
00000070: 861a 0e3e 7629 e4bd 3578 e4bc 051c 8dbc
00000080: 8482 21be da0e 1f3e 12ef 68be 61e7 94be
00000090: 96b4 8bbe d936 643e 1657 693c bd20 f13a
000000a0: 25fb 43be ac71 163e 535a aebc fff8 42bd
000000b0: e24b 7f3d 677e 41bd 24f0 28be 35c2 fcbc
000000c0: 3638 d5bd a72a 473e bd68 1c3e 4bd5 423c
000000d0: 5df5 e23d 46df 96bc ceab 5d3c 83cc bfbc
000000e0: 34f9 023e 8e8e e63d b9c6 243e 09db 2cbe
000000f0: 66e3 2f3e 2a4b 293e a819 9bbe 0858 2b3c
00000100: f62c 88bc fda5 89be 9e7a 4abc 6215 5a3e
00000110: 4133 42be 185e 19be 921e 0b3c 4d05 37bd
00000120: 6f63 a9bd d75e 19be ae51 89bd 9fbf 08be
00000130: 11f4 8d3c 4a5c 26be 889b de3d 1aa2 7e3c
00000140: 5856 d6bd 4376 9e3d ff90 21bd a429 a1be
00000150: 8e37 203e 9a81 79be 8e68 d53d 9f13 ab3d
00000160: 7d72 003e a83e 2cbe 9fd0 88bc 60a1 093e
00000170: c1d6 10bd 8596 15be 86ca 8b3b ca3c 7cbd
00000180: 2692 27bd 867d 8ebe 2456 c13d eea4 c43b
00000190: 9fa0 ea3b 6301 f23e 245f 41bc 63c8 febd
000001a0: 81f6 bc3d f841 a43d 0f1c 933c bfb3 8bbd
000001b0: 83da e8bd a330 d8bc 2ade 6fbe e0ce f1bd
000001c0: ee21 993d 5854 6f3e 4e29 a1be 8649 0a3e
000001d0: 4e3d b6bc be4f 913d eb4d 96bd 924b 4c3e
000001e0: 4836 7bbe 5917 163e c35c 2abd 3933 8abd
000001f0: 45fc 08be c033 8bbe fa6f 893d 562d 513d
00000200: a6fb ea3d 1f48 9c3e 0c54 433e bf65 6cbe
00000210: f538 5ebd 45a4 7f3e d45b 0f3e a969 893c
00000220: f767 873d 6a4a b43c 2b6b 89bd be4e 38be
00000230: af56 99bd 5845 c43c f80b 183e 2570 2f3d
00000240: 40d5 22be fd91 5cbe a22b 1f3e b9ef 5c3e
00000250: e410 3dbc c45b 173c 3ee5 89be 0478 7abd
00000260: 8563 b2bd 4485 2b3e 0b53 c2bc e9ea 023e
00000270: 742b de3c f4f4 8c3e c7e1 773d b41d cc3d
00000280: 1783 9b3d 71da e8bc 3701 76bc 41b0 77be
00000290: f43b c13c 0e8d 563d 543c 023e a33b ca3d
000002a0: 0e98 12bd 7a63 ecbd e23a 6f3d a26d 97be
000002b0: b7d7 263e 37ae afba 43a0 8ebd d083 26be
000002c0: 4031 8e3d 61a0 b63d 98dd f73d 1c81 643e
000002d0: 83d4 fd3c 5596 373e 3096 79bd 857f 06be
000002e0: 603a 75bc e1f5 a63e 4fea dabc c5fe 263e
000002f0: e091 913e 32b3 0d3e fa46 86be 94f1 353e
00000300: a234 83bc 918c 643d 344b b83d 1642 803e
00000310: 3f12 82be 5d83 ccbc 34ce 433c 70b9 ad3c
00000320: 8dfb 5fba eff0 a0bd 0179 f83d fe00 433d
00000330: 7c5f 0ebd 7eeb d1be deef 90be 9fb5 47bd
00000340: 3c0e 06be 4cc6 9c3d 5917 b6be 927b 763e
00000350: ee60 803d c68d b33d 2200 14bd 5fc8 e93d
00000360: a529 2bbd a44b ed3d 84ae 763c fd44 a4bd
00000370: a9b9 663e 0be8 77be d352 b6bd 6dd9 bf3d
00000380: bd38 31bd 70b1 243e 9c5f af3c 941e 5dbd
00000390: a5d0 683e 804d 0e3e 6d22 463d 93c9 8e3c
000003a0: 1168 8d3d c954 9ebd 4f73 cb3d 8fcc 493c
000003b0: 0092 353d a557 983c ebd4 47be 8d2c 8ebd
000003c0: 85be 16be ebb5 e13b cca1 273d edd3 7b3d
000003d0: bf72 21be 2d5d d63c 8432 13bd efca 8b3e
000003e0: ba44 853e ffa9 7fbd da47 b93d acd1 e03c
000003f0: c074 2dbd 41b6 78be c53e 913e a1ce fa3d

classifier.bias f4 [20]
0.04922247 0.02663806 -0.03134417 -0.057435557 0.0017240427 -0.044302218 -0.0019334815 -0.052498106
0.034880187 0.06458649 -0.055340763 0.025532417 0.03502256 0.05003616 -0.007688175 -0.039095607
-0.026421167 -0.06891604 0.022766402 -0.045685
00000000: 809d 493d 1038 da3c bf62 00bd 8c41 6bbd
00000010: 46f9 e13a 3e76 35bd e06c fdba 4108 57bd
00000020: 87de 0e3d ec45 843d ffac 62bd 5c29 d13c
00000030: d173 0f3d b7f2 4c3d 16ed fbbb b722 20bd
00000040: 3471 d8bc da23 8dbd 9b80 ba3c 3220 3bbd
