Final Project/LEM-main/example/FitzHughNagumo/result/FitzHughNagumo_model2.pt (torch, 7375 bytes, 7 tensors)

cell.inp2hid.weight f4 [64, 1]
000000 60 c1 a0 3f 86 68 c6 bf 05 cd 3b 3d 87 93 9b bd
       1.2559013 -1.5500648 0.04584982 -0.07596498
000010 c4 ed e0 3d ca 4c b7 bf 88 83 a5 3e 6b b9 4e 3f
       0.1098285 -1.4320309 0.32326913 0.80751675
000020 45 55 bd 3f 22 c4 29 3f a9 94 a3 be b9 b0 8c 3e
       1.4791647 0.663149 -0.31949356 0.2747858
000030 62 5f 66 3e 8f 1b f7 bc 59 1c fd 3f 62 c4 60 bd
       0.22497323 -0.030164508 1.9774276 -0.054874785
000040 fe 66 6c be 84 eb 7e bf 79 b3 a9 3e ee bf 21 3f
       -0.23086163 -0.9957812 0.3314474 0.63183486
000050 bd 46 dc 3e 3a 21 94 bf f0 6d 6d bd d8 52 40 3f
       0.4302272 -1.157264 -0.057966173 0.7512641
000060 7c c3 4f 3e 21 76 69 3f cf 35 15 bf 63 02 2c bf
       0.20289415 0.91195875 -0.5828523 -0.6719114
000070 93 0b 1f 40 c5 bd 0b 3e a7 47 a1 3f 32 86 55 bf
       2.4850814 0.1364661 1.2599992 -0.8340789
000080 21 42 2a 3e 36 3c 65 3e 32 99 4f be ec fc 8a 3e
       0.16626789 0.2238625 -0.20273283 0.2714609
000090 60 e4 6c be 53 69 82 be 85 00 11 be 30 50 a9 bc
       -0.23133993 -0.2547098 -0.14160354 -0.02066812
0000a0 0c 18 a9 3e d0 fd 8a be 03 b0 93 3e 40 1d 6c 3e
       0.3302616 -0.2714677 0.28845224 0.23058033
0000b0 8c 19 46 be ba 78 90 be 59 f1 4b 3c 38 68 b9 bd
       -0.19345683 -0.28217107 0.0124476785 -0.09053081
0000c0 53 43 8f 3e 1b 26 8f bd 6d fb 59 be 8d 1c 20 bd
       0.27981052 -0.0698969 -0.21287318 -0.03908973
0000d0 64 7d cf bc f9 d5 81 be fb f8 42 3d 33 ce 70 3d
       -0.025328346 -0.2535856 0.047600728 0.058790397
0000e0 ef 7e a4 be fe f3 79 3d 89 ea bf bc 13 b2 8c 3d
       -0.32128093 0.061023705 -0.023427265 0.068699025
0000f0 a1 e2 7b 3e 67 47 be 3e 05 65 cb 3e 29 29 04 bd
       0.24598171 0.3716385 0.3972551 -0.032265816

cell.inp2hid.bias f4 [64]
000000 39 02 73 3d 97 1c ff 3e 28 b0 35 3f d1 06 db 3e
       0.05932829 0.498265 0.7097192 0.42778638
000010 97 b9 ba 3e f4 f8 29 3e 76 59 d9 3e a4 41 2f 3e
       0.3646972 0.16598874 0.42451066 0.17114884
000020 e1 68 06 3f 41 1d b0 3d 5b b1 37 3f eb 05 54 3f
       0.5250378 0.0859933 0.71755 0.8282153
000030 80 8d 18 3f ff 4f 28 3f 29 80 75 3e 30 70 33 3e
       0.5959091 0.65747064 0.2397467 0.17523265
000040 60 73 b6 3e 38 70 b3 3e d7 0e 3f 3f 03 fd 00 3f
       0.356349 0.35046554 0.7463202 0.50386065
000050 02 3f 13 be 7d 87 1f 3f 00 2d 64 3e f3 a4 44 3f
       -0.14379504 0.62316114 0.22282791 0.7681419
000060 89 b3 b9 3e 3b d1 03 bf 4d be 7e be 47 81 c7 be
       0.36269787 -0.51491135 -0.24877281 -0.38965818
000070 ab 72 44 3f 6a 74 ad 3e 3d 04 07 3f d5 84 58 be
       0.7673747 0.3387788 0.5274084 -0.21144421
000080 d0 56 17 3c c7 60 59 be f8 16 f5 3d f3 16 06 be
       0.009237006 -0.21228324 0.119672716 -0.13094692
000090 8e 15 fd 3d 0e fd 0a 3e 99 c6 1b be 73 cc 30 3e
       0.12357627 0.13573095 -0.15212478 0.17265491
0000a0 71 b6 65 3e d3 e9 e9 bd f3 7e d3 bc 59 bf fc 3d
       0.22432877 -0.114215516 -0.02581737 0.12341184
0000b0 3c 52 a5 bd 44 33 e8 bd 75 45 dc bd 20 71 b4 3c
       -0.080723256 -0.11337903 -0.107554354 0.022026598
0000c0 39 ec 46 bc 22 94 1c 3d 99 eb 4b be 87 53 a2 be
       -0.012141281 0.038227208 -0.19914092 -0.3170435
0000d0 65 30 b3 bb a2 7b 22 3e 21 08 08 be 31 ef 0a 3d
       -0.0054684156 0.15867475 -0.13284351 0.033919517
0000e0 44 43 15 be 28 7f aa bd 49 27 58 be 5d 80 23 3d
       -0.14576441 -0.083250344 -0.21108736 0.03991734
0000f0 48 31 21 3d 28 51 bf bd 71 bf a9 3e c7 4b 04 bc
       0.03935364 -0.09341651 0.3315387 -0.008074707

cell.hid2hid.weight f4 [48, 16]
000000 7a 32 51 3f 58 6f 43 be ba 2e ae be ad ed 0c 3f
       0.81717646 -0.19085443 -0.34020025 0.55050164
000010 24 d2 ee be 20 dd 14 3f 81 0b 8c bd 38 38 49 3e
       -0.466447 0.5814991 -0.06838132 0.19650352
000020 c2 d9 12 3f 68 b1 61 bf 85 ab c5 3d 84 af 23 3f
       0.5736352 -0.88161325 0.096518554 0.6393969
000030 b2 46 d6 be c5 6c 6d bd fc fb 39 be 10 38 b2 3e
       -0.4185081 -0.05796506 -0.1816253 0.34808397
000040 d6 1d fc 3e ec e0 2c bf 4c e4 02 bf aa 06 57 3f
       0.49241513 -0.67530704 -0.51129603 0.83994544
000050 cd 28 4e be 3e 5f 16 3f aa 64 3b 3e 09 80 4a 3f
       -0.20132752 0.5873908 0.18300119 0.79101616
000060 be d9 65 3f d8 c3 53 bf 78 1c 66 be 8a 58 35 3f
       0.89785373 -0.8272071 -0.22471797 0.70838225
000070 c8 ab dc be aa 92 93 be 19 92 00 bf bf d8 11 3f
       -0.4309981 -0.28822833 -0.5022293 0.56971353
000080 dd 92 19 3f 37 91 e6 be b4 85 96 bd f4 75 21 3f
       0.5998972 -0.45032665 -0.073497206 0.6307061
000090 fe c5 c4 be e9 f4 48 3f b0 ea 8e 3d 31 97 b1 3e
       -0.38432306 0.78498703 0.06978357 0.34685662
0000a0 22 a9 f6 3e 15 ec 6b bf 05 7b 69 ba c2 37 e6 3e
       0.48175913 -0.9215711 -0.0008906576 0.44964415
0000b0 f8 2f 9b be 05 a9 50 bd 06 b3 cd be 7f cb f9 3e
       -0.30310035 -0.05094244 -0.40175647 0.48788068
0000c0 9b 6b f7 3d 48 ce cd be 91 76 d6 3c 5a a3 fc 3e
       0.12081071 -0.40196443 0.026179584 0.49343377
0000d0 a9 15 f1 bd b5 21 19 3f 20 93 46 3e 94 d1 04 3f
       -0.117717095 0.5981706 0.19392061 0.5188229
0000e0 ec 66 88 3e d9 9a 24 bf be 9f 8e bd b2 f9 fe 3d
       0.26641023 -0.6429878 -0.06964062 0.12449969
0000f0 4e e9 bb bc c5 d8 1b be 65 94 ca be fa 41 d9 3e
       -0.022938397 -0.1521941 -0.3956634 0.4243315
000100 cc 8a ca 3e 08 a6 85 bf 0b 7e 25 3d d4 e4 4c 3f
       0.3955902 -1.0441294 0.040403407 0.80036664
000110 5d de 74 be da c6 4c 3f 29 8c 9c 3e bd 65 50 3f
       -0.2391295 0.79990923 0.30575684 0.8140524
000120 71 e8 f3 3e a2 44 9d be 55 d9 12 be d0 95 c8 3e
       0.47638276 -0.30716425 -0.14340718 0.39176798
000130 0d 7e 87 bd e9 f7 de 3d 8f d5 46 bf 99 86 ea 3e
       -0.06615839 0.10887129 -0.77669615 0.45805815
000140 e8 46 bf 3e 5f 7a ca be 20 69 1c bf 9e 35 22 3f
       0.37358785 -0.39546487 -0.6109791 0.63363063
000150 ef 08 a1 be 1f ef 1d 3f 8e 70 14 be 08 dc 43 3f
       -0.31452128 0.61692995 -0.14496061 0.76507616
000160 a4 3f 2c 3f 60 55 ef be 7e 85 c6 3e cf 61 25 3f
       0.6728461 -0.46744823 0.3877372 0.6460237
000170 31 19 dc be 60 18 dc be d9 f4 10 bf 48 0d 0a 3e
       -0.4298797 -0.42987347 -0.5662361 0.13481629
000180 52 4d 9e 3e 86 73 bb bd 8f 58 81 bf 12 98 4a 3f
       0.30918366 -0.09152894 -1.0105151 0.7913829
000190 0d 6a 21 bf 34 7e 94 3e 56 91 71 be 26 e8 1a 3f
       -0.63052446 0.29002535 -0.23590598 0.6051048
0001a0 5a 70 d0 3e 03 68 08 bf 54 66 17 bc 45 aa 01 3f
       0.40710717 -0.5328371 -0.0092407055 0.50650436
0001b0 ac 02 88 be 5c f3 a8 bf e3 da f2 be 1b e2 8a 3e
       -0.26564538 -1.3199267 -0.47432622 0.2712563
0001c0 8a a7 61 3e af c9 1c 3f f1 25 4c bd 14 ad 97 3e
       0.22036567 0.61245245 -0.04984087 0.29624236
0001d0 86 a0 11 bf 49 49 81 be 05 54 3f be 93 79 fd be
       -0.56885564 -0.25251225 -0.18684395 -0.49506816
0001e0 1f 61 61 3e 07 84 d8 3e 87 c6 b9 3e 46 b5 9f 3e
       0.22009705 0.4228823 0.36284277 0.31192988
0001f0 e8 9d ed bc 1e 81 c1 be 18 c0 a6 bc f1 92 3b be
       -0.02900596 -0.3779382 -0.02035527 -0.18317772
000200 29 88 1c 3f 6f 68 1d bf 3e c3 de 3e c0 26 1e 3f
       0.61145264 -0.6148748 0.43508333 0.6177788
000210 9a f4 e3 3d a7 f3 5d 3f 67 85 99 3e a0 0f e8 3e
       0.111306384 0.8669991 0.2998459 0.4532442
000220 84 45 0e 3f ad 2f 75 bf 37 ee 95 be 93 f6 2e 3e
       0.5557482 -0.9577587 -0.29283306 0.17086248
000230 71 ff 78 be d5 35 20 3a 2e bd 66 be b9 7f 43 3e
       -0.24316193 0.0006111537 -0.22533104 0.19091691
000240 d8 f6 41 bc bf 7b 19 3e b6 0b 1d 3f f9 e8 84 3e
       -0.011838637 0.14988612 0.61345994 0.25958994
000250 dc 30 a2 3d 7e db a3 be f0 38 88 bd 7f 84 86 bd
       0.079194754 -0.32003397 -0.06651485 -0.065682404
000260 64 fc 63 be 73 ec 03 3e 5f dd 61 be 99 5f b8 bd
       -0.22264248 0.12883167 -0.22057103 -0.09002609
000270 f5 64 0c bd 6c 02 d6 3e 8f f9 a5 be 42 c8 08 3e
       -0.034275968 0.41798723 -0.3241696 0.13357642
000280 4d aa f4 3e f4 ea 28 bf 94 b5 90 3e 79 c0 01 3f
       0.4778618 -0.6598351 0.28263533 0.50684315
000290 9b 27 50 be f8 8c 34 3f a4 91 c9 3e 82 01 2e 3f
       -0.20327608 0.705276 0.39368927 0.6797105
0002a0 14 ca 01 3f c4 4b 41 bf a0 3b 19 be 1d 81 4a 3e
       0.5069897 -0.75506234 -0.14964151 0.19775815
0002b0 a2 9d 9c bc 51 11 7c 3e f1 ff 68 be 9b 29 41 3e
       -0.019118134 0.2461598 -0.22753884 0.18863527
0002c0 45 a5 9b 3e 6b ad 40 bf 21 b1 68 3e ea c8 34 3f
       0.30399528 -0.75264615 0.2272382 0.7061907
0002d0 71 87 f0 3d 30 75 12 3f a6 a0 e9 3d 84 ad 33 3f
       0.117445834 0.57210064 0.114075944 0.7018664
0002e0 b1 81 34 3f 16 25 18 bf 13 75 05 be 37 c7 9f 3e
       0.70510393 -0.5943159 -0.13032942 0.31206676
0002f0 c0 0e bb bd bf 7d f3 3d 67 92 78 be 82 da 57 3e
       -0.09133673 0.118892185 -0.24274598 0.21079448
000300 ec 49 ad 3e da d6 8d bf 8d 67 d9 3e b0 9a e2 3e
       0.3384546 -1.1081192 0.42461815 0.44258642
000310 85 84 ec bd 16 6f 0a 3f 10 d3 e7 3e 30 a2 95 3e
       -0.115487136 0.54075754 0.45278215 0.29225302
000320 2f f8 e5 3e e2 be 13 bf 25 5c f2 be 18 26 87 3e
       0.44915912 -0.5771314 -0.47335926 0.2639625
000330 cb 51 9e be 21 cf 3b be 27 50 21 bf 3d 2e 2e 3f
       -0.30921778 -0.18340732 -0.6301293 0.68039304
000340 c2 08 9b 3e bb 64 0e bf 58 01 15 3d ba d6 95 3e
       0.3028012 -0.5562245 0.036378235 0.29265386
000350 4b 12 98 3d 88 99 03 3f a7 80 ae 3d b8 0c 1d 3f
       0.07425364 0.51406145 0.08520632 0.6134753
000360 ac 93 4a 3f 89 cd b2 be 3b 19 39 be 2f 8f a1 3e
       0.7913158 -0.34922436 -0.18076031 0.31554553
000370 9d 95 10 be 06 05 4b bd fe 68 59 be 18 74 c4 3e
       -0.14119573 -0.049565338 -0.21231458 0.38369823
000380 2f 9b 06 3d 52 dc 94 bf fa 78 e1 3e a3 a6 83 3f
       0.03286284 -1.1629736 0.4403761 1.0285228
000390 03 b8 f6 3e 21 c1 97 3f d4 14 8b bd f0 de 0e 3f
       0.48187265 1.1855813 -0.06791082 0.55808926
0003a0 5f a7 4e 3f c1 2b 82 bf 45 04 e7 be fd 3f 04 bd
       0.8072414 -1.0169603 -0.45120445 -0.032287586
0003b0 fd 40 8e 3e cb 7b 8c 3e 67 cf 0a bf 40 87 a5 3e
       0.27783957 0.27438197 -0.5422272 0.3232975
0003c0 c7 a9 f5 3c 07 57 15 bf ba a6 e4 3d 97 a6 27 3f
       0.029988183 -0.5833592 0.11164613 0.6548857
0003d0 be b2 52 3e 97 bd f1 3e a8 a2 51 bd b2 17 8d 3e
       0.20575997 0.47214958 -0.05118051 0.2755714
0003e0 00 73 02 3f be ad b9 be 4c 0c ac 3c 02 2f 67 3e
       0.50956726 -0.36265367 0.021001957 0.22576526
0003f0 66 64 48 be e9 09 e3 bd 15 62 c7 be 85 63 f0 3c
       -0.19569549 -0.110858746 -0.38942018 0.02934433

cell.hid2hid.bias f4 [48]
000000 cb 8b a5 bb ec f7 c3 3e 69 a2 ba 3e 66 db 13 3f
       -0.005052065 0.38275087 0.36452034 0.5775665
000010 c3 02 c3 3e 40 2f d9 3e bd dc 03 3f cc 82 79 be
       0.38088045 0.4241886 0.51508695 -0.24366301
000020 df c8 ff 3e 8c 46 99 3e 71 e5 2a 3f b2 de fc 3e
       0.4995794 0.29936635 0.6675635 0.49388653
000030 32 0f 18 3f dd 8b cb 3e 05 a4 56 3e 4d 09 f1 3d
       0.59398186 0.39755145 0.20961006 0.11769352
000040 03 a2 34 3f ee 28 10 3e bc 13 82 3f 00 c6 16 3f
       0.7055971 0.14078113 1.0162272 0.58895874
000050 15 1c eb 3d 99 f1 14 3f 2d 80 f0 3e 22 ae 3e 3f
       0.114799656 0.5818115 0.4697279 0.74484456
000060 ee 3f 0e 3f 93 2f e3 bd 58 c8 37 be b9 64 8b be
       0.555663 -0.110930584 -0.17947519 -0.27225283
000070 e9 f4 28 3f 53 29 22 3f 46 bf ed 3e 9a b6 73 be
       0.65998703 0.63344306 0.46434993 -0.23800126
000080 bc 1c 0f be 62 b5 ef 3d 75 d2 48 bc ce f0 35 be
       -0.13975805 0.11704518 -0.012257208 -0.17767641
000090 4e db 93 3d 7e 46 dd 3d 1e b1 83 bd b4 24 81 3e
       0.072195634 0.10804461 -0.06430267 0.25223315
0000a0 dc ca 9e 3c 07 12 4e bd ef cd bd 3b b9 fd 3f 3e
       0.01938384 -0.05031016 0.0057923715 0.18749131
0000b0 ea 17 64 3e 65 03 75 3e 75 61 4c 3d cc 36 5d 3e
       0.22274747 0.23927076 0.04989763 0.21602935

cell.transform_z.weight f4 [16, 16]
000000 a0 5e 4d 3e 95 0f 3e 3e 08 b0 99 bd a8 5e 5c be
       0.20055628 0.18560632 -0.075042784 -0.21520483
000010 45 9f 19 be 87 a2 2b 3d 95 31 4a be 3b c9 44 3e
       -0.15002163 0.041903045 -0.19745477 0.19217388
000020 89 17 6f be ca cd 67 be 56 1d 72 be df 36 8d 3d
       -0.23348822 -0.22637096 -0.23644003 0.068952315
000030 d9 58 22 3c 21 f0 47 bd 69 11 cb 3d 23 be 0b 3d
       0.009908878 -0.04881299 0.0991543 0.034116875
000040 0a c9 a0 3e bc 18 39 be 42 55 5f be d0 ec 52 3e
       0.3140338 -0.18075842 -0.21809867 0.2059815
000050 e2 35 d9 3d 6d 05 e7 3d ae 1d 9e be 4e d0 00 3c
       0.106059805 0.11280332 -0.3088202 0.007862164
000060 14 9c 00 3e 3a 7c 07 be ec da 0d 3e 63 fb af 3e
       0.12559539 -0.13230982 0.13853043 0.3437148
000070 f4 a7 e1 3c 82 7b df 3d 13 28 0e 3d 79 75 b2 bd
       0.027545907 0.10912229 0.034706187 -0.087138124
000080 f6 e7 dd 3d 4f 9c e0 3c 04 74 9b 3e 43 31 e8 3d
       0.10835259 0.027418284 0.3036195 0.11337521
000090 f5 77 30 3d 3a 9a 91 3e 96 c0 ef bd ca 7f 80 be
       0.04308315 0.28437978 -0.11706655 -0.25097495
0000a0 cc 44 2d 3e 86 8e 90 3e 23 4b b4 bd fe d2 96 bd
       0.16920775 0.28233737 -0.08803394 -0.07364462
0000b0 f6 50 6b be d4 ca 3e 3d af 79 7f be a9 1e 02 be
       -0.22980103 0.04658015 -0.24948762 -0.12707008
0000c0 f8 c2 59 bc 62 48 90 3e 1d 93 42 be b5 65 8c be
       -0.013291113 0.28180224 -0.19001432 -0.27421346
0000d0 63 67 35 be 2f c6 c2 3d 25 8d 3b 3d 12 e6 97 3e
       -0.1771522 0.09510457 0.045788903 0.29667717
0000e0 92 c5 76 3d ad 76 98 3d b0 7c c1 bd c4 6b b2 3d
       0.06024701 0.074445106 -0.094476104 0.08711961
0000f0 ef 6a 4e 3a 81 58 6a 3e 56 71 ac 3d 60 1e 93 3c
       0.0007874211 0.22885324 0.084200546 0.01795882
000100 85 8d 18 bd b9 04 3c be 33 30 66 3d 2f 10 57 bd
       -0.03724434 -0.18361177 0.05619831 -0.05250567
000110 a2 00 b0 3e 5c 76 0f bc 3d 85 f9 3d 83 e2 38 3e
       0.34375483 -0.008756246 0.12183616 0.18055157
000120 cf e8 7f bd 76 5b 72 3e 67 83 e9 bc 66 52 88 be
       -0.062477883 0.23667702 -0.02850504 -0.26625365
000130 24 7f bd 3d 3b 2d 50 ba 95 31 09 3e 2c 2a e4 3d
       0.09252766 -0.000794131 0.1339782 0.11140856
000140 f0 e3 30 be c2 09 41 3e 51 17 21 3d f8 3a 01 be
       -0.17274451 0.18851379 0.039328877 -0.12620151
000150 fd 4e 67 3e 60 ce 3e bd 18 60 65 be e7 d5 9d 3e
       0.22588725 -0.046583533 -0.22399938 0.30827257
000160 82 8a 51 be c9 40 e1 bd ab 72 20 3e 56 43 48 be
       -0.20462993 -0.10998685 0.15668742 -0.19556937
000170 37 04 00 3e 45 06 68 3e 44 61 e7 3d 5c 82 34 3d
       0.12501608 0.22658642 0.11297849 0.044069633
000180 46 c4 2f be de 55 22 3e 95 01 a9 bd 71 58 11 39
       -0.17164716 0.15853068 -0.08252255 0.00013861225
000190 10 75 f6 bd 4d aa ef bc 7a d0 81 3d 44 4f 17 be
       -0.12034047 -0.02925601 0.06338592 -0.14776331
0001a0 21 b2 20 3e ba 73 21 3c 94 21 d9 bd d1 c8 c7 3d
       0.15692951 0.0098542515 -0.10602108 0.097550996
0001b0 a1 c5 1b bc 2d c1 f1 bd 5f e9 8f bd 95 b5 bc bd
       -0.009507568 -0.118044235 -0.07026934 -0.092143215
0001c0 5c d4 cb bd a9 a1 6d 3e 35 13 b6 bd 9c fc 87 be
       -0.09952614 0.232062 -0.08890382 -0.26559913
0001d0 b1 6d 4b 3e 87 42 ce bd 66 36 fd bd c2 0f 58 3e
       0.19866063 -0.10071283 -0.12363891 0.21099761
0001e0 3e 6f 3f be 1e d3 82 be 57 d2 3a 3e 60 4f 15 bd
       -0.1869478 -0.25551695 0.18244301 -0.03645265
0001f0 22 39 25 3d c7 8a 2a 3e 4c aa 04 bd 9d 40 e1 bd
       0.04033769 0.16654502 -0.03238897 -0.10998652
000200 a6 bb b6 3d d3 af 07 be 09 ba ae bd d7 6a 10 be
       0.0892251 -0.13250665 -0.08531577 -0.14103256
000210 74 6b 53 be 40 37 1b 3e e7 fa d5 bc d2 6c 9f 3d
       -0.20646459 0.15157795 -0.026120616 0.07784428
000220 19 e3 8f 3d ac a3 23 bd 92 a4 24 bd 8c 6c 50 3e
       0.07025737 -0.03995101 -0.04019601 0.20353907
000230 df b7 01 3e ae 2e e7 3d 0b 31 63 3e c6 a3 2e be
       0.12667798 0.112882 0.22186677 -0.17054662
000240 a1 17 6a 3d c4 c1 77 3e 29 5d 3a 3e 43 d4 f0 bb
       0.05715144 0.2419501 0.181996 -0.0073495223
000250 32 01 1a 3e 87 61 94 3d ab c9 26 be 37 04 75 be
       0.15039518 0.07245164 -0.16287868 -0.23927389
000260 3e d3 66 3e 28 70 9c 3e 61 f7 44 3d b9 9b 18 3e
       0.2254152 0.30554318 0.04808748 0.14903153
000270 42 98 cb 3d 12 c1 78 be 01 e4 a0 be d6 71 15 bc
       0.0994115 -0.242924 -0.31423953 -0.009121379
000280 9e 9c 32 3d 61 8f f3 3d bd f1 9e be 7f 37 89 be
       0.043606393 0.11892582 -0.31043807 -0.26800153
000290 d9 84 4a be 35 ca 69 be dd 6d ea bb 45 26 8e 3e
       -0.1977724 -0.22831042 -0.00715421 0.27763572
0002a0 d7 4f e5 bc 40 53 3a 3c 4d 71 d8 bc 76 cc 18 3d
       -0.027992172 0.011372387 -0.026421214 0.037304364
0002b0 f5 1a a0 bd 4c 14 01 3e 5c 08 19 3d 5a dd a0 be
       -0.07817642 0.12605399 0.037361488 -0.31418878
0002c0 8b 9d bd 3e cc 94 72 be d2 17 ca 3b 4c 5a 0b 3d
       0.37034258 -0.23689574 0.0061673904 0.03402166
0002d0 04 df 0a 3e 71 cf 53 be d2 08 89 3d 33 02 00 be
       0.13561636 -0.20684601 0.066911355 -0.12500839
0002e0 d3 c4 94 be 2e c5 61 bd ae 17 3e 3e fb 10 e2 3d
       -0.29056415 -0.055119686 0.1856372 0.11038395
0002f0 ee 37 b8 3d 14 76 75 3e 86 ed af 3d b3 13 aa bd
       0.08995043 0.23970824 0.08590226 -0.083045386
000300 17 06 50 be 12 5c 28 be 14 5e b7 3e b9 ae f7 bd
       -0.20314823 -0.16441372 0.35813963 -0.120938726
000310 a3 a0 d8 bd ee 48 dc 3d 1a 15 65 3d 32 5e 37 3a
       -0.10577514 0.10756098 0.055928327 0.0006994932
000320 ca fb 1e be 84 5f 53 3e b8 68 70 3e 85 aa 4c be
       -0.15525737 0.20641905 0.23477447 -0.19986923
000330 6a ac 34 be 66 2a 78 3d a4 17 be 3c 8a 1d 63 bd
       -0.17643896 0.06058731 0.023204632 -0.055448093
000340 ff 9a 14 be 4d 93 1c 3d ac d9 8c bc 0c cd 81 3d
       -0.14512251 0.038226414 -0.017193638 0.06337938
000350 d3 87 09 3e e8 57 6d 3e ca 21 18 be d2 7f e3 3d
       0.13430719 0.23178065 -0.1485664 0.11108364
000360 30 37 a1 3d bf 1b 98 3d 51 36 2d 3e 2a 34 b2 bd
       0.07871854 0.07427167 0.16915251 -0.08701356
000370 75 ed a3 be dc 33 9b be 03 fe 12 be 79 ed a8 3e
       -0.32017103 -0.30313003 -0.1435471 0.32993677
000380 12 7b 7d be 6b 10 30 3e c5 75 bd bc 67 4e 26 3e
       -0.24753979 0.17193763 -0.023127446 0.16240846
000390 21 69 ea 3d dc 50 3f be 09 d4 7a 3e f5 a9 72 be
       0.11445833 -0.18683189 0.24494947 -0.23697646
0003a0 3a 79 7e bb bd 58 9d 3d b5 0b a9 3e ac 12 8c be
       -0.003882958 0.07682941 0.33016744 -0.27357996
0003b0 b3 14 90 be dd 00 fe bc f2 5c 0b be d4 b9 cb bd
       -0.28140792 -0.031006271 -0.13609675 -0.09947553
0003c0 97 71 83 be f6 63 8d be 68 87 89 3e 4c 55 4b be
       -0.256726 -0.27615327 0.2686112 -0.19856757
0003d0 33 a4 46 3e 04 0d 38 3e 98 30 b8 3d 44 27 9a 3d
       0.19398575 0.17973715 0.089936435 0.075270206
0003e0 24 16 12 3e 00 0b f5 bd c1 e8 7b 3e b6 f0 43 bd
       0.14266258 -0.11964989 0.24600507 -0.04783698
0003f0 21 eb 32 3e 54 a8 32 be 76 fe 32 be c1 d5 9f 3e
       0.17472507 -0.17447025 -0.17479882 0.3121777

cell.transform_z.bias f4 [16]
000000 c7 78 84 be da 70 81 be a1 2d 02 3e 15 6e e8 3d
       -0.25873396 -0.2528141 0.12712719 0.113491215
000010 c1 37 35 be 8d 47 92 bd 13 46 2f 3e fb 4b 6b 3e
       -0.1769705 -0.071425535 0.17116575 0.22978203
000020 81 92 b3 3d d6 bc 94 be fb 5f 31 be b7 83 44 3e
       0.08768178 -0.2905032 -0.1732177 0.1919087
000030 61 be 7a 3d 64 f7 97 3d fa ec 40 bd ea 8e 79 3e
       0.061216716 0.07420233 -0.047101 0.24370924

classifier.weight f4 [1, 16]
000000 15 37 a3 3c 59 f1 0d 3e 6a 22 0c bf 29 5c 3b 3d
       0.019923726 0.13861598 -0.5474001 0.045742188
000010 ff 59 91 be ba 1f 3e be 10 b0 67 bf 45 67 b1 bd
       -0.28388974 -0.1856679 -0.90503025 -0.08662275
000020 cb ca fc 3d 0d a3 42 3c d3 4c e2 3e 14 02 36 3f
       0.12343367 0.011879695 0.44199237 0.7109692
000030 64 ed e8 be 49 b2 00 bf cb 17 e7 bd a6 42 df bd
       -0.45493615 -0.5027204 -0.11283835 -0.10901384
