Final Project/LEM-main/models/lorenz96/5/model.pt (torch, 424535 bytes, 6 tensors)

rnn.weights f4 [450, 170]
00000000: 3bbf 9cbe 3216 dc3c 4e02 57bd cc89 81be
00000010: 194d 4ebd 423b 973d 4e53 cdbd 56f9 193c
00000020: 0996 30be 02bf 23bd 5bb6 183e 5976 a4bd
00000030: 38e3 7bbd e8e3 adbc 9af8 48be d002 ad3c
00000040: 1e59 13be 0b41 883e 28fe 41be 92c6 0d3c
00000050: f4eb 35bd fe20 cebd 5113 8f3d d9a9 9f3c
00000060: da68 1cbe 7ffa 743e edd8 3cbe 0ea6 023e
00000070: ff75 643d 6973 af3c f2a5 b2bc ae03 bc3b
00000080: 0651 3e3c 6b2d 183d 1bdf 8fbd 4252 a73d
00000090: 4e12 1ebe 98ee acbc ec71 393e 280e 1bbe
000000a0: d93a 043b fcc2 f8bc 1fcc d93d afed c4bd
000000b0: 30a8 0b3e 4089 723d 4034 7fbc 7cfb 02be
000000c0: e682 b73d 1dd1 153e 61db c6bd 1d75 a83d
000000d0: 696b 87bd 455d e73d 219a 033c 841e 05be
000000e0: 134b c3bd 4474 093c 6761 1c3e 5880 87bd
000000f0: f010 e43d 565a 9fbb 7998 dc3d db27 96be
00000100: 5662 c53d aa31 4dbd 168b c63d cc61 9abd
00000110: 0a61 cabd c4eb d83d d3ae 3ebe 642d aebd
00000120: b119 d53b 968e 97bd 75b6 f6bd 1907 9dbd
00000130: 8a7c e7bc c09d 0bbd e889 a13d bfaf 44bc
00000140: 04ca 86bd cc0b dd3d 6846 433b d561 efba
00000150: 2b7f 8cbc d977 643d 3b34 993d 4328 04be
00000160: b8b1 81bd fae2 093e 95ca d8bd f099 323e
00000170: 6b31 8abc 7ecc 673d 14ce c6bd 524f 433c
00000180: 104c a4bd 8466 5dbe 1bbf 80be 3613 cfbd
00000190: 8d77 0c3d 51e0 753d 9a0b 49bd 1d7e acbd
000001a0: 4fcc 2b3d 44a9 343e f9e1 b83d 0307 6dbd
000001b0: b918 053d 3e4f 15be 98a1 023d 0387 2f3e
000001c0: ee0e 523d c8d7 16bb 2111 563b 3698 3a3e
000001d0: c16a 2cbe 672a ba3d 9193 423d 9a71 0c3d
000001e0: 6bd4 d03b d8fe 34be e5a8 6b3e 238e 7ebd
000001f0: 0896 c6bd 4aea 143d 0a97 553d 8f94 723d
00000200: 0f91 743e 23ea 403d f633 8d3d 7cd7 153d
00000210: d627 d5bc 2b37 1cbe 4e7f 36bd 2b19 013d
00000220: 5738 0e3e d196 54bd d8e4 0c3e b9fa c63d
00000230: 6c67 8bbc fda4 653d cced cf3b a50a a23c
00000240: 1bee 463d a6f4 62be be9a 773c a8ce 1f3e
00000250: 65a0 9bbd 7054 3dbd 3df3 d63d 086d 2b3d
00000260: 6bf5 a63c 1b54 ba3d e5a1 d5bb 7295 d0bc
00000270: 11ab 173e c387 0f3d 7c84 adbc b16d 48bd
00000280: f0ba fcbd 9c58 ecbd 0158 debd a728 3abd
00000290: 479d ec3d d97e ccbc eaf9 bc3d fad9 52be
000002a0: ee51 14be 53b0 163e 3e2c 1cbe 9f00 a7bd
000002b0: 0811 b5bd 6179 babd ce5f a6bd 7df7 373e
000002c0: da38 bbbd 7aeb b0bd 63c5 03be 0143 ad3d
000002d0: ef76 98bb 9a6a 8e3d 1a14 b0bd dd5d b3bc
000002e0: 1897 60be ef3c 0b3d 4eb5 b73d ee98 053e
000002f0: 834f 04be e20f a9bd 2017 0a3e ddf5 24be
00000300: 4520 423d fabd 983d 9509 2dbc ac13 243e
00000310: aedf 85bd 9d00 f43d 10fd 16bd 8f40 3e3e
00000320: 3c2d 61bd f0c4 e13d b967 e8bc 5220 7f3d
00000330: e54d 2b3d 53e2 193e 4d66 4cbe 46e0 293e
00000340: 4ebd 3a3d 666d bdbd d1ce 143e 800d b7bc
00000350: 63d6 14be eaef d8bc 1a25 4bbd 8563 9bbd
00000360: 8e12 2cbe d8ab 923d 6d05 3bbd f38c dd3d
00000370: 5fe9 7dbe b3e5 febc 8dc4 d43c 98dd 593e
00000380: c250 6fbe 559f 563d 04bc 653d a76a b63c
00000390: e0a1 05bd 53e7 acbd b3af ae3d 0d11 0ebe
000003a0: 4829 48bc e4b1 28be 3fbf 9e3d 7bcc 38be
000003b0: ab77 dd3d a369 0d3d 9200 813c d7de e23c
000003c0: 8021 1abe 87df 01be 2d68 0a3d 7b71 94be
000003d0: b2d1 d8bc c2b8 c7bc 8ddb ea3b a712 b03d
000003e0: a604 85bd 73ba 55bd 2567 e13d ac1b 80bd
000003f0: 05cf 1f3e db37 47bd 90d7 6ebd 9413 debd
-0.30614647 0.026866052 -0.052492432 -0.25300443 -0.050366495 0.073843494 -0.10025655 0.009397825
-0.17244734 -0.03997708 0.14913313 -0.080303855 -0.06149599 -0.021226838 -0.19626084 0.021119505
-0.14389464 0.26612124 -0.18944609 0.0086533 -0.044414476 -0.100648865 0.06986106 0.01949017
-0.15274373 0.23923682 -0.18442126 0.12758657 0.055776592 0.021417337 -0.021807645 0.0057377433
0.011615997 0.03715269 -0.07024976 0.08169986 -0.1543667 -0.021109864 0.18109864 -0.15142119
0.0020176677 -0.030366413 0.10634636 -0.09615647 0.13638377 0.059212923 -0.015576422 -0.12791246
0.08960514 0.14630552 -0.09709812 0.082254626 -0.06612284 0.112970866 0.008032353 -0.12999922
-0.09535804 0.008389536 0.15271531 -0.066162765 0.11136043 -0.004863064 0.10771269 -0.29327282
0.09637897 -0.05009619 0.09694497 -0.075381845 -0.0988179 0.10591844 -0.18621378 -0.08504751
0.006503307 -0.07400243 -0.1204652 -0.076673694 -0.028257627 -0.03408599 0.07887632 -0.012004792
-0.065815 0.10793266 0.0029796604 -0.0018263409 -0.017150482 0.055778358 0.07480665 -0.12905984
-0.06332725 0.13465491 -0.105855145 0.17441535 -0.016869267 0.056591503 -0.09707275 0.011920767
-0.0802232 -0.21621138 -0.25145802 -0.10111086 0.0342937 0.060028378 -0.04908333 -0.08422492
0.04194289 0.17642695 0.09027476 -0.057868015 0.03249428 -0.1458101 0.03189239 0.17141347
0.05128377 -0.00230168 0.0032664018 0.18222126 -0.16837598 0.09090119 0.04750401 0.034288026
0.0063729784 -0.1767534 0.23013647 -0.06214727 -0.09696585 0.036356248 0.052145995 0.059223708
0.2388346 0.04709829 0.068946764 0.036582455 -0.026019972 -0.1525542 -0.044555 0.031518143
0.1388868 -0.051901642 0.13759172 0.0971579 -0.017017089 0.05606555 0.0063454863 0.019780466
0.04856692 -0.22163638 0.015112577 0.15606177 -0.07598952 -0.046223104 0.10495613 0.041852027
0.020380696 0.09098073 -0.0065195435 -0.025461886 0.1481135 0.03504158 -0.021181338 -0.048932735
-0.12340343 -0.115403384 -0.10856629 -0.045448925 0.11553436 -0.02496283 0.09227355 -0.20590964
-0.14484379 0.147157 -0.15251252 -0.08154415 -0.08841139 -0.091051824 -0.08123742 0.17965503
-0.09141703 -0.086386636 -0.12868266 0.084600456 -0.00465285 0.069539264 -0.08597584 -0.021895343
-0.21932638 0.033993658 0.08970128 0.1304662 -0.12920956 -0.082549825 0.13485384 -0.16109414
0.047394056 0.0745811 -0.010561367 0.16023129 -0.06536804 0.119141795 -0.036862433 0.18579315
-0.05497478 0.11023891 -0.028369771 0.062286682 0.041822333 0.15027742 -0.199609 0.1658946
0.04559069 -0.09249382 0.14532019 -0.022345304 -0.14534907 -0.026481587 -0.04959593 -0.07587341
-0.16803953 0.07161683 -0.04565947 0.108178996 -0.24796055 -0.031115388 0.025972629 0.21275938
-0.2337065 0.052398045 0.05608751 0.022267653 -0.03262508 -0.08442559 0.08529606 -0.13873692
-0.0122168735 -0.1647411 0.07751321 -0.18046753 0.108138405 0.03452457 0.015747342 0.027694149
-0.15051842 -0.12682925 0.033790756 -0.2899283 -0.026467178 -0.024380092 0.007167286 0.08597308
-0.06495027 -0.052179765 0.110060014 -0.06255278 0.15606315 -0.048637252 -0.058311045 -0.10843578

rnn.weights_lin_z f4 [150, 170]
00000000: 5f2c a3bd 50a1 afbc 9bc5 0a3e fbf0 c23d
00000010: 91bb 063d e7a9 03bd 46f0 9abc afe3 dbbd
00000020: 2af0 7fbd 61a9 1eb9 415c 343c 3db3 493d
00000030: 2836 543d 5a25 e73d 544d 10bd 8f05 cabd
00000040: f96d 83bd 9f00 d2bb 40fb d13d 6b04 83bd
00000050: 7036 033e a452 1fbc 14aa 8bbd 923b 8bbc
00000060: df68 123d a2ab c1bc 896b 59bc 18cc 493d
00000070: 42e2 afbd d95f 0c3d c3b1 16be 2c91 0b3d
00000080: 09c2 903d 5ba3 a63d c347 3e3a daa8 43bc
00000090: 7482 c4bd e1d1 3e3b ac04 363d 77fc d53c
000000a0: ac31 483d 02e6 033d d87c 19bd cd86 3ebd
000000b0: 2357 19be 3587 dcbb 3360 b1bd 106d 123d
000000c0: bd1c e63c 1cbc cabc 9b6a 243d 467f aebd
000000d0: 9298 e23c ce4f 623d d952 583d 3e40 e3bd
000000e0: 7073 9bbd 75b8 803d 7044 993c fbda 2fbd
000000f0: 6965 b33c 2de3 2e3c e776 483d 0542 b33d
00000100: 462c b0bd 4236 1d3d f412 c439 3935 293d
00000110: 6fa6 613b ca98 d0ba e63d 81bc 8c94 9fbc
00000120: faea 813c 2148 e13a 6899 f43c 73bb aa3d
00000130: 714b 90bd e25e bc3d 9c4f ffbc a1b3 dcbc
00000140: 7430 8bbc 03d1 6a3d 0207 f13d f045 2fbd
00000150: 5097 3e3d 8a19 c7bc b44c 18bd 061c c0bd
00000160: a5c2 563d 605b 3e3d 4dee a2bc 23ef ebbd
00000170: 80cf 9c3d 2c8a 69bd c0e0 983b cc24 9e3d
00000180: 0317 f0bd 35ed 7bbd 40f6 4e3d 8783 b4bd
00000190: 4cfd 0dbd 4a34 e9bb f31f c23d ccfd f43d
000001a0: bae8 44bc b1c1 813d 29b6 5a3d 0592 173d
000001b0: c2e8 dc3d 12f4 f33d dd3d 403c 238c 6bbd
000001c0: 3b93 983d 25d0 27bc 7ecc 67bd 702d 41bc
000001d0: f4a2 523c 0f92 bebd 6539 4b3d 0c93 69bd
000001e0: 418a 423b 174b 17bd 2040 89ba cd7c 11bd
000001f0: 2dac 7cbd 8dfd 9cbd 0ab3 0e3d 2fef 07bd
00000200: dc57 a83c 1169 333b db40 063c 5f06 b53d
00000210: 8bc8 9fbc 52da c6bd 1dd9 263d 6982 563d
00000220: 4378 94bd 4d47 3e3d 667f 95bd 5b73 cf3c
00000230: 36a8 c53c d913 cc3c e104 c33c d4aa 603d
00000240: ede6 5c3d 4cc4 2dbd 3429 35bc 357d c5bd
00000250: d29b aebd f7c2 05be e962 e53c 2d4f 9bbc
00000260: cfeb 913d 0d42 c73d caf3 b03d 009a 663d
00000270: 3c22 d4bd 325a 413c 8f96 5d3c 899a e53b
00000280: 0376 133e ec07 233c 766b 933d 487c c13c
00000290: b6ce a63c b126 173a 8dbb 11bd 0f99 b33d
000002a0: cba2 1bbc ba33 6b3a e0d2 1fbd 3ddd 22bd
000002b0: 6af0 febc 9360 a8bd 08bd d7ba ac2b c33b
000002c0: b765 6ebd 7abe 6bbc 99f2 f3bd ccb8 62bd
000002d0: 26c2 e738 60ae 8abd b67b 7cbd f153 84bc
000002e0: 3ccb d6bd ba2d 1ebb dd95 4cbd d390 3cbd
000002f0: 4b38 033d e5e5 4a3d 6d3a f0bd f103 603d
00000300: ff8d e0bc 4b86 3fbd f308 203d 5bbe 6fbd
00000310: efac 89bd ad92 003e 56f8 8e3d a49e d5bd
00000320: b9b2 c03c d43c d5bc 9586 d43b 330d e9bd
00000330: ba2a 5fbb 8b68 1f3d a1f0 df3c 6336 923d
00000340: 374c dc3c 3c12 bd39 f748 c63c d3eb 653c
00000350: 6d99 083d 6496 1a3d 4ad7 febc 1e31 013d
00000360: c594 073c cf03 aebd bb31 47bd 58c7 01bc
00000370: 78d5 3fbd b1b2 003e 51f0 483c 1d25 3abd
00000380: 8187 26bc f8fa 08be 0c78 713b a14c 01bd
00000390: 5736 eb3a d995 b3bd 76cb b7bd 82f3 813d
000003a0: 2516 b0bd 2cf8 12bd b471 b73d 0d82 38bd
000003b0: 1a6a a4bb fc11 c03d 1452 aabc c182 ae3d
000003c0: 3a77 00bc 745c 133c 4c9d 9dbd 6801 75bc
000003d0: 131e ccbb ce62 f63d aee6 ccbc 38e4 143e
000003e0: 2e49 aa3d 05a0 a9ba 01af 52bd bc58 3e3c
000003f0: d500 38bd c6cd aabd a853 b7bd 9747 39bc
-0.079674475 -0.021439224 0.13551943 0.095186196 0.03289372 -0.032144453 -0.0189134 -0.107367866
-0.062484898 -0.00015131153 0.011008323 0.0492432 0.05180946 0.11286421 -0.035229996 -0.098643415
-0.0641746 -0.0064087654 0.10253 -0.06397327 0.12813735 -0.009724293 -0.06819549 -0.016996179
0.035744544 -0.023641411 -0.013270267 0.049266905 -0.08588077 0.034271095 -0.14716248 0.034073994
0.07068259 0.08136626 0.0007258618 -0.011942113 -0.095951945 0.0029116797 0.04443805 0.026121361
0.048875496 0.032201774 -0.037472576 -0.046515275 -0.14974646 -0.006729985 -0.08660927 0.03574854
0.028089875 -0.0247479 0.04014073 -0.08520369 0.027660642 0.05525189 0.052813385 -0.110962376
-0.07590377 0.062851824 0.018709391 -0.042933445 0.021898942 0.01067428 0.04894152 0.087528266
-0.086021945 0.038381822 0.00037398154 0.041310523 0.0034431478 -0.0015914675 -0.015776586 -0.019480012
0.015859116 0.0017187634 0.029858306 0.08336534 -0.07045639 0.09197785 -0.03116589 -0.026941122
-0.016990878 0.057328235 0.11768915 -0.042791307 0.04653102 -0.02430417 -0.037182525 -0.09380345
0.05243172 0.04647386 -0.019889021 -0.11520221 0.07656765 -0.057016537 0.004665464 0.07721862
-0.11723139 -0.061505515 0.05052781 -0.08814149 -0.03466539 -0.007116829 0.0947875 0.119624704
-0.012018377 0.06335772 0.053396378 0.03700449 0.107865825 0.11911787 0.011733499 -0.05750669
0.07449957 -0.010242497 -0.056591503 -0.011790618 0.012856234 -0.09305202 0.049615283 -0.057025
0.0029684457 -0.036936846 -0.0010471381 -0.03551941 -0.061687637 -0.076655485 0.034838714 -0.033187088
0.020549707 0.0027375857 0.008194174 0.08839106 -0.019504806 -0.0970961 0.0407344 0.052370463
-0.072495006 0.046454716 -0.0729969 0.02532356 0.02412806 0.024911808 0.023806037 0.054850414
0.053931165 -0.04242353 -0.011057187 -0.09643022 -0.08525814 -0.13062654 0.028001266 -0.018958652
0.07125055 0.09729395 0.08640249 0.05629921 -0.10358092 0.011801289 0.0135246655 0.0070069474
0.14400487 0.009950619 0.07198231 0.023618832 0.02036224 0.00057659583 -0.035579253 0.08769428
-0.009499262 0.00089722464 -0.039019465 -0.03976177 -0.031120498 -0.08221545 -0.0016459534 0.005956134
-0.05820247 -0.014388675 -0.11911506 -0.055352017 0.00011051101 -0.06771541 -0.061641417 -0.016153308
-0.10487983 -0.0024136142 -0.04994761 -0.046036553 0.032036107 0.04953565 -0.11729894 0.05469126
-0.027411459 -0.04675893 0.039071035 -0.058531146 -0.067224376 0.12555952 0.0698096 -0.10430649
0.023522722 -0.026029982 0.00648577 -0.11379471 -0.0034052567 0.03891806 0.02733642 0.0713928
0.02689181 0.00036062475 0.024204714 0.014033276 0.033349443 0.03774108 -0.031108517 0.031540982
0.0082752155 -0.0849682 -0.04863141 -0.007921062 -0.04683444 0.12568165 0.012264327 -0.04544555
-0.010164143 -0.13376987 0.0036845235 -0.03156722 0.0017945272 -0.087688155 -0.08974354 0.063452736
-0.08597974 -0.035881206 0.08957234 -0.0450459 -0.005017531 0.0937843 -0.020791091 0.08521033
-0.007840926 0.0089942105 -0.076960176 -0.014953949 -0.006229171 0.12030564 -0.02501234 0.14540184
0.08314739 -0.0012941366 -0.051436428 0.011617836 -0.04492267 -0.083400294 -0.08951503 -0.011308572

rnn.bias f4 [450]
00000000: 23a0 a53e cdf9 8b3e 9c27 ad3e d5d7 883e
00000010: 8fc3 253e 6819 253e 9fdc 8f3e 1050 1b3e
00000020: 3e1a 883e a254 6b3e 4e32 0a3e ad74 5e3e
00000030: 967f 803e 2648 2e3e 2710 503e d451 053e
00000040: dc3f 8a3e 74f5 3a3e ad8e 543e 70ff 373e
00000050: 0454 7b3e 4a9c 153e 0f82 7c3e 4202 9c3e
00000060: d035 703e 5874 8e3e ea5a 9c3e e9d0 563e
00000070: f4c1 3d3e bbcc 9c3e 0f6f 113e 6cf6 153e
00000080: 74bf 273e 4c5a d33e 1e21 3c3e 4c04 4f3e
00000090: 3050 a23e f5fe 823e b054 9f3e 8c28 c83e
000000a0: 011b 933e 8ad3 e43d c2e3 4b3e dd62 6e3e
000000b0: 2a2f 193e 6c4c 7c3e 310d be3e 920c 053e
000000c0: e391 883e eaeb 273e fb7b 583e 3bbe 503e
000000d0: c77b 863e a98c cd3d 3480 743e b104 863e
000000e0: 09c2 193e 8d4b 993e c258 2d3e 5e09 7f3e
000000f0: 0aef 803e 6162 6d3e 2c11 2c3e 7e31 143e
00000100: cfbb 943e 4102 6c3e 897a 0d3e 8c3e 3e3e
00000110: c983 ac3e 4e31 b73e beec 753e 4747 843e
00000120: cec8 3a3e 4da3 543e 67d0 7e3e 054d 673e
00000130: 433e 343e e5f5 8b3e bb9f 593e f2b8 9f3e
00000140: 4472 4b3e 85bb 973d 2ccc 683e 895d 4a3e
00000150: 1e3a 3d3e 388f 0a3e 351c 893e 9d79 5d3e
00000160: dba1 4a3e 627c 3a3e d7bf 313e d244 643e
00000170: cd92 323e 8b80 143e fb75 8f3e 474b 553e
00000180: 584a 213e 2a1d 223e fad1 413e 4a49 e63d
00000190: 9b89 2d3e 3b76 3c3e a9fe 9b3e 825f 633e
000001a0: 49d2 5e3e d255 3d3e 995a 4a3e c265 d63e
000001b0: a51a e43e af6f 323e 1b78 613e 1561 823e
000001c0: 8545 a13e c071 b33e bd08 d73e 8606 843e
000001d0: cf00 7e3e 4a89 293e c704 873e a597 923e
000001e0: bf1e 383e be75 6b3e adbf 883e ae2b 7c3e
000001f0: 1a92 923e 0b94 573e 7abc 893e 3b8b b33d
00000200: 2c52 033f e47e 743e 97d4 8b3e 9c1f 773e
00000210: 1f26 783e bacc 263e ec42 0d3e 72b4 0d3e
00000220: 4813 333e 05ae 063e 143f 283e 23af c23d
00000230: 04cc 8a3e 2c0b 7d3e 3975 553e 53c8 a03e
00000240: 3075 883e 7df9 673e fe7f 513e 7f74 893e
00000250: 8240 463e 86b1 a63e 1403 e13d e9d1 ddbd
00000260: d33d 403d 319b 993c 809e c0bc c05e 073d
00000270: b495 793d 55f0 79bd 4a14 abbd 6e79 d73d
00000280: 6144 9b3c cd02 733d e9cb 19bd 28b3 3fbd
00000290: 3504 2b3d 3835 edbd a7cc 28bd 1990 783d
000002a0: 2ddb 54bd 4b58 a3bd 68a2 c63c f37b 283e
000002b0: e45f ba3c 0a30 bc3d 1765 1fbd 9968 9bbd
000002c0: 2291 583d f2b6 f33d 7965 c4ba 600a 47bb
000002d0: 3a38 023e ca90 98bd 4ebc d23c c194 74bd
000002e0: 5d41 bebc 86df 29bd 6462 25bd 5a99 443d
000002f0: 5f99 3d3c 595d 083d a400 29bd 46d2 cfbd
00000300: 589b 89bd 8d14 97bd 9278 493c b026 e93c
00000310: 200d cd3c f2da a93d 76a0 1b3e 6e65 383c
00000320: 487b 763d 7118 7c3c 2ccd e43c ad9b 213d
00000330: 9abf a53d 298d 343c 7386 65bd 667f 10bd
00000340: 3c90 be3b c327 a2bd 0690 d43d 82f4 79bc
00000350: c757 89bc 39a8 11bc e5d5 b23c 6d61 0d3e
00000360: c6c9 0f3c 2cda a7bc 656f 15bd a816 aa3c
00000370: 2b2d f1bc 2cc4 24bd ca93 e53c ee3c 743d
00000380: b0de 25bd 0caa a33a 59a3 493b 58d6 85bd
00000390: e9d0 c7bc 4492 f63c 3f14 a6bd 4514 003d
000003a0: c6e1 5abd f570 3abd dfb9 eb3b 3dbc b63d
000003b0: 24e6 453d e420 51bd adb1 8d3c c7b2 773c
000003c0: 4d36 823d b10b d83c 0b15 dd3c 7f80 d23c
000003d0: da2b 6f3d b9eb b03c 388c 32bd 5509 5a3c
000003e0: 58ef 3c3c 8f4b 8cbc 3e43 57bb e71c e73d
000003f0: 2b80 473d f6a3 16bd a2ac 3d3d 67db 56bd
0.32348737 0.2733902 0.33819282 0.26727167 0.16187881 0.16122973 0.28098008 0.1516726
0.2658252 0.22981504 0.13495752 0.21724196 0.2509734 0.1701971 0.20318662 0.13019496
0.27001846 0.18257695 0.20757551 0.17968535 0.24543768 0.14610401 0.24658988 0.30470473
0.23458028 0.27823138 0.30538112 0.2097813 0.18531018 0.30624947 0.14202522 0.14644784
0.16381627 0.4127983 0.18372008 0.20216483 0.31701803 0.25585142 0.311193 0.39093435
0.2873154 0.111731604 0.19911101 0.23279901 0.14959398 0.24638528 0.3711944 0.12993076
0.26673803 0.16398588 0.21141045 0.20385067 0.2626631 0.100365944 0.2387703 0.26175454
0.15015425 0.29940453 0.1692839 0.24905917 0.25182372 0.2318206 0.16803426 0.14472005
0.29049537 0.23047735 0.13816275 0.18578547 0.33694294 0.35779804 0.24016091 0.2583563
0.18240663 0.2076542 0.24884187 0.22587974 0.17601876 0.2733604 0.21252339 0.3119579
0.19867808 0.074088134 0.22734135 0.19762243 0.18479201 0.13531196 0.26779333 0.21628423
0.19788305 0.18211511 0.17358337 0.22291878 0.17438813 0.1450216 0.280197 0.20829497
0.15751016 0.15831438 0.18927756 0.112444475 0.16947024 0.18404476 0.30467728 0.22204402
0.21759905 0.18489769 0.19761123 0.4187451 0.44551578 0.17425416 0.22018473 0.25464693
0.31498352 0.35047722 0.41998854 0.25786227 0.24804996 0.16556278 0.26370832 0.2863132
0.17980479 0.22994134 0.26708737 0.24626037 0.28627092 0.21052568 0.2690161 0.087667905
0.5129726 0.2387653 0.2731063 0.24133152 0.24233292 0.16289034 0.1379506 0.13838366
0.17487824 0.1315232 0.16430312 0.09506061 0.27108777 0.24711293 0.20845498 0.31402835
0.26651907 0.22653766 0.20458981 0.26846692 0.19360545 0.32557315 0.10986915 -0.10831053
0.04693396 0.018750759 -0.023513079 0.033049345 0.060933784 -0.061020214 -0.08353479 0.10521208
0.018953504 0.059328843 -0.03754798 -0.046801716 0.04175206 -0.11582416 -0.041210797 0.060684297
-0.051966835 -0.07975825 0.024247363 0.16453533 0.022750802 0.0918885 -0.038914766 -0.0758831
0.052872784 0.119001284 -0.0014983854 -0.0030371174 0.12716761 -0.07449491 0.025724556 -0.059712175
-0.023224527 -0.041472934 -0.040377036 0.04799781 0.011572211 0.03329215 -0.041260377 -0.10147528
-0.067190826 -0.073769666 0.012296813 0.02846083 0.025030673 0.08293714 0.1519793 0.0112546515
0.060176164 0.015386687 0.027929865 0.039455105 0.08093186 0.011019983 -0.056036424 -0.035277747
0.005815534 -0.0791774 0.10379033 -0.015256049 -0.016765488 -0.008890205 0.021830508 0.13806696
0.008776134 -0.020489775 -0.036483187 0.020762756 -0.029440483 -0.040226147 0.028024573 0.05962842
-0.040495574 0.0012486591 0.0030767529 -0.065350235 -0.024391608 0.030099042 -0.081093304 0.03126933
-0.05343797 -0.04551788 0.0071937884 0.08922622 0.048315182 -0.051056758 0.017296636 0.015118307
0.06358013 0.026372762 0.026987573 0.025696037 0.05839143 0.021596776 -0.043590754 0.013307889
0.011531673 -0.017125873 -0.0032846476 0.112848096 0.048706215 -0.03677746 0.046307214 -0.052455332

rnn.bias_lin_z f4 [150]
00000000: 55b0 c03d 284d 82bc 2bca c3bd 3f5c 78bd
00000010: 3307 40bc 90fd bb3d 4c9e 29bd c573 0b3d
00000020: 3bf8 9c3c 7dff c33c 0098 6c3c 916d 393c
00000030: 15e7 5bbd 7d6c c3bc 1eb7 5d3d 045a 7b3d
00000040: ae4d 9b3c 5689 aa3d 73bf 7dbd fdf6 163c
00000050: 6bf8 d23d b83c 38bc 8aae 7bbd 5cbd e2bb
00000060: 5dba 813a f3c2 a83d 262d 84bd 482c 6f3d
00000070: 1d14 1bbd 11b9 04bd 86f8 083d daf0 7d3d
00000080: 3997 55bd e179 8dbb 3511 853d 153a a53d
00000090: 4872 dcbc 71d7 f63a 3f57 1b3d 7697 a8bd
000000a0: b0ae c13d f61a 32bc 0c34 83bc 60fc 58bd
000000b0: 6973 203d a113 2cbd 4f48 82bd 904d 793d
000000c0: 790b 023d 889a 36bc fa1b c4bc 1c7b 0e3d
000000d0: b255 d0bd f9de bf3d e87e 88bd 05e5 f3bc
000000e0: b000 e8bc 628b 223d 7bb1 033d 4f9e f9bd
000000f0: c897 c6bc 920b 80bd f5ec 6cbd b76b 393d
00000100: a131 a33d e166 ba3c 75f9 323d 2d70 8d3d
00000110: c09c abbc 6e47 c7bc a95d 3a3d c8cb bcbd
00000120: 0415 6e3d a1ba b5bd b39e 283b 8c6c f4bd
00000130: 48c6 383d 66bd 76bd 1551 9b3d f259 133d
00000140: b5e4 f83d 86d2 d73c 9ed2 093c 9363 8cbd
00000150: 8748 29bd 51f6 b63c ffdd b03d 6356 93bd
00000160: a6f3 51bd fcb0 b83c 383e 8dbd b096 903d
00000170: 7af7 313d 7223 ee3c 0980 9dbc e39e b13d
00000180: 0f95 053c 73c7 31bd e983 4d3c cb6e 6e3b
00000190: f16a 863d 59ae 99bc 55ab 5fbd 0c22 8cbd
000001a0: 039a d53c 6adb b2bc 4f00 603d f9b3 ba3d
000001b0: 7573 093d eac6 45bd 0f57 45bc df38 cb3d
000001c0: c00a 1a3d 0293 38bb 6bf0 a5bd 31de 103d
000001d0: 9409 cebd 5c34 cfbd 1839 623a 232b d23d
000001e0: c2fe 9abd 4609 babc 8669 743c 3733 98bd
000001f0: 8106 283c b439 2e3d 9248 643c ab80 f73b
00000200: c127 1c3e da70 873d 02fc 003d 2741 7d3d
00000210: 3ad9 d83b 540c 24bd f758 863c 9117 c9b9
00000220: fe4b ad3d 50a6 a9bc 6da8 3fbd 8875 c83c
00000230: 2fdd 763d 8e0e b6bd 4cb2 fabc 81ca 8a3c
00000240: 250d 083d 3c57 27bb 2da9 703d 2f67 a53b
00000250: 0b77 abbd 7e6a e23d
0.09408633 -0.015905932 -0.09560045 -0.060634848 -0.011720466 0.091792226 -0.04141073 0.034045953
0.019161334 0.023925537 0.0144405365 0.011317627 -0.053687174 -0.023855442 0.054129712 0.061365142
0.018957939 0.08326976 -0.06195016 0.00921416 0.10301288 -0.011244945 -0.06144575 -0.006919546
0.000989746 0.082403086 -0.06453924 0.05839184 -0.03786098 -0.032403056 0.033440135 0.061997272
-0.05214617 -0.0043175076 0.064974226 0.08067719 -0.026909962 0.0018832517 0.037925 -0.08232014
0.09457147 -0.010870686 -0.016016029 -0.05297506 0.039172564 -0.042010907 -0.06361448 0.060864985
0.031749222 -0.011145242 -0.023939122 0.034785375 -0.10172595 0.093687005 -0.066648304 -0.029772291
-0.02832064 0.039683707 0.03215168 -0.12188398 -0.024242297 -0.06252207 -0.057843167 0.04526874
0.0796845 0.022754135 0.043694932 0.069061615 -0.020948768 -0.024326053 0.045499478 -0.09218556
0.05812551 -0.08873487 0.0025729358 -0.11934766 0.04511097 -0.06023922 0.075838245 0.03597445
0.121529974 0.026345503 0.008412031 -0.0685493 -0.041328933 0.02233425 0.086360924 -0.07194211
-0.051257752 0.02254533 -0.06896633 0.07059991 0.043448903 0.029069636 -0.019226091 0.08672883
0.008153214 -0.0434031 0.012543657 0.0036381956 0.06563366 -0.018759893 -0.054606754 -0.068424314
0.026074415 -0.02183314 0.054687794 0.09116358 0.033557374 -0.048285402 -0.012044682 0.09922957
0.03760791 -0.0028163795 -0.08102497 0.03536815 -0.10060421 -0.10117409 0.00086297235 0.10262134
-0.075681224 -0.0227095 0.014917737 -0.074316435 0.010255457 0.0425355 0.013933318 0.00755318
0.1524954 0.066133216 0.031490333 0.061829712 0.0066176923 -0.04005082 0.016399844 -0.00038355266
0.0846176 -0.020709187 -0.046791483 0.024470106 0.06026953 -0.08889495 -0.030602597 0.016942265
0.03321566 -0.0025534173 0.05875509 0.005047701 -0.08372315 0.11055468

classifier.weight f4 [20, 150]
00000000: a1c7 543d 75dd 32be 2081 82bd 5c15 bd3e
00000010: cb4e 95be 143d c4bd 1906 96bd d029 35be
00000020: 7278 7c3e a2ba 74bc 9565 f8bc a641 593d
00000030: 5247 7f3b 9fc0 cc3d cd04 b33d f28b 4bbe
00000040: 431c c93d 37c4 363e 7f76 4dbe 74cb 00be
00000050: 21f1 f5bc eb45 ff3d 8f74 903e a660 283e
00000060: fc29 be3c 6d13 813e 1e2f e6bd 4f16 623e
00000070: d4fd 25ba 87ce 09be b142 5f3d 9a92 673d
00000080: 309b f13d 1698 61bd 8f13 c43d c418 c8bc
00000090: 41f8 c2b9 f0d2 eb3c e857 363d bfb2 12be
000000a0: 34d5 94be a5d1 acbc ad9b 263e 5ea4 7ebd
000000b0: 1c49 2bbe 00b5 d9bd 7487 5a3b cf06 963e
000000c0: 7ad2 cbbd e3dd 2e3e c36d f53d 3354 6b3e
000000d0: 14b8 d33d b563 973d e3ed 49be 4ca3 79be
000000e0: 6909 21bd 2b22 3cbe fd24 c7bc be0d 20be
000000f0: 97cf 723d b227 f83d 2b0d 1c3d 75a3 f2bd
00000100: 1a8d 02be 4768 703d 8e75 dbbc 30b2 0f3d
00000110: f647 173d ce68 87bc e888 33be 6b9a 383e
00000120: 8257 c03d a1d1 493e 938d 113e 6900 e5bd
00000130: d346 b4bd b889 4bbe 85f9 033e 3526 21be
00000140: 7d3c d3bd 7ddd 02be b72e 413d d8e9 a13d
00000150: 86ea 4cbe 8fa0 5a3e 4dc5 023e 48ee d63d
00000160: efe7 3e3c 1948 203d 8345 4c3e 4474 fbbd
00000170: d336 f63d 6026 efbd 4c4f 7d3c bbd4 80bb
00000180: e557 8dbb 8f51 483e 1a52 babc d973 a1bd
00000190: d9fa 93b8 3709 1e3d 82ca 2f3e bd06 ecbd
000001a0: 3967 203e 720f 54bd b648 48be 8741 9ebd
000001b0: 5496 483e 2dd7 453e 6e39 0ebe 2808 57be
000001c0: bd26 37bc 60bf 42bd 1b80 0fbe 56b1 8b3e
000001d0: e00c 3abe b03d 99be 97f3 1bbe 0f4f 893d
000001e0: effd 09be a119 fbbd 9604 20bd f9c9 5c3e
000001f0: c489 2a3e 4b30 0a3d 6010 893d df62 653d
00000200: b9bf 99bc 5873 49bc 4a83 223d f128 d63d
00000210: b64e 0fbe 389e ea3a 72f7 873e 41fc 4d3e
00000220: b8ed e1bc f975 893d ab91 7eba e66c 0abd
00000230: d85e 51be 7a91 54be ff80 c53d 7e80 df3d
00000240: ae2c 243e 9fce 4f3e 9b28 de3a 6d63 a83e
00000250: 838b 86bd 5d59 f23d 3b5e 2cbd 174a 1bbd
00000260: 0281 3b3e 6002 4dbe 668d 69be f907 68bd
00000270: 3436 9d3d 437e 7f3e ab19 01be 4759 31be
00000280: 3cf9 6b3d dfad b7bd 50ec 27bd bbf5 863d
00000290: d187 953d 43a7 a5bd 29ef eebd a26f 92be
000002a0: 9fc2 793d e085 6dbd 6647 ffbd 6c07 8fbd
000002b0: 542d 1dbb 7431 513d e370 a0bd 8ca4 bcbd
000002c0: 4f10 24be bc6b 3ebd 127a 08bd 1305 ffbd
000002d0: 83b9 74be 2b49 b23c ec99 77be 709c 5cbe
000002e0: 398a 27bd 2939 803d 47bb 833b 664b b2bd
000002f0: 1ea5 3bbe 9a5c b63d 122a d03d c1e2 1abe
00000300: 145e 863d 2887 b43e 8f3c 36be 93dc 843c
00000310: bdd6 f0bd 40ae 373d f06f 303d cb4a 0dbb
00000320: 7683 4abd f999 633d a07e d9bc e095 a4bd
00000330: 9fd0 e0bc 1393 5f3e 233b 7cbd 23e4 c2bd
00000340: ec6e fbbc 9ccc 973c 0bcb 253e 77a1 353e
00000350: c2a3 c93d 9aa7 1bbe 43e3 7b3d ac44 ea3d
00000360: 02d7 243e ea34 37bd d81e 873c 2cde da3d
00000370: 0014 5e3c b428 67bb 9fc6 9abe f614 8c3e
00000380: 600b f0bd 5117 a4be f883 4a3e 2c5f 213e
00000390: a448 d6bd 1485 ce3d d200 033e 2ecc 08be
000003a0: b900 2ebc f5c8 e4bc 93aa d1be c8bf 0c3e
000003b0: 2371 04bd c35b f13d e28c 6a3e 83ba 173e
000003c0: aa9b abbd 8b6d 2abe 7780 093d 1b43 6d3c
000003d0: a88f c3bd 55d9 b9bd e1c2 aebc a33b 8fbe
000003e0: 1e69 8cbd 185b 79bd a579 823e 6837 403c
000003f0: 2318 fd3c 9083 2e3e 94fe eabd 813e 333e
0.051948193 -0.17467292 -0.06372285 0.36930358 -0.29161677 -0.09581962 -0.07325382 -0.17691731
0.24655321 -0.014937075 -0.030321876 0.053041123 0.0038952422 0.09997677 0.0874115 -0.19877604
0.098198436 0.17848288 -0.20064734 -0.12577611 -0.030022206 0.12464508 0.28213927 0.16443118
0.02321338 0.25210133 -0.11239456 0.22078823 -0.0006332074 -0.1345769 0.05450696 0.056536295
0.11797178 -0.05507668 0.09574043 -0.024425872 -0.00037187527 0.028787106 0.044517428 -0.14325999
-0.2906891 -0.02109606 0.16270323 -0.06216847 -0.16727108 -0.10630226 0.0033344897 0.2930207
-0.099522546 0.1707683 0.11983826 0.22981338 0.103378445 0.073920645 -0.19719653 -0.24378699
-0.039315615 -0.18372409 -0.02430963 -0.15630242 0.059280004 0.12116946 0.038098495 -0.11847583
-0.12749138 0.058693197 -0.026789453 0.035082042 0.03693386 -0.016529467 -0.17532694 0.18027656
0.09391691 0.19708873 0.14214163 -0.11181719 -0.08802571 -0.19876754 0.12888153 -0.15737231
-0.103142716 -0.12779804 0.04716369 0.0790593 -0.20011339 0.2135031 0.12770577 0.10494667
0.011651977 0.039131258 0.19948392 -0.12278035 0.12022176 -0.11677241 0.0154608 -0.0039316094
-0.0043134564 0.19562362 -0.022744227 -0.07883424 -7.05623e-05 0.038583007 0.17167094 -0.11524723
0.15664376 -0.051772542 -0.19558987 -0.07727342 0.19588596 0.19320364 -0.13889095 -0.20999205
-0.0111786695 -0.04754579 -0.14013712 0.27283734 -0.18168974 -0.29929876 -0.15229641 0.06704532
-0.13475774 -0.12260748 -0.039066873 0.21561421 0.16654116 0.033737462 0.066925764 0.056002494
-0.018768178 -0.0122955665 0.03967599 0.10457028 -0.1399487 0.0017899936 0.26555973 0.20115758
-0.027579173 0.067119546 -0.0009711037 -0.03379526 -0.20446336 -0.2075862 0.09643745 0.1091318
0.16032669 0.20293663 0.0016949357 0.32888356 -0.065695785 0.11833451 -0.042082053 -0.037912454
0.18310931 -0.20020437 -0.22807845 -0.05664823 0.07676354 0.24950509 -0.12607448 -0.17319213
0.057610735 -0.0896871 -0.04099685 0.06589838 0.073012955 -0.08088543 -0.1166671 -0.28600794
0.06097662 -0.057989 -0.1246479 -0.069838375 -0.0023983316 0.051072553 -0.078340314 -0.09211072
-0.16021846 -0.046489462 -0.03331954 -0.1245214 -0.23898892 0.021763405 -0.2417981 -0.21544051
-0.040903304 0.062609024 0.004020128 -0.08705787 -0.18324706 0.08904381 0.10164274 -0.15125562
0.06560913 0.35259366 -0.17796539 0.01621846 -0.11759708 0.044843912 0.043075502 -0.0021559473
-0.049441777 0.05556676 -0.026549637 -0.08036399 -0.027443228 0.21833448 -0.061579835 -0.0951617
-0.03069254 0.018530183 0.16190736 0.17737375 0.098456874 -0.15200654 0.06149603 0.11438879
0.16097644 -0.044728197 0.0164942 0.10686907 0.013554573 -0.0035272064 -0.3022966 0.27359742
-0.117209196 -0.3204904 0.19776905 0.15758961 -0.10463074 0.100839764 0.12793282 -0.13359138
-0.0106202895 -0.027927855 -0.4095045 0.13745034 -0.032334458 0.1178508 0.22905305 0.14817242
-0.083793 -0.1664335 0.03356978 0.014481331 -0.09548885 -0.09074656 -0.02133316 -0.27975187
-0.06855987 -0.06087789 0.25483432 0.01173196 0.030895298 0.17042375 -0.11474338 0.17504312

classifier.bias f4 [20]
00000000: 4bf3 42bd 2685 e23a 28fc 263d 56e7 c33b
00000010: e90f 5ebc 2b75 ed3c c82e c2bc 33bb a2bc
00000020: 3e33 b7bd 3daa 2dbc f53c 84bd f04a 103d
00000030: 1890 14bc f14b 853c b9e0 3e3c 068e 8d3d
00000040: 394b b0bc cccd 60bc 2c29 b9bb 67ab 853d
-0.047595304 0.0017282113 0.04076782 0.005978505 -0.013553598 0.028986534 -0.023703948 -0.019864654
-0.089453205 -0.01059967 -0.06456939 0.035227716 -0.009067558 0.016271563 0.011650258 0.069118544
-0.021520244 -0.013720941 -0.00565066 0.06526833
