Final Project/LEM-main/models/lorenz63/0/model.pt (torch, 7191 bytes, 6 tensors)

rnn.weights f4 [48, 19]
0	0x3cd5a41c	0.02607923
1	0x3d4bae1f	0.0497266
2	0xbf02749b	-0.50959176
3	0xbe7dae11	-0.24773432
4	0xbd931568	-0.07181817
5	0x3d84aac8	0.064778864
6	0xbe9bd238	-0.30433822
7	0x3e29155a	0.16512051
8	0x3dc43f42	0.09582378
9	0xbe843356	-0.25820416
10	0xbe58ba6a	-0.21164861
11	0x3ea77afa	0.3271101
12	0x3e02a405	0.12757881
13	0x3e967863	0.29388723
14	0x3e9c1031	0.30481103
15	0xbe265afe	-0.16245648
16	0xbe090407	-0.13380443
17	0xbd98daaf	-0.074635856
18	0xbe3cbe0e	-0.18431875
19	0x3e3e2473	0.18568592
20	0xbf8b4ea0	-1.088337
21	0xbdd96405	-0.1061478
22	0xbf1b8243	-0.6074564
23	0xbe09b93a	-0.13449565
24	0xbd12710e	-0.03575235
25	0x3eb92c39	0.36166552
26	0x3dd42c68	0.10360032
27	0xbf3c1fff	-0.7348632
28	0x3fcf77b7	1.6208409
29	0x3da4b617	0.080425434
30	0x3eeb3690	0.45940065
31	0x3e8761f8	0.26441932
32	0x3ed36eb0	0.41295385
33	0xbe7aebce	-0.24504015
34	0xbd1df407	-0.0385628
35	0x3f188c9b	0.59589547
36	0x3e80c8ea	0.25153285
37	0x3d266253	0.040621113
38	0x3e93342c	0.2875074
39	0x3e487615	0.19576295
40	0xbecfce3d	-0.40587035
41	0xbec24d60	-0.37949657
42	0x3b72b5c9	0.0037034622
43	0xbd39dbb0	-0.045375526
44	0x3c5e9d8b	0.013587366
45	0x3e8eaeef	0.2786784
46	0xbf190bca	-0.59783614
47	0xbeb2a0e1	-0.34888366
48	0xbaee8e99	-0.0018200456
49	0x3f4bfaed	0.7967976
50	0x3e92cf49	0.2867377
51	0x3f93385d	1.1501576
52	0x3f7a700a	0.9782721
53	0xbdecd2ab	-0.11563619
54	0xbe919ca5	-0.28439823
55	0xbea9a1ac	-0.33131158
56	0xbe1046e5	-0.14089544
57	0x3db51668	0.08842164
58	0xbf0566b6	-0.5210985
59	0x3df201fb	0.11816784
60	0xbe9a7aff	-0.30171964
61	0x3df11167	0.11770897
62	0xbc96f769	-0.018428521
63	0xbea6a14b	-0.32544932
64	0xbe3586c6	-0.17727193
65	0xbe8b79a1	-0.27241233
66	0x3cf1fff7	0.029540999
67	0x3dab90e7	0.08377247
68	0xbf1f8b32	-0.6232177
69	0x3d0a7288	0.03380063
70	0xbf2ab8a5	-0.66687995
71	0xbeb86c90	-0.36020327
72	0xbe14a546	-0.14516172
73	0x3f436d28	0.76338434
74	0xbcb1cea8	-0.021704987
75	0x3d688c97	0.056774702
76	0x3ec6c099	0.38818815
77	0xbf52032c	-0.8203609
78	0x3e4d3b3b	0.20042126
79	0xbf19f86e	-0.601447
80	0x3e877389	0.26455334
81	0x3e8bd9ac	0.27314508
82	0x3f7ecbf3	0.9952995
83	0x3e2bb498	0.1676811
84	0xbe63720e	-0.22211477
85	0xbc3e27f3	-0.011606204
86	0x3f91abdc	1.1380572
87	0xbf927dbf	-1.1444625
88	0xbf49975e	-0.78746593
89	0xbf2f9257	-0.6858267
90	0xbf24657a	-0.6421734
91	0xbde9ae97	-0.114102535
92	0xbe834276	-0.25636643
93	0xbe2ac3b6	-0.1667622
94	0xbebc9d19	-0.36838606
95	0xbeeb80ae	-0.45996612
96	0xbf61d301	-0.8821259
97	0x3ea9d6b1	0.3317161
98	0x3ebc3d07	0.3676531
99	0xbe779ac8	-0.24180138
100	0x3e00d142	0.12579826
101	0x3e118f1d	0.1421475
102	0xbd69474f	-0.05695277
103	0x3f496cfe	0.78681934
104	0xbebcc287	-0.36867163
105	0x3f9d639b	1.2296022
106	0x3e0bd0e9	0.13653912
107	0xbdf323bf	-0.118720524
108	0xbf980982	-1.1877902
109	0xbf5153cb	-0.8176848
110	0x3e193480	0.14961433
111	0x3eda570e	0.42644542
112	0xbf2e7857	-0.68152374
113	0xbea9935f	-0.33120248
114	0x3ee04ed0	0.4381013
115	0xbcbb214c	-0.022843026
116	0x3ee34c50	0.4439416
117	0xbea7b81d	-0.32757655
118	0x3f179cb2	0.59223473
119	0x3d0dfb83	0.03466369
120	0x3f8162e4	1.0108304
121	0x3e6f60c2	0.23376754
122	0x3dfd427e	0.12366198
123	0xbd2a2b95	-0.04154547
124	0xbe883435	-0.2660233
125	0xbf3d84a6	-0.7403053
126	0xbf23d6ec	-0.6399982
127	0xbf0d7961	-0.55263335
128	0xbecf2a10	-0.4046178
129	0xbe922a77	-0.28548023
130	0xbeb52094	-0.35376418
131	0xbf22390a	-0.63368285
132	0x3f624aed	0.8839558
133	0x3f07a399	0.52984005
134	0x3f03de75	0.5151132
135	0x3e3b431b	0.18287317
136	0xbe34b861	-0.1764846
137	0x3f193c77	0.5985789
138	0x3f063635	0.52426463
139	0x3ebb14e4	0.36539376
140	0xbe5c6807	-0.21524058
141	0x3f209438	0.62726164
142	0xbf7f6c30	-0.99774456
143	0xbfe04b52	-1.7522986
144	0xbf1580f9	-0.5839992
145	0xbf3b8be8	-0.73260355
146	0xbf58d951	-0.847066
147	0xbdd9a6b4	-0.10627499
148	0xbe85a8a8	-0.26105237
149	0xbea6b214	-0.32557738
150	0x3f1b1af0	0.6058798
151	0x3f785dda	0.97018206
152	0xbcaad23d	-0.020852203
153	0x3dd9cdee	0.10634981
154	0x3eafb112	0.3431478
155	0xbbf3fb64	-0.0074457396
156	0x3dad0353	0.084479
157	0xbe576f4b	-0.21038549
158	0x3f3cff6e	0.73827255
159	0xbe98d675	-0.29851118
160	0x3ea50af5	0.32234922
161	0x3e4b0137	0.19824682
162	0x3de2b5ab	0.11069807
163	0xbf80e3ef	-1.006956
164	0xbee3de64	-0.44505608
165	0xbf5527d8	-0.8326392
166	0xbf2898a6	-0.65857923
167	0x3eb20406	0.34768695
168	0x3e826e55	0.25474802
169	0x3f0cd5c1	0.5501366
170	0x3e74edf5	0.23918898
171	0xbd55c3ec	-0.0521888
172	0x3edb0ee9	0.42784813
173	0xbeffac05	-0.49935928
174	0xbd7d6828	-0.06186691
175	0x3f316e60	0.69309044
176	0xbebcb540	-0.36857033
177	0xbe8fb0de	-0.28064626
178	0xbd67ab21	-0.056559686
179	0xbf167d15	-0.5878461
180	0x3e9469fb	0.28987107
181	0xbf56641a	-0.8374649
182	0x3e93c735	0.2886292
183	0x3efb4a67	0.49080202
184	0x3eeaec37	0.45883343
185	0x3ee6cbfa	0.45077497
186	0xbeb3a016	-0.35083073
187	0xbf34a25c	-0.7056024
188	0xbe270204	-0.16309363
189	0xbdf5b007	-0.11996465
190	0x3e83e84b	0.25763163
191	0xbf22874b	-0.6348769
192	0xbf75503b	-0.95825547
193	0xbe93fa96	-0.2890212
194	0x3e596836	0.2123116
195	0x3e143f8d	0.14477368
196	0xbe01999d	-0.12656255
197	0x3ed84c61	0.42245772
198	0xbee5121c	-0.4474038
199	0x3e8d34f1	0.27579454
200	0xbd9e5d6e	-0.07732664
201	0x3f1c9c45	0.6117595
202	0x3e4f6901	0.202549
203	0x3db2711d	0.08712981
204	0x3f5ab28d	0.85428697
205	0xbe0bcb7f	-0.13651846
206	0xbf1499ab	-0.5804698
207	0xbf58f675	-0.84751064
208	0xbd2766c5	-0.040869493
209	0x3d42f0b3	0.04759283
210	0x3dc39124	0.09549168
211	0xbc2c30a4	-0.010509644
212	0xbe06c187	-0.13159762
213	0x3ea748a7	0.32672617
214	0xbecbf1d2	-0.39832932
215	0x3e690a0a	0.22757736
216	0xbf061e93	-0.523904
217	0x3d1e0786	0.038581394
218	0xbe90b036	-0.28259438
219	0xbda1397a	-0.07872291
220	0xbe97a349	-0.29616764
221	0xbebd8007	-0.3701174
222	0xbe7abb5c	-0.24485534
223	0xbd3a2ef6	-0.04545494
224	0xbdd44edd	-0.103666045
225	0x3e99fa48	0.30073762
226	0xbd559e57	-0.052152958
227	0x3e5d654c	0.21620673
228	0xbeeb27e5	-0.45928875
229	0xbf28df60	-0.65965843
230	0x3e6c004e	0.23046991
231	0x3ea701e1	0.3261862
232	0x3d11ab90	0.035564005
233	0x3ee73b38	0.45162368
234	0x3e576b22	0.21036962
235	0xbd0c1cde	-0.034207217
236	0x3f25709e	0.64624965
237	0xbdd3d6ea	-0.10343726
238	0x3f230aea	0.6368853
239	0xbd75e134	-0.060029224
240	0xbee8c59b	-0.4546326
241	0xbe83403f	-0.25634953
242	0xbec4013c	-0.38282192
243	0xbf2edcbe	-0.68305576
244	0xbe28c4bf	-0.16481303
245	0xbd7f6dad	-0.062360454
246	0x3e967d6d	0.29392567
247	0x3c738abb	0.014864619
248	0x3df95c95	0.12175862
249	0x3eb1ea61	0.3474913
250	0x3f026c78	0.5094676
251	0x3d960cfd	0.07326696
252	0x3eb1fc98	0.34763026
253	0x3f18f712	0.59752
254	0xbefbbef5	-0.49169126
255	0x3f348976	0.7052225

rnn.weights_lin_z f4 [16, 19]
0	0xbe29271c	-0.16518825
1	0xbc2ffe6c	-0.010741811
2	0xbe4508b0	-0.19241595
3	0x3e639b30	0.22227168
4	0xbe25ee55	-0.16204198
5	0x3dc36da2	0.09542395
6	0x3ed7434d	0.42043534
7	0x3dfc170e	0.12309085
8	0x3e956d31	0.2918487
9	0xbdbcb9ef	-0.092151515
10	0x3e933d8f	0.28757903
11	0xbddf7f0b	-0.109129034
12	0xbde75889	-0.112961836
13	0xbddef85d	-0.10887215
14	0xbdc62c85	-0.0967646
15	0xbec0dde6	-0.37669295
16	0xbe50e7f5	-0.20400985
17	0xbe69830b	-0.22803895
18	0x3e789692	0.24276188
19	0xbd99680c	-0.074905485
20	0xbe2c8324	-0.16846901
21	0xbed7a60e	-0.42118877
22	0xbd244d3a	-0.04011271
23	0xbe562cc2	-0.20915511
24	0x3ec0f798	0.376889
25	0xbd7b8614	-0.061407164
26	0xbebd6c3c	-0.3699664
27	0xbddd1b17	-0.107961826
28	0xbd69a714	-0.057044104
29	0x3e18e946	0.14932737
30	0x3d9c13e2	0.0762098
31	0xbdd15373	-0.10220995
32	0xbea9984e	-0.33124012
33	0xbde1b5f2	-0.110210314
34	0x3ed04ca6	0.40683478
35	0xbe809707	-0.25115225
36	0x3d6ed5ca	0.058309354
37	0xbe2ff96b	-0.17184989
38	0xbe761536	-0.24031529
39	0x3e3e3cb5	0.18577845
40	0x3e920809	0.28521755
41	0xbe2ef5cc	-0.17085952
42	0x3d938e2d	0.07204852
43	0x3e2ba5f1	0.1676252
44	0x3eaafc54	0.33395636
45	0xbe03af75	-0.128599
46	0xbe8c7bf6	-0.27438325
47	0xbe794d75	-0.24345954
48	0x3e657688	0.22408497
49	0xbdd783c5	-0.1052318
50	0xbca01986	-0.01954342
51	0xbe04dd28	-0.1297499
52	0xbd4b307c	-0.049606785
53	0xbe6026c1	-0.21889783
54	0x3e051ea3	0.12999968
55	0x3eae55c1	0.340498
56	0xbc80e4c0	-0.015734076
57	0xbd2b7ef8	-0.041869134
58	0x3e30c5a3	0.17262892
59	0x3dd22b9c	0.10262224
60	0x3c96ac06	0.018392574
61	0x3e507426	0.20356807
62	0x3e116e4b	0.1420223
63	0x3d98eb8d	0.07466803
64	0x3ddb1516	0.10697381
65	0x3d83f535	0.06443254
66	0xbd65243e	-0.055942766
67	0xbea210fe	-0.3165359
68	0x3e7e75ca	0.2484962
69	0x3ec7a51d	0.3899316
70	0xbd2ce0b4	-0.04220648
71	0x3eab9105	0.3350908
72	0xbc417336	-0.011807254
73	0xbc41a19b	-0.011818315
74	0x3dc79f59	0.0974719
75	0xbe662ed9	-0.22478808
76	0x3d8876e1	0.06663299
77	0x3e1b8938	0.15189064
78	0x3df45da9	0.11931927
79	0xbda5e0f2	-0.080995455
80	0x3e980dbd	0.2969798
81	0x3dd26088	0.10272318
82	0x3d818c50	0.063255906
83	0x3d94fe82	0.07275106
84	0x3d598774	0.053107694
85	0xbec2ec06	-0.38070697
86	0xbd3fee4e	-0.046858124
87	0xbe814f4d	-0.25255814
88	0x3dae2fc1	0.08505202
89	0x3e6c6345	0.23084743
90	0x3e7485c6	0.23879156
91	0x3dbaa7d3	0.09114041
92	0xbe803b48	-0.25045228
93	0xbe790098	-0.24316633
94	0x3e317609	0.17330183
95	0x3c9cde9d	0.019149119
96	0xbe863e73	-0.2621952
97	0x3e34e8fa	0.17666999
98	0x3dbbb53c	0.09165427
99	0xbd11b7bd	-0.035575617
100	0x3ebdedeb	0.3709558
101	0x3e9c0d95	0.30479112
102	0x3e3cb8af	0.18429826
103	0x3e0b2917	0.13589893
104	0xbe35c0c0	-0.1774931
105	0xbe2c67f8	-0.16836536
106	0x3e8bc33f	0.27297398
107	0x3e6a66a3	0.22890715
108	0xbdb17dbb	-0.08666559
109	0x3df0a502	0.11750223
110	0x3e34847b	0.17628662
111	0xbd95c3a6	-0.073127076
112	0xbe879c83	-0.26486596
113	0x3d28ff04	0.041258827
114	0xbd95538c	-0.07291326
115	0x3e69da46	0.22837171
116	0xbd8c50d7	-0.068513565
117	0x3e871528	0.26383328
118	0xbef51d3f	-0.47873875
119	0xbe0c19da	-0.13681737
120	0x3e8b23fd	0.27175894
121	0xbe4c8b32	-0.19974974
122	0x3ea8a9af	0.32941958
123	0xbe36c18f	-0.17847274
124	0x3e3cdad3	0.1844285
125	0xbe560b4b	-0.20902745
126	0x3bf4611a	0.0074578645
127	0x3ca3b127	0.019981934
128	0xbe2b062d	-0.16701575
129	0x3e1dbc47	0.15403853
130	0x3e39c8c8	0.18142998
131	0xbd3d6db8	-0.046247214
132	0x3e89ff34	0.26952517
133	0xbd8fbdb5	-0.070186056
134	0xbeb854c0	-0.3600216
135	0xbd9d0cd6	-0.07668464
136	0xbd3214d8	-0.04347691
137	0x3d0cd32d	0.03438108
138	0x3d9c5952	0.07634224
139	0x3dc8d7bc	0.09806773
140	0x3d454f3e	0.048171274
141	0x3ded02a5	0.1157277
142	0xbec388ff	-0.38190457
143	0xbd0d29ca	-0.03446368
144	0xbd8b3718	-0.06797618
145	0xbd0bdd46	-0.03414657
146	0x3e9bb533	0.30411682
147	0xbe3e83ff	-0.1860504
148	0x3e2d5f24	0.16930825
149	0x3d2c01a9	0.04199377
150	0xbea99b1f	-0.3312616
151	0x3d1a6f1e	0.037703626
152	0xbe16f96e	-0.14743587
153	0x3e3a49ec	0.18192261
154	0x3f59e210	0.8511057
155	0xbebe95e6	-0.37223738
156	0x3eeed508	0.46646905
157	0x3ead7668	0.338794
158	0x3da6a8f5	0.08137695
159	0xbe1e4f7d	-0.1546001
160	0x3e17fafe	0.1484184
161	0xbe5ecd25	-0.21757944
162	0xbec2a4ab	-0.38016257
163	0x3e1be7fe	0.15225217
164	0x3e6143d3	0.21998529
165	0x3d6cb62a	0.057790913
166	0x3eb1ddfc	0.34739673
167	0x3bca6ea5	0.0061777406
168	0xbdb4dde2	-0.08831383
169	0xbcc89f86	-0.02449013
170	0xbe3edf4a	-0.18639866
171	0x3e6bd829	0.23031677
172	0x3ba882de	0.0051425537
173	0xbe2f7b8d	-0.17136975
174	0xbdf12864	-0.11775282
175	0xbe11e56b	-0.14247672
176	0x3cddc961	0.027073564
177	0xbdb5198b	-0.088427626
178	0x3e8143e2	0.25247103
179	0x3e8ac707	0.2710497
180	0xbec1f95b	-0.37885556
181	0xbce262f2	-0.027635071
182	0xbe149194	-0.14508659
183	0xbda5c4e8	-0.080941975
184	0x3e5ab375	0.2135752
185	0x3cad93eb	0.021188697
186	0x3cff4b59	0.031163858
187	0x3e8ac6cb	0.27104792
188	0x3e01fcaf	0.12694047
189	0xbd4b1e39	-0.04958937
190	0x3e27c1c3	0.16382508
191	0xbe858668	-0.26079106
192	0x3e572b15	0.21012528
193	0x3ec4f7a2	0.3847018
194	0xbc2bdd28	-0.0104897395
195	0xbe5aa54d	-0.2135212
196	0xbe49ded5	-0.1971391
197	0x3e9f15a8	0.3107121
198	0xbdb0a916	-0.086260006
199	0x3e281804	0.16415411
200	0x3c870fd0	0.016487032
201	0xbec06508	-0.3757708
202	0x3e95c817	0.2925422
203	0x3eb3c29b	0.3510941
204	0xbcf61a6b	-0.030041894
205	0x3c1d52da	0.009602273
206	0x3ee9324f	0.45546195
207	0xbe051ed2	-0.13000038
208	0xbca48397	-0.020082278
209	0xbe406c84	-0.18791395
210	0xbca94174	-0.020661093
211	0x3df0e6b2	0.11762752
212	0xbe77682f	-0.24160837
213	0xbd5873cd	-0.05284481
214	0xbe9263c3	-0.28591737
215	0x3e180fbd	0.14849754
216	0x3e7bc47b	0.2458667
217	0x3d06def9	0.032927487
218	0x3dedda7e	0.1161394
219	0xbd8115c4	-0.063029796
220	0x3e467165	0.19379194
221	0x3df30664	0.11866453
222	0xbe81d2ce	-0.25356144
223	0xbdc98e7f	-0.09841632
224	0x3e5f02b3	0.21778373
225	0x3da4673a	0.080275014
226	0xbe9a827d	-0.3017768
227	0xbeb5704c	-0.35437238
228	0x3e14847e	0.14503667
229	0x3e0c5eb6	0.13708004
230	0xbe8f0077	-0.27930042
231	0xbe45fb41	-0.19334127
232	0x3a60683e	0.0008560455
233	0xbe6f117d	-0.23346515
234	0xbc841fb6	-0.016128402
235	0x3e482b6b	0.19547813
236	0xbaaeb156	-0.0013327997
237	0x3eb23759	0.34807852
238	0x3ce26bc9	0.027639287
239	0xbe04f383	-0.12983517
240	0x3d5c4db3	0.053785037
241	0xbdca8e75	-0.09890453
242	0x3b24ea3c	0.0025164029
243	0xbe1955e7	-0.14974175
244	0x3df0dbfe	0.1176071
245	0x3dcd874d	0.10035572
246	0xbeab6930	-0.3347869
247	0x3be60238	0.0070193075
248	0x3c4cfb37	0.012511066
249	0x3b2a8b0c	0.002602282
250	0xbe1596c2	-0.14608291
251	0xbe1134d9	-0.14180316
252	0xbd5c04e3	-0.053715598
253	0x3d805698	0.062665164
254	0x3d1b7276	0.037950955
255	0xbe2b9dce	-0.16759416

rnn.bias f4 [48]
0	0x3e9c086d	0.30475178
1	0x3f10d45b	0.5657403
2	0x3e880467	0.2656586
3	0x3ee72b39	0.45150164
4	0x3f006fe6	0.50170743
5	0x3e0bebfc	0.1366424
6	0xbdf11803	-0.11772158
7	0xbc315b31	-0.010824964
8	0xbe0aafac	-0.13543576
9	0x3fa5df84	1.2958837
10	0x3f36c5ea	0.7139574
11	0xbe9298f4	-0.2863232
12	0xbe4bf4e5	-0.19917639
13	0x3e9bbbcd	0.30416718
14	0x3ee0408e	0.4379925
15	0xbda5440f	-0.08069622
16	0x3e80bdad	0.2514471
17	0xba8955cc	-0.001047784
18	0xbe91eb66	-0.28499907
19	0x39f33398	0.00046387012
20	0xbf07c801	-0.53039557
21	0xbecb3df4	-0.39695704
22	0xbe83ac93	-0.257176
23	0x3e8aefb1	0.27135995
24	0xbdf8a0ba	-0.12140031
25	0x3ee41ede	0.445548
26	0x3edbbb22	0.42916209
27	0xbe996f90	-0.29967928
28	0xbe90c940	-0.28278542
29	0xbe736390	-0.23768449
30	0xbe93dfc4	-0.28881657
31	0x3d54d5c7	0.051961686
32	0x3f8701e0	1.0547447
33	0x3f15fe30	0.58590984
34	0x3f5e8106	0.86915624
35	0x3f7a5875	0.97791225
36	0x3d9828ca	0.07429655
37	0x3f75e6f8	0.96055555
38	0xbe4e157b	-0.20125382
39	0x3f77fea4	0.96872926
40	0x3fccf08d	1.601091
41	0xbf47109b	-0.7775971
42	0x3f057cd1	0.5214358
43	0x3f7d8fd6	0.990476
44	0x3f2d82e3	0.6777784
45	0xbe8bc7b2	-0.27300793
46	0x3f7b92ca	0.9827086
47	0x3f0fc0de	0.56153667

rnn.bias_lin_z f4 [16]
0	0x3e9273a7	0.2860386
1	0x3dd0498a	0.101702765
2	0xbec38fac	-0.3819555
3	0xbe612e41	-0.219903
4	0xbe6a4d71	-0.22881104
5	0xbd72f71c	-0.059317693
6	0xbd3fff42	-0.046874292
7	0x3dda2528	0.10651618
8	0xbeae3f72	-0.3403278
9	0xbca46146	-0.020065915
10	0xbe384c05	-0.17997749
11	0x3e3a8817	0.18215977
12	0x3f0acfcc	0.5422332
13	0x3ec71c89	0.38888958
14	0x3ee2fde6	0.44334334
15	0x3e29e40e	0.16590902

classifier.weight f4 [3, 16]
0	0xbead9e4c	-0.33909833
1	0xbf25fbd7	-0.648374
2	0x3ea3b7bf	0.31976125
3	0x3e191d0a	0.14952484
4	0xbed65000	-0.4185791
5	0xbf015cea	-0.505324
6	0x3ca8eb91	0.02062014
7	0xbdb343af	-0.08753144
8	0xbe2c7478	-0.16841304
9	0x3ed22f49	0.410517
10	0x3f8570a5	1.0425001
11	0xbd69dd56	-0.057095848
12	0x3e92501f	0.28576753
13	0xbe259dc1	-0.1617346
14	0xbe7aa1f7	-0.24475847
15	0x3e9058b2	0.2819267
16	0xbf17dbb7	-0.59319633
17	0x3dc13eeb	0.09435829
18	0x3ef09136	0.46985787
19	0x3e64ad72	0.22331789
20	0xbea8d3fe	-0.32974237
21	0xbf20a749	-0.62755257
22	0x3dc8908d	0.09793196
23	0xbf2bcbc7	-0.67107815
24	0xbe54a0c5	-0.20764454
25	0x3ec8551d	0.39127436
26	0xbe9c3daf	-0.3051581
27	0xbf25dea4	-0.6479285
28	0x3e2d3a05	0.16916664
29	0x3ec1d41a	0.37857133
30	0xbf252aae	-0.6451825
31	0x3f74c4ce	0.956128
32	0x3f074d7d	0.5285261
33	0xbecc2d4f	-0.39878318
34	0x3cc9865a	0.024600197
35	0xbf89428e	-1.0723436
36	0x3f3dfc9b	0.7421357
37	0x3ce48466	0.027895164
38	0x3ecbd7b4	0.39813006
39	0x3d4dc61f	0.05023777
40	0xbf1f477f	-0.6221847
41	0x3ec771e2	0.38954073
42	0xbe6c6af9	-0.23087682
43	0xbf3488dd	-0.70521337
44	0xbf142f03	-0.57884234
45	0xbf2444ef	-0.64167684
46	0xbec84823	-0.39117536
47	0x3e33b555	0.17549641

classifier.bias f4 [3]
0	0xb9a5209d	-0.0003149555
1	0xbc2a4092	-0.010391371
2	0xbdc8f99a	-0.09813233
