Final Project/LEM-main/models/lorenz63/8/model.pt (torch, 45847 bytes, 6 tensors)

rnn.weights f4 [150, 53]
00000000: bca0 bbbe 1630 29be ae0d b33d 1c24 d43c
00000010: d088 87be 28cd 103e 88ff 6fbe 834e 723d
00000020: f769 00be 3a0a 04be 2ff7 913c f0c2 16be
00000030: b7dd 5fbc dea5 ccba 48f8 52bd 89fe a8bd
00000040: 8c73 6bbd 88dc 61bd f82f 093e b729 243e
00000050: 3bb7 243e 376d 7dbd 823c 16bd c0d8 e5bd
00000060: db63 ed3d 13b3 1c3d 4708 10be 1515 133e
00000070: f974 c43e 1587 9cbe caa4 6c3e 41c9 e03d
00000080: ef48 6b3e 72d1 d6bd 21c9 ac3d 8e7e 893e
00000090: ebde 4f3e d8e8 c03d 8d6e 723d 00ff ec3c
000000a0: c212 65be 50cd a9bd 8165 c93d 792c 3c3e
000000b0: d21f a6bc 44d5 54bd a828 e93d fcd5 0fbd
000000c0: 186f 8dbd 32c4 2d3e 644e 66bc 3f09 893e
000000d0: dd1f fd3e a1f6 1bbe 2d30 b9bd 8e02 8fbd
000000e0: 670e 0abe 0027 30be db06 a93c fcc8 38bb
000000f0: 771e 663c 0507 403d 90d6 4b3d c16d 5ebe
00000100: 052c 0dbe 0ce7 acbd b42f a93c 896d 17be
00000110: fb59 91bd 40f4 a83c c36c 0dbe e97c 863e
00000120: 3374 7cbe 6295 663d 7e17 143e e423 88bd
00000130: 129b a4be ae9c 4cbe 72a0 d13d a46f 3ebe
00000140: 54b9 3dbd a309 693e 7bdf 8dbe deb0 3b3e
00000150: 9cc4 8c3d 20ea 233e 50b8 1c3d 8d79 e9bd
00000160: d492 a43d fdc1 2e3e 798b 883d 0749 dbbc
00000170: 2c41 ebbc b28d 66be 27f7 d53d cd62 d33d
00000180: 5759 983d b4a9 81bd 447b 7e3d 350a d53d
00000190: 24a0 013e 6b1e 39bd 9046 1f3e 2baa 12bf
000001a0: 8396 e23c 8ae7 323f b57a 9cbe a1e9 76be
000001b0: 8223 ccbd ce08 d4bc b15e afbd 04ea b7bd
000001c0: bb41 a4bd 2a67 cbbb 0ddd 1d3d 5e57 483d
000001d0: 821a 86be f95a 693e 2f64 853c 9d9a 033e
000001e0: 9183 16be cac6 653d ec89 d33e 144b aabe
000001f0: f6d9 9fbc c2dc 8f3e 0361 1fbe 2464 223d
00000200: e850 913e 038e c9be 8fcf 8dbe cfbf 873e
00000210: 651b 81bd 0534 9bbd 21ba 25bc 43a7 64be
00000220: cbfa f43d e4df a73d daac 4fbd f9d3 b73c
00000230: d5da f5bd 9a62 693d 0f33 5a3e 0c3c 02bb
00000240: d8bf 4ebe ef20 97be c354 1bbe b5e3 9fbd
00000250: 2669 373e d119 6e3e d586 a93d a4a5 0e3e
00000260: b53d a43d 0f02 223c 23d9 3cbe 90fd 1d3e
00000270: 4f3a 693e 64ea 0a3e eb3d 953e 03b2 95bd
00000280: 5fc8 04be 5bbb 9c3e 6687 bbbd 5c71 65be
00000290: a2c2 473d e228 ee3c bac5 de3c 19c2 2abe
000002a0: 5237 65bd 5363 06be f4ff 4e3d e80f 32be
000002b0: 80e7 8f3b bcf4 d9bd a295 b0bd 3256 b13e
000002c0: 7c4e 51bd adc8 053e ad01 34be 4795 823e
000002d0: 2f49 86be 3b5c e03c 6d88 4bbe 5608 12be
000002e0: 3e38 37be 1afd 43be 5e19 6a3e 5c95 e03d
000002f0: 0866 b8bd 46d2 023e 907b 0a3e 7bb1 ac3d
00000300: 07ce 1b3e ed2c 343d 3430 9a3e 8a07 8d3e
00000310: 9781 c1bd 68b9 3fbe adf0 9ebd a7d2 89bd
00000320: 5c04 e43c 7ca2 9b3e 974a f0bc 9ec3 41bd
00000330: 366c efbc 3d22 903e 17b1 813d bd61 19be
00000340: 4351 b8bd 50bb 643e 6b07 863e 7c20 1c3e
00000350: 5dfc 623d b44f 963d e7ca 83be 7621 acbc
00000360: dab0 b33c 4c1d 23be 2052 b3bc 58a1 e7bc
00000370: 9837 cbbc f4bc b3bd 6a11 c73c 306e 983e
00000380: 26e1 39be 12ac 833e 03a4 f0bd 59f6 9d3e
00000390: 7a84 1c3e a1d5 7abe 825f 0abe ae50 fe3d
000003a0: 68de f9bd 4ac7 613e 125e 853e d6b1 c6bd
000003b0: 1839 9b3d a57b 363e 6437 ef3d fc4c 88be
000003c0: 2a63 bcbe 3b3f 1dbe 7cc5 bebe e475 803d
000003d0: a44a aebe b6be 59bd c31c 1bbe 6762 bcbe
000003e0: 2205 813e 8656 41be 74f0 853e 5fac 7ebe
000003f0: 3cbe 843e 8f09 12be efbf 9bbd 4622 333d
-0.36646068 -0.1652225 0.087428436 0.025896125 -0.26471567 0.14140761 -0.23437321 0.059156906
-0.12540422 -0.12894526 0.017818062 -0.147228 -0.013663701 -0.0015613397 -0.05150631 -0.08251674
-0.05748324 -0.055141956 0.13397205 0.16031538 0.16085522 -0.061871734 -0.0366788 -0.112229824
0.115913115 0.038256716 -0.14065658 0.14363511 0.38370493 -0.3057181 0.23109737 0.10975886
0.2297704 -0.10489167 0.084368 0.26854366 0.2029988 0.094194114 0.05918746 0.028930187
-0.22370437 -0.082911134 0.098338135 0.1837634 -0.020278845 -0.0519612 0.11384708 -0.03511618
-0.06905955 0.16969374 -0.014056776 0.26764867 0.49438372 -0.152308 -0.09042392 -0.06982909
-0.13482057 -0.17202377 0.020633152 -0.0028195968 0.014045349 0.046881694 0.04976517 -0.21721555
-0.13786323 -0.08442506 0.02065263 -0.14787878 -0.070972405 0.02062428 -0.1381102 0.26267174
-0.24653701 0.056294806 0.14462087 -0.066474706 -0.3214956 -0.19981644 0.10235681 -0.18597275
-0.04631932 0.22757582 -0.27709565 0.18329188 0.06873438 0.1600728 0.03826171 -0.11400137
0.08035818 0.17066188 0.06667227 -0.02676822 -0.0287176 -0.2251499 0.10447531 0.10321579
0.07438915 -0.063311964 0.062129274 0.104023375 0.12658745 -0.045195024 0.15554261 -0.57290906
0.02765966 0.6988455 -0.30562368 -0.2411256 -0.0996771 -0.025883105 -0.08562983 -0.08980182
-0.080203496 -0.0062073665 0.03854089 0.048911445 -0.261921 0.2278861 0.016283123 0.12851949
-0.14698626 0.056097783 0.41316164 -0.33260405 -0.019513112 0.28098112 -0.15564351 0.039646283
0.2838204 -0.3936616 -0.27697417 0.26513526 -0.06304053 -0.07578281 -0.010115177 -0.2232943
0.119618975 0.081970006 -0.050701953 0.022439944 -0.120046295 0.0569788 0.2130854 -0.0019872217
-0.2019037 -0.29517314 -0.15169053 -0.078071035 0.17911205 0.23252036 0.0827767 0.13930374
0.08019582 0.009888186 -0.18442206 0.15428758 0.22776149 0.13565975 0.29148802 -0.07309344
-0.1296706 0.3061169 -0.091566846 -0.22406524 0.0487696 0.029072229 0.027193893 -0.16675605
-0.05596096 -0.13123827 0.050537065 -0.1738888 0.0043916106 -0.106423825 -0.0862229 0.34636074
-0.05110024 0.13064833 -0.17578764 0.25504515 -0.2622771 0.027387729 -0.19876261 -0.14260992
-0.17892548 -0.1913952 0.2286124 0.10965988 -0.09003836 0.12775525 0.13523698 0.08432289
0.15215312 0.043988157 0.301149 0.27544814 -0.094485454 -0.1872307 -0.07760749 -0.06729632
0.02783411 0.30397403 -0.029332442 -0.047305696 -0.029226404 0.28151122 0.06332605 -0.1497869
-0.089998744 0.22337079 0.26177534 0.15246767 0.055416454 0.07339421 -0.2574074 -0.02101205
0.021934915 -0.15929145 -0.021889746 -0.028275177 -0.024806783 -0.08776274 0.024300296 0.29771566
-0.18152294 0.25717217 -0.11750033 0.3085201 0.15284911 -0.24495555 -0.13512996 0.12417732
-0.12200624 0.22048679 0.26048332 -0.09701888 0.07579249 0.17820604 0.11680487 -0.26621234
-0.36794406 -0.15356152 -0.37260044 0.06272486 -0.3404132 -0.05316039 -0.1514769 -0.36793825
0.2519923 -0.18880662 0.26160014 -0.24870442 0.25926387 -0.14261459 -0.07604968 0.043733858

rnn.weights_lin_z f4 [50, 53]
00000000: c7bc 4fbd 683a e13d 1641 f73d 3b50 933d
00000010: 7bda a2bd 023c 233d 9f18 06be 5db3 d8bd
00000020: 2899 9f3d 3d17 b8bd d1ad 413d e796 28be
00000030: 901e 41bc bf02 cb3d 038d 373e 9820 803d
00000040: 7923 ddbc ef63 90bc 255b 2bbd 87ad f1bd
00000050: f534 34be dfe0 293c 6f44 0e3c d6c9 773d
00000060: 4beb 47bd 2139 d0bd 86ed 9cbd 43d7 37be
00000070: 5bbd c73c f04c fdbc 8e90 e1bd 1754 07be
00000080: 9a74 6dbd 33cc 193b b3d2 603d eae8 1c3d
00000090: 368c 013e a1f6 6dbd 7f95 f13d 9766 d5bd
000000a0: 1620 8d3d a314 29be 056b b2bd 9efd 1cbe
000000b0: ef21 363d 5aa6 a4bc 653c 04be 139d 603e
000000c0: 20f2 e63d edb0 703d 99ae fc3d 0128 00be
000000d0: 7085 20be 3956 18be f761 ee3d cd30 79bd
000000e0: 8953 6bbd 3ebe 7ebd a348 a8bd ee32 dc3d
000000f0: 2c46 84bd 76e8 743c 02b9 c7bc bccd 023e
00000100: 7114 063e 2b31 d4bd d362 e83d 67a5 3d3e
00000110: a3a2 2b3d 6187 9cbd c4c1 83bc ec84 4bbe
00000120: 7e90 6e3d 6cac 31bd b585 13be e990 cd3b
00000130: af7b 3abd e2ac 33be 8a63 53bd f832 da3d
00000140: fa84 ab3d 20e5 a1bc dd02 0e3e a86c 2d3e
00000150: 58b8 9c3e 94a0 dd39 7c62 c8bc 09ad 84bd
00000160: 9957 29be f4d8 8dbe 8835 0d3d 8d65 bcbd
00000170: fd53 043e d18b 4f3e 1722 dd3c 2977 8e3c
00000180: 04c2 d2bd 2515 333e 0399 3abe 9999 303e
00000190: 1e5d c2bd 3246 893d c8a0 7e3e e3fb 39be
000001a0: d6ca fbbc 68d7 06be 2b6b 8ebc ccb9 d1bd
000001b0: 7000 67bc add0 623d 7f70 8dbd 6417 ec3c
000001c0: 3627 8d3d 6cfa e2bd 0d50 903c f372 5fbd
000001d0: 0139 733e 4da6 bcbd 014b acbc 281f e9bd
000001e0: bb05 a43d 30ab 7939 53cc fb3d c167 953d
000001f0: fd86 bf3d 4005 35be 1063 013e 9dd8 dfbd
00000200: 464b ef3c e4a2 38be dfd8 bcbd 5422 323c
00000210: 4ad2 043e 3ab7 8a3d 3eed 143e ff45 c3bd
00000220: 15c1 ea3c 9504 02be 056c 4cbd 374e c13d
00000230: ed6e 7abc 3eb6 6dbd 83b5 023e 4959 403d
00000240: 7e7b 36be f16b d13d 29d3 9fbd c3ea e0bd
00000250: c4a2 a83d ba24 993d 566c 89bd f160 2abe
00000260: 05d7 a8bd fdaf 6e3d 95e1 023e 34f9 c33d
00000270: 952a b73a 6167 343c a691 eabd 7df3 c73c
00000280: 1419 1d3d 5a9b 1dbc ae9f 073e aca2 cb3d
00000290: e3a9 c03d fe7f f03c b775 1abe 8308 833d
000002a0: 8b24 babd 6a19 163d 4779 61bd 9fb0 103e
000002b0: 0e20 91bd 2fee 16bd 9ff1 2cbe 6232 f1bd
000002c0: 7e0e d63c ec6b a3bd 924c 31bd 8bc5 81bd
000002d0: e1c9 edbd bbbe d0bd 4760 56bd ee31 ed3c
000002e0: 9492 1bbd efe8 223e 7d66 b0bd ee55 19be
000002f0: 71a8 dcbd af5b d83d 8272 3dbd 6338 7bbd
00000300: c3e1 b3bb c819 173e 24f3 953d 7c02 383d
00000310: 1a93 f33c ff6b 023e 07a4 193e bdd3 1e3e
00000320: 12b2 5d3d 36aa 12be ee77 8ebd 6423 b2bd
00000330: cc97 f33d f7f6 cd3d 60ee 2a3d 1e69 893d
00000340: 4e2a 763d 9932 09be 77c6 14bc 0238 c13d
00000350: f719 1b3e 0180 853a 693b 803d 8cfe 4d3e
00000360: ba39 813d bd8a 693c d97c 763d 5e8f be3b
00000370: 3c63 6f3c bf65 4ebe 3b58 29be 949f 2bbe
00000380: 4de1 253e cb47 babd 665e e83d 2d25 53be
00000390: e791 433d f793 3bbd 8de8 46bd 0d0e 393c
000003a0: a473 bcbb 3e14 1cbe c097 62bd ef6a ba3d
000003b0: 66cc 903d 801f 9ebd 3efb 823d 57ac 0cbe
000003c0: b3a3 9bbd 95d3 2ebe 95f7 893d b38a c53c
000003d0: 6bf7 a73d a737 ccbc 1f31 b33b a533 35be
000003e0: c6c3 bfbc f356 c13d 71cd 5c3d eadc 6b3d
000003f0: 4950 9e3d 4e59 c9bd e6ed cabb a432 163d
-0.05071714 0.10997468 0.12072961 0.07193037 -0.07951828 0.03985215 -0.1309533 -0.10581086
0.07792884 -0.08988807 0.047284905 -0.16463815 -0.011787072 0.09912633 0.17924885 0.06256217
-0.026994454 -0.017625777 -0.04183497 -0.11800676 -0.17598327 0.010368555 0.008683308 0.06049522
-0.048808377 -0.101671465 -0.076624915 -0.1795321 0.024382284 -0.030920476 -0.110139 -0.13215671
-0.057972528 0.002346766 0.05488844 0.03830806 0.12651142 -0.05809653 0.11796092 -0.10419958
0.068908855 -0.16511779 -0.087118186 -0.15331122 0.044465955 -0.020098854 -0.12913664 0.21934919
0.112766504 0.05876248 0.12337989 -0.1251526 -0.15675902 -0.14876641 0.11639779 -0.060837556
-0.057452712 -0.062193148 -0.08216979 0.107519016 -0.06458697 0.014948001 -0.02438021 0.12773794
0.13093735 -0.103609405 0.11346974 0.18520127 0.04190315 -0.07643009 -0.016083606 -0.19874924
0.058243267 -0.043377325 -0.14406474 0.006273378 -0.04552811 -0.17546418 -0.0516086 0.10654253
0.08374973 -0.019762576 0.1386828 0.1693598 0.30609393 0.00042272045 -0.024461024 -0.06478316
-0.16537322 -0.27704585 0.03447488 -0.09199057 0.12922664 0.2026818 0.026993794 0.017390804
-0.10290912 0.17488535 -0.18222432 0.17246093 -0.09490417 0.06702842 0.2486602 -0.18162493
-0.030736368 -0.13168108 -0.017385086 -0.10240516 -0.014099225 0.05537479 -0.069062226 0.028819747
0.068922445 -0.110829204 0.017616296 -0.054552983 0.23752214 -0.09211407 -0.021031858 -0.11382896
0.080089055 0.00023810263 0.12294831 0.0729518 0.09351919 -0.17677784 0.12635446 -0.109299876
0.029210698 -0.18030888 -0.092210524 0.010872442 0.12970844 0.06773229 0.14543626 -0.09534835
0.028656522 -0.1269706 -0.049907703 0.094387464 -0.015285236 -0.058035128 0.12764554 0.04696015
-0.17820546 0.10225666 -0.078039475 -0.10982277 0.0823417 0.07477708 -0.067101166 -0.16638543
-0.08244137 0.058273304 0.12781365 0.09569016 0.0013974482 0.011010976 -0.114535615 0.024408096
0.038353994 -0.009619558 0.13244507 0.099431366 0.09407403 0.029357906 -0.15083967 0.06398108
-0.09089001 0.03664533 -0.0550473 0.14129876 -0.07086192 -0.036848243 -0.16889046 -0.11777188
0.026129957 -0.07979569 -0.043285914 -0.063365065 -0.11610771 -0.10192629 -0.05233791 0.028954472
-0.037981585 0.1590917 -0.08613298 -0.14974186 -0.10774315 0.10564362 -0.04625178 -0.06133307
-0.0054895594 0.14755929 0.07321766 0.044924244 0.02973323 0.1273651 0.15003978 0.15510459
0.0541249 -0.14322743 -0.069564685 -0.086981565 0.11894187 0.100568704 0.04173124 0.06709503
0.06009894 -0.13398208 -0.009080521 0.09434511 0.15146624 0.0010185243 0.062613316 0.20116633
0.063098386 0.014254269 0.060177658 0.0058154305 0.014611062 -0.20156 -0.16537564 -0.16760093
0.16199227 -0.09095725 0.1134613 -0.2061965 0.047746565 -0.045795407 -0.04856162 0.011294854
-0.00575109 -0.15242097 -0.0553205 0.09102427 0.07070236 -0.07720852 0.06395577 -0.13737617
-0.075995825 -0.170729 0.06736676 0.024113989 0.08201488 -0.02492888 0.005468502 -0.17695482
-0.023408782 0.09440412 0.05390686 0.057583727 0.07730157 -0.09831487 -0.0061929105 0.03666939

rnn.bias f4 [150]
00000000: 3d59 d53d d899 b33e 2a4e 7a3e 7cd0 263e
00000010: 50bf 813d b672 933e 6fab ff3d 8e78 2fbd
00000020: 4e73 e03d a782 b33e 00e9 c7bd 2748 e93e
00000030: 46d8 bf3e ce1a 5f3d 9b1c 503d 3aef db3d
00000040: eac7 efbb b005 773e 1e89 8a3e cf57 ac3e
00000050: 527a 903e e9b0 d53e e28c db3e aae8 613e
00000060: e13e c43d dee1 143f a0ed 703e 02f8 063f
00000070: c884 433e 1457 473e 74a7 6d3e 14c1 ad3e
00000080: dd98 223e 3065 253f 912b 4f3c 6e30 8b3e
00000090: 853c 0d3e 9440 2f3e 9df8 5b3e 0c41 b53e
000000a0: d08d d23e 8407 a03e 941d 033e 108c d23e
000000b0: af7f 0c3f b3cb a1bd dac5 fb3e 0efd a23e
000000c0: 0145 bd3e f485 b73e aa5f 353e 42e7 edbd
000000d0: e75b 743e 5a2e e43d 3cc5 abbd 6670 003e
000000e0: 0f5f 56be 909d 1b3e 8dea 21be e438 87be
000000f0: 0f0f b5bd 2bbe 19be b14d 313e 1545 65be
00000100: b11e 8fbd 0382 06be 8b0c 223d 3a11 7b3e
00000110: 34a4 d83c 2d5a 46bd c339 7fbe a00c da3d
00000120: b171 df3e fc72 2abe 02e3 a93e f96f 953e
00000130: 6b39 5f3d 1357 5fbe 16ea 703e dca6 92bd
00000140: e17f 41be 43fb 43be 89f2 fc3d d89b e1be
00000150: 0f32 e1bc 38e8 10be b8a6 103e 7c31 5a3e
00000160: 1db1 e6bd e86d 073e 2f40 59bd f026 cabd
00000170: 2987 5dbc 8721 e9bd d160 74be cba9 67bc
00000180: 279f a9be e09a 873d cedc 7fbe f7bc efbd
00000190: 4ca8 8d3e 9564 903e e2fd be3e cd30 553e
000001a0: 20d9 733c c812 893e 9735 0d3f 4a69 383e
000001b0: e94d 853e bb0b b03e 9067 f33e babb 29be
000001c0: 5dcf 9d3e 3f1e a53e c1f3 2f3c c6ff 9c3e
000001d0: 08e1 a23e a04c b73e a5b0 053f 4f96 e03e
000001e0: da61 bd3e 0c1c e43e 1654 fc3e deb7 a83e
000001f0: 2fd7 cc3e 2a9e bb3e 967d ee3e ae11 9e3e
00000200: 4c46 fb3d fe98 a03e 27fd a63e 7b95 783e
00000210: f5b0 3f3e 8143 3a3e d9bc 043f 35d9 d93e
00000220: 30e6 cd3e 7c00 073f 0f8c b73e f68d b23e
00000230: 7e6a 0c3f e193 353f cfaa af3e fea3 da3e
00000240: e330 e83e adc1 893e 0ac0 de3e f4ff d93e
00000250: e013 e03e c9f4 a63e
0.104174115 0.3507831 0.2444388 0.16290468 0.06335318 0.28798455 0.1248387 -0.04283958
0.109594926 0.35060617 -0.09761238 0.4556286 0.3746969 0.054468922 0.05080853 0.10738988
-0.007317533 0.24123263 0.27057737 0.33660743 0.28218323 0.41736534 0.42880923 0.2206141
0.09582306 0.58157146 0.23528147 0.5272218 0.19093621 0.19466811 0.2320841 0.3393637
0.15878625 0.64607525 0.012644664 0.27185386 0.13792618 0.17114478 0.21481557 0.3540119
0.4112382 0.31255734 0.12804252 0.41122484 0.5488233 -0.07900181 0.49174386 0.3183369
0.36966708 0.35844386 0.17712274 -0.116163746 0.23863183 0.11141653 -0.08387229 0.12542877
-0.209347 0.15196824 -0.1581213 -0.26410592 -0.08840763 -0.1501395 0.17314793 -0.22389634
-0.06988276 -0.13135533 0.039562743 0.2451829 0.026445486 -0.048425842 -0.24924378 0.10646939
0.43641427 -0.16645426 0.33181006 0.2918699 0.054498117 -0.2181056 0.23526797 -0.07160732
-0.18896438 -0.19138817 0.123509474 -0.44064212 -0.02748969 -0.14151084 0.14126098 0.2130794
-0.112642504 0.1322552 -0.053039726 -0.09870708 -0.013520994 -0.11383348 -0.23865058 -0.014139603
-0.33129236 0.06621337 -0.24986574 -0.11705964 0.27667463 0.28201738 0.37303072 0.20819397
0.01488331 0.2677214 0.55159897 0.18008915 0.26036003 0.3438395 0.4753995 -0.16575518
0.30822268 0.32249638 0.010739268 0.3066389 0.3181231 0.35800648 0.52222663 0.43864676
0.36988717 0.44552648 0.49282902 0.3295278 0.40007922 0.36644107 0.4658019 0.30872864
0.122692674 0.31366724 0.32615015 0.24275772 0.18719848 0.18189813 0.5185066 0.42548528
0.40214682 0.52735114 0.35849044 0.34873933 0.54849994 0.7092877 0.34310004 0.4270324
0.45349798 0.26905575 0.4350589 0.4257809 0.43765163 0.3260863

rnn.bias_lin_z f4 [50]
00000000: e9f5 203d a34d 36be 906d 123d af6f 80bd
00000010: bbc7 f83d a6cf bd3d f005 8d3e 6793 43be
00000020: bd5b ad3d 0c0a dbbd 7936 2abe c316 ce3d
00000030: 964c b1bd d377 7a3e d27a 913c 2299 c43d
00000040: 2fe4 a03e bd81 b13b bc6f c13d 0438 173d
00000050: ab36 5f3e 7f2a 7dbd 8ff1 1a3e 0c7c 4e3d
00000060: ab1a a43c 9625 213e 889e 5c3e d2ff 383d
00000070: 5906 5fbe 8efd fa3d 8774 213e c1c7 a23c
00000080: 024c c0bd 16e6 323e 193a 9c3a ad95 bebe
00000090: 582b 413e 2d28 a5be 69fa e13d 6d35 7dbe
000000a0: 55c6 ed3c 65fe fabe b600 8e3d 558d b13c
000000b0: ad81 06be 3135 4ebc 69b2 b3bc 9094 3bbe
000000c0: 90c8 7f3e 631c 18be
0.03929702 -0.17803054 0.03574902 -0.06271302 0.121474706 0.092681214 0.27543592 -0.19099198
0.08464763 -0.10695276 -0.16622342 0.10062935 -0.08657186 0.24459772 0.01775876 0.0959952
0.3142409 0.0054170773 0.0944514 0.036918655 0.21798198 -0.061808106 0.1513121 0.05041127
0.020032248 0.15736994 0.2154485 0.045165844 -0.21779765 0.12255393 0.15767108 0.01987064
-0.09389497 0.17470583 0.001191917 -0.3722357 0.1886419 -0.32257214 0.1103409 -0.24727412
0.029025236 -0.49022213 0.06933729 0.021673838 -0.13135405 -0.012585924 -0.021935659 -0.18318391
0.24978852 -0.14854579

classifier.weight f4 [3, 50]
00000000: 55e4 be3e a40c e8bd ebe4 cd3e c451 f8be
00000010: ada2 00be 46d0 893e 5963 013e 34ba 163e
00000020: ac25 623e f3fa adbe 5d96 c7be 5afa 29be
00000030: bf16 1fbe fb40 dd3d add8 7b3e b439 dbbe
00000040: d8ab a8bd 52e6 523d c6d4 f13d 2f7b bfbe
00000050: 8f87 983e 1197 6abc d14c d1be 9ad1 b43c
00000060: 5583 8d3e 5c9e 80be bc7f 1dbd 5ccf 4b3d
00000070: 34c0 37be 4841 823e 0566 583e 3494 58be
00000080: ddd6 8d3e 0944 893e 1c9a 543e 3ef0 f53d
00000090: a638 48bb e685 cabd 02be 67be 2f1a 9d3c
000000a0: 3bc7 ebbc 5e81 113e 2f8f 973e d1ce 30be
000000b0: 775e 263e c8bd 4bbe 11e0 813e ad19 03bd
000000c0: c615 3fbe 846a c6be 25bc 25be cac4 70be
000000d0: b28a 97be 3e0f 8cbe 9c33 133d 2798 b63e
000000e0: adae 643e e584 ddbd 62f5 883e 6a4e 4dbe
000000f0: db18 c5bd 8568 3a3e ec75 233f 58ab afbe
00000100: 7e85 df3d 30fb b63d 87b9 893d 6f7b 8b3e
00000110: bf97 153f eb24 1abf 520f 213e 4b53 74be
00000120: 11ba a33c 26c5 76bb f9e8 16be 7af8 f5be
00000130: 8696 a73c 8aef 033f 86ce 663e c244 263e
00000140: e7bb fa3e 9bf7 38bc 656f 863e b9aa 5abc
00000150: 8ce3 b43e 5a27 a23e 3cc6 72be 627a 55be
00000160: 366b 8f3e 550b 433e 4717 14be 28c0 403e
00000170: f3e9 08bd b5a2 393e e8c7 bbbe adb7 93bd
00000180: 7bff 9b3e ecc9 0e3e dd17 ffbb 8115 97bc
00000190: 2489 26bf 9c89 b3be d63b 4ebe c667 6b3e
000001a0: 6249 38be 0050 073e 04bb cdbc db84 2d3e
000001b0: 148d 23be 4206 ecbe aab7 01bf de71 a43d
000001c0: d7fd c9bc 6c38 1ebe fd9c 23bd 5f06 a3bc
000001d0: 0814 ac3e ffd5 0ebe 9f99 bbbc 320d 283e
000001e0: 472c a2be d2c8 893e e23a f53c 63d6 a1be
000001f0: 84c8 e3be 1d52 523e 060f c4bd aa05 00bd
00000200: 533b b7bd 4520 0cbe 2504 9e3e e87c 0f3f
00000210: aa80 a1bd e633 babe bbc4 a93e 9367 f63d
00000220: bd87 453e dfcf 9a3c 1a34 17bf f59b b63d
00000230: 8cab 5cbe 24b7 e6bd f867 b53e 0171 043f
00000240: e174 c43e b7a5 22bd c065 993c e846 bb3d
00000250: 9a9f 6ebe 8015 cd3d
0.3728358 -0.11330536 0.40213713 -0.48499882 -0.12562056 0.26916713 0.12635554 0.14719468
0.22084683 -0.33980522 -0.38981906 -0.16599408 -0.1553602 0.1080341 0.24594374 -0.42817461
-0.082359016 0.05148918 0.118081614 -0.3739867 0.29790923 -0.014318244 -0.4087892 0.022072602
0.2763926 -0.2512082 -0.038451895 0.0497583 -0.17944413 0.2544043 0.21132667 -0.21150285
0.2770299 0.2680972 0.20761913 0.12008713 -0.0030551343 -0.0988882 -0.22631076 0.019177524
-0.028781524 0.14209506 0.29601428 -0.17266394 0.16246973 -0.19896615 0.25366262 -0.03200691
-0.1866065 -0.3875314 -0.16185053 -0.23512569 -0.29598004 -0.2735538 0.03593789 0.35662958
0.22332259 -0.10816363 0.26749712 -0.20049444 -0.096238814 0.18203934 0.6385181 -0.34310412
0.109141335 0.08934629 0.0672484 0.2724261 0.5843467 -0.6021258 0.157285 -0.23859899
0.019986184 -0.003765413 -0.1473731 -0.48041135 0.020457517 0.5153738 0.2253972 0.16237167
0.48971483 -0.0112895025 0.26256862 -0.0133463675 0.35329854 0.31670648 -0.23708433 -0.20847467
0.28011483 0.19047292 -0.14462005 0.18823302 -0.033426236 0.18128474 -0.36675954 -0.07212768
0.30468354 0.13944215 -0.007784827 -0.018442871 -0.6505301 -0.35065925 -0.20140013 0.22988805
-0.17996743 0.13214111 -0.02511359 0.16945212 -0.15971786 -0.46098524 -0.50670874 0.08029531
-0.024657173 -0.1545121 -0.039944638 -0.019900499 0.33609033 -0.1394882 -0.0229004 0.16411284
-0.31674406 0.26911026 0.029935304 -0.31608877 -0.4448892 0.20539136 -0.09573178 -0.0312554
-0.08946862 -0.13684185 0.30862537 0.56049967 -0.07885869 -0.3636772 0.33157906 0.12031474
0.19290061 0.018897949 -0.59063876 0.08916465 -0.21549815 -0.112654 0.35430884 0.5173493
0.38370422 -0.03970882 0.018725276 0.09144384 -0.2330307 0.100138664

classifier.bias f4 [3]
00000000: a642 c23c 6481 b0bd 2cf7 673d
0.023713421 -0.08618429 0.056632206
