Final Project/LEM-main/models/lorenz96/1/model.pt (torch, 12695 bytes, 6 tensors)

rnn.weights f4 [48, 36]
000000 99 c0 93 be ed 9e 52 bd 90 73 a8 bd 2b 52 5e 3d
       -0.28857878 -0.051421095 -0.08225167 0.05427758
000010 83 06 22 be 65 fe a1 3d 45 ef 9d 3d d4 4a 81 bd
       -0.15822797 0.0790985 0.07711653 -0.063131005
000020 74 2a f1 3d 1a 56 00 3e 6c ae 14 3e 60 5b a7 bd
       0.117756754 0.12532845 0.14519662 -0.08171725
000030 f3 f0 fd 3d 8e d6 39 bc a9 0c b0 ba a1 67 d3 3e
       0.12399473 -0.011342658 -0.0013431507 0.4129
000040 6a 37 17 bc f5 29 0e 3b 10 d1 93 bc 6b c9 49 bd
       -0.00922952 0.0021692489 -0.018044025 -0.049264353
000050 97 59 9e bd d0 4a 35 bc a5 10 aa bd 99 77 af 3d
       -0.07731932 -0.0110652 -0.08303956 0.08567733
000060 57 fc 9c 3c 48 38 d5 bd bb cc 01 bd cf 46 c9 bc
       0.019163294 -0.104111254 -0.031689387 -0.024569897
000070 07 7c b9 3c 28 2b 95 bc 26 23 06 bc 15 23 94 3d
       0.022642149 -0.018209055 -0.008187091 0.07233254
000080 db 78 f5 bc 3a 18 1d bd c8 cc 39 bd 38 e8 96 3d
       -0.029964855 -0.038353182 -0.04536131 0.07368511
000090 1e f1 70 3d 29 9f fd bc 31 b5 70 be b2 b3 f5 bd
       0.058823697 -0.030959683 -0.23506619 -0.11997165
0000a0 b6 88 9b be 4f 79 c0 bd af 78 52 bd 45 91 4c 3d
       -0.3037774 -0.09398138 -0.051384624 0.049943227
0000b0 df 58 d9 bd 48 60 5c 3e 25 26 9d 3c 9c da 84 bb
       -0.10612654 0.21521103 0.019183228 -0.0040543806
0000c0 a4 12 d5 3d 33 01 85 be d3 a1 14 bb 08 63 96 3e
       0.10403946 -0.25977477 -0.0022679463 0.2937243
0000d0 26 c9 b0 bd d1 ee e9 bc 57 0d 5e 3d f6 81 59 3d
       -0.08632116 -0.02855626 0.05421194 0.053102456
0000e0 a7 4b cf 3c d9 d1 4d bd 8a dc bd bd 8e c7 c6 3d
       0.025304629 -0.050248954 -0.0927058 0.09706031
0000f0 a4 37 83 bc 29 75 19 bd e7 b1 b6 bd 20 fb 3f 3d
       -0.016017742 -0.03746525 -0.08920651 0.04687035
000100 86 cd 53 bd 07 58 49 bc b4 4f 3e 3d 6f 49 83 bc
       -0.051709674 -0.012289054 0.04646273 -0.016026227
000110 ff ea 3e bd 53 65 18 bd 70 f7 b9 bc c0 76 b9 3d
       -0.04661083 -0.037206005 -0.022700995 0.09055853
000120 31 91 e4 bd d4 9f 57 be 6e 75 79 3e f4 8c 0e be
       -0.111605056 -0.21057063 0.24361202 -0.13920957
000130 de f8 d3 3b 3e 55 bd bd af e4 02 3e fb cd 84 bd
       0.0064688763 -0.09244774 0.12782548 -0.064846
000140 f2 8a 05 bd 58 12 0b 3f 22 27 19 3d 7c cb 99 3e
       -0.03260321 0.54324865 0.037390836 0.3003806
000150 56 c8 ac bd dc 90 e3 bd cd 6b 23 3e 8f 80 07 bd
       -0.084366485 -0.11111614 0.15959091 -0.033081587
000160 46 23 9e 3b 6a ff 45 3d ff 70 9f 3d 7f 5b 28 3d
       0.0048259823 0.048339285 0.07785224 0.041102882
000170 2d 2d a1 bd 39 6a ef bc 5c 7e 84 bd cb 42 2a bc
       -0.07869945 -0.029225456 -0.06469414 -0.010391901
000180 58 54 73 3d fb 0d 44 bd e0 ca 40 bd 12 1c e3 bc
       0.05940661 -0.047864895 -0.047068477 -0.027723346
000190 1a 5d 8c bc 55 dd f8 3a 1e 76 03 be b2 82 7c bd
       -0.017134238 0.001898686 -0.12838027 -0.06164808
0001a0 c0 99 38 3d 7c 44 9a 3b 02 1e 97 3c 53 64 53 3d
       0.045068502 0.004707871 0.018446926 0.05160935
0001b0 54 de 8c be 79 bf 7b be 4d 00 47 be 28 cf 1f 3d
       -0.27513373 -0.2458476 -0.19433708 0.03901592
0001c0 86 74 2d bc b2 ee 33 3e f8 a4 25 bd 68 98 b5 bc
       -0.010586863 0.17571524 -0.04044053 -0.0221674
0001d0 83 72 0e 3e ff 9f 74 be f1 0c a7 bc 08 63 21 be
       0.1391087 -0.23889159 -0.020391913 -0.15760434
0001e0 67 cc 6f 3d 5d 0b d6 3c 49 43 2b bd af 17 c5 bc
       0.058544543 0.026128465 -0.041812215 -0.024059145
0001f0 09 4e 83 3d 1b 4d 85 bc 5b 9f 55 bd 7f cc b3 bc
       0.064113684 -0.016272118 -0.052153926 -0.021948097
000200 82 5c 9d bc ac e4 fa 3c 06 d4 78 bc 17 43 ab 3d
       -0.01920915 0.030626617 -0.015187269 0.08362406
000210 8b fe 4f 3d 63 fe f0 bc 2e b6 af 3c aa d0 ae bd
       0.05077986 -0.029418176 0.021449175 -0.08535893
000220 3e f4 1a bd f9 3a df bd bc 0e bd bc 67 77 4d bd
       -0.037830584 -0.1089992 -0.023078315 -0.0501627
000230 f8 63 89 bd ce 87 36 3c b1 f1 f4 3c 97 7e 00 3a
       -0.06708521 0.011140777 0.029900404 0.0004901676
000240 99 6e 5f be 8e ea 34 be d5 41 99 3e 25 97 1c be
       -0.21819533 -0.176676 0.29933038 -0.15292032
000250 42 96 1c 3d 2e 7e 35 3d 70 c9 15 3e 3e e6 93 bc
       0.038229235 0.044309787 0.14627624 -0.018054124
000260 f6 03 99 bd 11 e6 35 3e 24 4d 71 bd 6a fd cf bd
       -0.074714586 0.17763545 -0.058911458 -0.10155757
000270 70 9b 11 be 25 a7 a2 3d 56 f0 f6 3d 5c b5 a1 3d
       -0.14219451 0.079420365 0.12057559 0.0789592
000280 18 61 54 bc a5 07 9e bd 92 98 89 3d 00 3b 68 3c
       -0.012962602 -0.07716302 0.067185536 0.014174223
000290 c4 60 94 bc 11 21 41 bb 48 bd 0e 3c 56 81 a1 3c
       -0.018112548 -0.0029469172 0.00871212 0.019714992
0002a0 3f ef f8 3c db 21 d2 bc f2 a5 08 bd 89 ef 05 be
       0.030387519 -0.02565091 -0.033361383 -0.13079657
0002b0 e5 65 25 bd c4 b7 91 3b 81 51 a1 bd 4b 1c 96 3c
       -0.040380377 0.0044469554 -0.07876874 0.018324038
0002c0 53 f3 27 bd db 6c a6 bd d1 4f 54 bc 5e 7e 92 bc
       -0.041003536 -0.08126231 -0.012958483 -0.017882522
0002d0 cc a7 26 be 3f 1a 81 3e ff 68 27 be b1 8c e3 3b
       -0.16274947 0.25215337 -0.16348647 0.006944262
0002e0 85 b3 a1 bd 94 e9 23 3d 49 7e 04 3e c8 15 c6 3b
       -0.07895569 0.04001768 0.12938799 0.006045077
0002f0 d7 5c 5b 3d d0 4b f1 3c 3f 0b 25 3e d9 c5 5a be
       0.053555336 0.029455096 0.16117571 -0.21364535
000300 0c 23 4b 3e 35 1a b1 3c 65 38 5d bd 70 14 a3 3d
       0.19837588 0.021618942 -0.05400886 0.079628825
000310 57 49 1b bd 20 f8 41 3c 47 44 a7 3c ee b1 4b bd
       -0.03791174 0.011838943 0.0204183 -0.049730234
000320 05 2b 30 3c 0e 30 20 3c 6d 4b 3a bd c1 f1 44 bc
       0.010752444 0.009777082 -0.045482088 -0.012020529
000330 41 f0 16 3d 9c b4 dc bd 61 67 fd 3c c7 64 8a bd
       0.036850218 -0.10776636 0.030933084 -0.06757503
000340 a4 d4 f7 3c f0 3d ef bc c6 82 5c 3d 36 7d cd b7
       0.030252762 -0.029204339 0.053835653 -2.449621e-05
000350 0f 2f a2 3c 4a 90 3a bc 71 80 b0 bc 83 a2 d1 bd
       0.01979783 -0.01138694 -0.02154562 -0.10236075
000360 c8 a3 5f be ed 6f 5b bb 1c d8 4e bc d3 5a 00 bc
       -0.21839821 -0.003348346 -0.012624767 -0.007834154
000370 ab 8d 8f be 8d f5 4e be 12 cc 3a be 8d 70 2e 3d
       -0.28037772 -0.20210858 -0.18241909 0.042587806
000380 1c da 05 3d 97 0b 21 3e 8c c7 00 3e 00 1e 2f 3d
       0.03267871 0.15727077 0.12576121 0.04275322
000390 2e d7 02 bd 7e b8 c0 bd c1 c4 1f be 67 8f 96 bd
       -0.031943493 -0.09410189 -0.156024 -0.073515706
0003a0 d4 a6 5a 3d 31 7b cb 3d 89 bb 30 3d 62 0a a0 3d
       0.053381756 0.09935606 0.043147597 0.0781448
0003b0 63 ff 0b bd ad d8 bb bc cb e6 d3 3b 1e ea 16 bd
       -0.034179103 -0.022930468 0.0064667217 -0.036844365
0003c0 ba 1e cb 3d e8 0f ed bc 4a 80 0e 3c 30 5d 84 3d
       0.0991797 -0.028938249 0.008697579 0.064630866
0003d0 79 26 3d bd 5f dc e0 3c f5 77 3e 3b 35 17 5a bd
       -0.04617927 0.027448831 0.00290632 -0.05324479
0003e0 8c 96 72 bc b4 61 d5 bd e6 47 53 bc 49 27 de bb
       -0.014806401 -0.10419026 -0.01289556 -0.0067795855
0003f0 82 af 86 3d 84 00 d0 3b d5 1d 11 bd c4 54 04 bd
       0.06576444 0.0063477177 -0.03542884 -0.0323074

rnn.weights_lin_z f4 [16, 36]
000000 83 0a 2a 3e cb 22 23 3c 9f f8 b8 be ac f6 ac bd
       0.16605572 0.009957026 -0.36127183 -0.084454864
000010 5a 3e 1a 3e c9 fe 8f be 12 ce 97 be 2d 48 23 bf
       0.15062848 -0.28124073 -0.29649407 -0.63782007
000020 c2 0b e2 3c 41 2c 34 3f 72 74 2d 3d b8 90 0d 3e
       0.027593497 0.70380026 0.04234738 0.13824737
000030 02 26 1e be 32 ce aa bd b1 ae 2d be 6f d7 e2 bd
       -0.15444186 -0.0834011 -0.1696117 -0.11076247
000040 4a e1 f3 3d 25 a5 8d 3d c3 f5 15 3e fb 77 f2 3d
       0.11908205 0.069162644 0.14644532 0.11839291
000050 8e e2 99 bd 69 a7 4d 3d f4 81 1d 3d 7f 24 42 3e
       -0.07513915 0.050208483 0.03845401 0.18959235
000060 c5 b9 da 3d 6c f8 c6 bd e9 08 bd 3d d6 0e 95 bd
       0.10679964 -0.097153515 0.09230215 -0.0727822
000070 de b8 1c 3d 55 01 eb 3c c0 b0 a8 bd b4 c3 10 3e
       0.03826224 0.028687159 -0.082368374 0.14137155
000080 5a 54 5c be 8e 20 e1 bd d2 9d 37 bd b1 5a 27 be
       -0.21516553 -0.109925374 -0.044828244 -0.1634319
000090 08 56 80 be 4e 95 03 bf c6 fe 9d be 33 35 d9 be
       -0.25065637 -0.51399696 -0.3085844 -0.424234
0000a0 21 72 9f be 85 47 f7 3c a2 80 84 be 1d 0b 8f 3e
       -0.3114176 0.03018547 -0.2587939 0.27938166
0000b0 0f f2 d8 be 11 cf 71 bd ad 25 24 be 7b e5 7d be
       -0.42372176 -0.059035365 -0.16029997 -0.24794571
0000c0 6f 8a b6 be b6 cc 25 3d 41 ff 8d bd 5b e3 a1 be
       -0.3565249 0.04047843 -0.069334514 -0.3161877
0000d0 5a f9 d0 3d e6 1e 96 bd 60 ec f0 3b f4 0b 4e 3d
       0.1020381 -0.07330112 0.007352397 0.05030437
0000e0 70 c5 7d 3d 8a c5 e9 3b f9 1f 3b 3e d2 bb 51 3e
       0.06195587 0.007134144 0.18273915 0.20481804
0000f0 ee fd c4 3d 1b 76 03 ba 7a ec cb bd 5b 5a 38 bd
       0.09618746 -0.00050148525 -0.09957214 -0.045008045
000100 34 a0 60 ba cf 9d 06 be 30 43 c9 bd 51 2b ce bd
       -0.0008568794 -0.13146137 -0.09827268 -0.10066856
000110 cb b9 ce bd ab 50 c3 3c 98 1c bd 3d 4f 2c 7a 3e
       -0.10094031 0.023842176 0.092339694 0.24430965
000120 d1 0f 48 be 4b 4b 8c 3d 27 16 d8 3e 90 e5 e1 3e
       -0.19537283 0.068502985 0.422044 0.44120455
000130 53 5d 96 3e 94 f6 25 3e 89 9c 14 bf fa 14 58 3e
       0.29368076 0.16207343 -0.58051354 0.21101752
000140 0e b8 32 3e db b1 a0 3c 90 67 e6 3d 78 76 bb be
       0.17453024 0.019616058 0.11250222 -0.36613822
000150 42 60 9a be 26 33 f8 be 5c 87 53 be b4 8b 37 be
       -0.30151564 -0.48476523 -0.20657104 -0.17924386
000160 1d 83 14 3d 99 f3 7d 3c 10 4d 39 bd 1b 00 c0 3b
       0.036257852 0.015499973 -0.04523951 0.0058593876
000170 dd 5e 35 3d 05 96 c2 3c 49 7e 1a bd be 0c b8 3d
       0.04427992 0.023753176 -0.03771809 0.089868054
000180 11 8e 70 3e 51 4a be 3c b6 38 44 bd 77 22 89 3e
       0.23491694 0.023228796 -0.047905646 0.26784107
000190 41 85 d5 3c b6 de bb 3d e2 d6 67 3e c0 20 03 be
       0.026064517 0.09173338 0.22640565 -0.12805462
0001a0 91 1f 10 be 64 19 1e 3d 9a f3 13 be 4c dd ad bd
       -0.14074542 0.038598433 -0.14448395 -0.08489475
0001b0 dd 2f 58 3e 7c b7 a8 3c ad df 1b be 99 45 58 be
       0.21112008 0.020595305 -0.15222044 -0.211203
0001c0 4c c4 c8 be 69 18 31 3f 16 cc 1c be b3 e4 46 3e
       -0.39212263 0.6917787 -0.15312228 0.1942318
0001d0 90 25 b5 3e 1f 54 d8 3d cb af 81 3e 9c bf 94 bc
       0.3538022 0.1056292 0.25329432 -0.018157773
0001e0 cb da be 3e 53 24 4f 3e 99 16 46 bf 14 0e 9e 3e
       0.372763 0.202287 -0.7737823 0.30870116
0001f0 ef f7 80 bd 99 2b b1 3d 43 50 b8 3d 51 25 f7 3d
       -0.062972896 0.08650894 0.08999684 0.120676644
000200 05 4c a1 3e b4 f1 cc 3d 12 68 77 bd 37 f6 02 3d
       0.3150331 0.10007039 -0.060401984 0.03197309
000210 7d 58 84 3c e1 06 09 3e 9c c9 33 3d e9 ce 0f be
       0.016155476 0.1338153 0.04389344 -0.14043774
000220 2c 48 73 bd c6 82 c2 3b ca 95 81 bd de 0e e5 bd
       -0.059395 0.0059359996 -0.06327398 -0.11184476
000230 56 86 fa bd 78 c2 24 3d 29 0d 08 3d eb 38 0a bd
       -0.12232654 0.040224522 0.033215676 -0.033745687
000240 f1 0f 9e bd 77 11 38 3e 8a 77 7e 3e 12 81 e3 bd
       -0.07717884 0.17975412 0.24850288 -0.111086026
000250 aa 66 34 bf 0c 94 a1 be bb 45 cf be 5b 50 11 3e
       -0.7046915 -0.31558263 -0.40482888 0.1419081
000260 bc 80 d4 3d b6 e6 d2 3e 0d 0e 1d 3e 9a 03 01 3e
       0.10376117 0.41191643 0.15337391 0.1259903
000270 87 8b 2f 3e 65 05 9d be 2c d5 d0 3e a3 fb 6e 3e
       0.17143069 -0.30668178 0.40787637 0.2333818
000280 29 d7 4c bd 58 e4 e7 3d 10 7e b9 3d 9f 70 f0 3c
       -0.05000988 0.1132285 0.09057248 0.029350577
000290 02 1e 02 bd 86 1b 10 bd 0a a6 e1 bd 07 87 14 be
       -0.0317669 -0.0351825 -0.110179976 -0.14504634
0002a0 fd b8 80 3d 16 6b 36 be 6f 49 e6 bc 3d 05 f5 3d
       0.06285284 -0.17814288 -0.028111188 0.1196389
0002b0 66 5d 56 be 97 33 e4 bd 4d f7 76 3d 9f ff 95 3c
       -0.20934066 -0.111426525 0.06029444 0.018310366
0002c0 4e d5 62 bd 35 b7 93 bd 3e ee 48 3e 95 9c bd 3d
       -0.055379204 -0.07212678 0.19622132 0.09258381
0002d0 18 fb c4 be d4 8d 1b be 01 be 11 3f 9d 1a ff 3d
       -0.3847282 -0.15190822 0.5693055 0.12456248
0002e0 f9 02 12 be 52 98 0e bf 00 0b 33 be 53 9c 68 be
       -0.14258946 -0.5570117 -0.17484665 -0.22715883
0002f0 5e e4 cf bc 7a ab a2 bd 77 17 9c be de 54 dd bc
       -0.025377449 -0.07942863 -0.30486652 -0.027018007
000300 7f 92 30 be 8b a5 44 3f 21 d6 a3 be c3 f2 d8 3e
       -0.17243384 0.768151 -0.31999305 0.42372712
000310 41 1f 63 3c 63 af 09 3d bc 4c ea 3c d4 d7 5c 3e
       0.013862432 0.033614527 0.028601043 0.21566707
000320 71 00 c1 3d 4e af 22 3e 14 3f 6a 3e 26 cf 07 be
       0.09423912 0.15887186 0.22875625 -0.13262615
000330 f2 8b cb 3c 07 1c 2c bc cb 9c 94 be 20 e2 b8 bb
       0.024847005 -0.010504729 -0.29025874 -0.0056421906
000340 81 9c a4 bc fb 3f ad bc db e5 b1 3d 16 bf a1 3d
       -0.020094158 -0.021148672 0.086864196 0.07897775
000350 4e 1f 50 3d d4 5d ab bd 75 e1 d0 bd cc db bf bc
       0.050811104 -0.08367506 -0.101992525 -0.023420237
000360 35 a1 1a 3e 7d dc a7 be 42 63 bd 3e 3f 38 8c 3e
       0.15100558 -0.32785407 0.3698979 0.27386662
000370 ca 61 16 3b 98 3f b5 3e 27 ac 2b bd 9b c3 ca 3c
       0.002294647 0.3540008 -0.041912224 0.024751475
000380 6b 5e 45 bf a4 01 40 3e a6 80 b9 3e 56 58 fe 3e
       -0.77097195 0.18750626 0.36230963 0.4967677
000390 d8 f5 25 3d b2 05 34 3e 3d c1 e5 bb 3a ec cc bc
       0.040517658 0.17580298 -0.007011561 -0.025014985
0003a0 d0 60 d2 bd ee 26 dd 3d 02 62 1e be 2c 3e 2b 3d
       -0.10272372 0.10798441 -0.15467075 0.04180734
0003b0 02 c9 d0 3d 3e 5b 8a bd e3 2e e6 3d 71 ca 3e 3d
       0.10194589 -0.06755684 0.11239412 0.046579782
0003c0 f1 4c ba bc fa 68 4a bc 95 b1 75 3c f0 be 11 bd
       -0.022741767 -0.01235413 0.014995952 -0.035582483
0003d0 bb 8d ca bd 98 53 66 3e 0d d2 af 3d c1 ea 3b 3d
       -0.09890314 0.22492826 0.08584986 0.045878176
0003e0 2d c8 02 3a 9a 3c 83 be 51 e2 06 3e 7a 0c 06 3d
       0.0004988935 -0.25632173 0.1317227 0.032726742
0003f0 b0 8e 25 3f 6e 77 c1 bd 4a fe 8b 3e 7c 8f d2 be
       0.6467085 -0.094466075 0.27342445 -0.41125095

rnn.bias f4 [48]
000000 a0 33 7d bf 0a a5 67 bf e4 99 81 bf 96 cc 72 bf
       -0.989069 -0.90486205 -1.0125089 -0.94843423
000010 01 27 7b bf f4 46 86 bf 60 3a 04 bf aa 31 9b bf
       -0.9810639 -1.0490403 -0.51651573 -1.2124531
000020 2f 40 87 bf 62 32 7e bf 44 86 34 bf 1c 11 62 bf
       -1.0566462 -0.9929563 -0.70517373 -0.88307357
000030 80 d0 89 bf 3e 16 8a bf d2 92 80 bf a1 1f 67 bf
       -1.0766754 -1.0788038 -1.0044806 -0.90282637
000040 ec 9e 3b 3c 79 85 b8 bc 51 30 f8 bc b5 94 59 bc
       0.011451464 -0.022524582 -0.030296477 -0.013280083
000050 38 20 d9 3c 60 64 4d bd 9e 7f 9b 3c 3c 1d 1f 3d
       0.02650462 -0.050144553 0.018981751 0.03884624
000060 eb 38 8b bd ef 7d 75 3b a0 58 38 3d e7 96 c2 3b
       -0.067979656 0.0037459095 0.045006394 0.005938399
000070 23 9f 0d bb 91 9c f4 bc 5d 38 12 3d 53 d8 dc bb
       -0.0021609745 -0.029859813 0.035698283 -0.006739655
000080 6a 5f 23 3f d8 aa 08 3f 75 77 ff 3e 72 41 cb 3e
       0.63817465 0.53385687 0.49895826 0.39698368
000090 07 10 0e 3f cc e1 94 3e 8f e5 08 3f 85 98 0c 3f
       0.55493206 0.2907852 0.5347528 0.54920226
0000a0 83 ce ee 3e c5 84 18 3f 23 f7 dd 3e cf bb ea 3e
       0.4664193 0.5957759 0.43352613 0.45846412
0000b0 02 b3 c9 3e 4d 7e bd 3e 6d aa be 3e 08 c3 0a 3f
       0.39394385 0.37010422 0.372394 0.54203844

rnn.bias_lin_z f4 [16]
000000 03 65 0d bc d9 d3 00 3d dd 87 82 3d c7 88 45 3c
       -0.00863004 0.031452034 0.0637357 0.012056536
000010 82 93 b2 bb f1 ab 8b 3d fe dd 70 3d 5a b4 22 3d
       -0.005449713 0.068199046 0.05880546 0.039722778
000020 9d cb 90 3b 04 db 2b 3c ce ba 27 bd 2c 3f 32 bd
       0.004418804 0.010489229 -0.040949635 -0.043517277
000030 6e d7 8d 3a 59 74 69 bc 91 7c a1 3d 86 cf 48 3c
       0.0010821649 -0.014248931 0.07885087 0.012256509

classifier.weight f4 [20, 16]
000000 89 62 2b 3f e5 e4 92 3e 3d 49 41 3e e8 d5 92 be
       0.6694723 0.28690258 0.18875594 -0.28678823
000010 4c a6 c5 be 01 c5 f1 3d 5a 42 e3 be 70 87 bd 3e
       -0.38603437 0.11805154 -0.4438656 0.37017393
000020 42 3a 96 bf d4 5b d0 3e e0 5b 3d 3f a4 b0 19 bf
       -1.1736529 0.4069506 0.73968315 -0.6003516
000030 2b 2e bf 3f 17 16 30 bf 12 52 7d 3f ed 28 a2 bc
       1.4935964 -0.68783706 0.98953354 -0.019794906
000040 07 4b 0a 3f a6 ef 46 bf 0d d6 d3 3c 95 da e8 3e
       0.5402073 -0.77709424 0.025858903 0.45479265
000050 a6 c5 04 3f 10 c6 c5 3c 64 da 80 3e 56 d2 4c 3f
       0.5186409 0.024142295 0.2516662 0.8000845
000060 99 02 0c bf 34 b3 09 bf 68 b4 4e bf 6b f3 8a bf
       -0.54691464 -0.5378907 -0.8074403 -1.0855535
000070 29 e5 4f bf 8b 48 98 bf 7f 9d 6d 3f 79 40 5e 3e
       -0.81209046 -1.1897138 0.92818445 0.21704282
000080 d6 75 54 3f a3 a8 21 be 0d f3 e8 be 48 86 02 3f
       0.82992303 -0.15786986 -0.45497933 0.50986147
000090 ec 46 39 3f 59 d0 34 3e 93 2c 97 bf 3e 11 6d be
       0.72373843 0.17657603 -1.1810478 -0.23151109
0000a0 87 21 d7 3f 0d 33 6d bf f9 61 b0 be b2 78 78 be
       1.6807107 -0.9265602 -0.34449747 -0.24264792
0000b0 83 92 a1 be 99 ee 2e 3d 67 ae d4 3c 8e ec fe be
       -0.31557092 0.042708013 0.025962068 -0.49789852
0000c0 81 4e 17 3f 3d 60 89 3e 48 2d db 3b e9 7a 73 3f
       0.5910416 0.26831236 0.0066887476 0.9510942
0000d0 a6 e3 6c 3e 2c 3d 8e 3f 93 cf 3b 3d 2a 3c 80 bf
       0.23133716 1.1112418 0.045852255 -1.0018361
0000e0 d1 1b 0e bd b4 7f a6 be 52 a3 74 3f 97 53 4e bf
       -0.034694497 -0.32519305 0.9556171 -0.805963
0000f0 78 48 f6 3e 2c 9e b5 3f 05 ed 09 bf 72 da 0c 3f
       0.48102164 1.4188895 -0.5387729 0.5502082
000100 51 ed 36 bf 74 c9 79 3e 78 04 a4 3e 8d fa ea 3f
       -0.71455866 0.24393255 0.3203466 1.8357712
000110 58 30 33 be 21 81 a6 3e d1 9b 16 3f 97 be 4b 3d
       -0.1749891 0.32520393 0.58831507 0.049742308
000120 2b cc 50 bf ff d0 8d 3f d8 19 1b bf 2d ef 34 3d
       -0.81561536 1.1079406 -0.6058631 0.04417341
000130 0c 12 89 be 76 80 33 3f 49 c4 f8 3e 86 a2 06 bf
       -0.2677158 0.7011789 0.48587254 -0.5259174
000140 77 19 8b bd 3d ab 79 be d3 ba 0f bd f7 b2 5c 3e
       -0.067919664 -0.24381728 -0.03509028 0.21552645
000150 78 b1 7b be c5 85 7e 3f 52 f0 c0 be 9b ea 7e 3f
       -0.24579418 0.99422866 -0.3768335 0.9957673
000160 5f d1 3a 3f b7 b4 99 3f e7 ad 8e bf 31 d1 99 3f
       0.72975725 1.2008275 -1.1146821 1.2016965
000170 b1 6c 39 3f c0 f2 14 bf 79 98 4d be dc d5 b9 3e
       0.72431475 -0.5818291 -0.20077695 0.36295974
000180 7a 90 ac 3e 4a 57 7b 3f 26 0c b9 be 4e 0f 61 bf
       0.33703977 0.9818007 -0.3614208 -0.8791398
000190 11 61 62 bf c5 69 76 3f 77 3f 1e 3f 2a 50 b1 be
       -0.8842936 0.9625514 0.6181559 -0.34631473
0001a0 dd 7b 14 3f 41 c5 88 bd f1 38 cd be cb 7e 0c be
       0.580015 -0.06678248 -0.40082505 -0.13720243
0001b0 71 04 97 be 87 2b 15 bf bf 8d e6 3e 41 8e ca 3f
       -0.29495576 -0.5826954 0.4503002 1.5824662
0001c0 c5 43 99 3f a2 d5 b5 3f b7 4e 33 3f de 2c 5f be
       1.1973807 1.420582 0.70041984 -0.21794459
0001d0 6d 0d 36 bf db 5e 82 bf d0 c1 db 3e f9 92 c3 be
       -0.71114236 -1.0185198 0.42921305 -0.3819807
0001e0 6c b2 e9 be 8d c2 16 bf 77 8e 5b bf 4c c8 f5 3e
       -0.45643938 -0.5889061 -0.8576426 0.48004377
0001f0 13 23 42 bf 7c bb 1f 3f 0d 56 96 3e 7e d3 84 be
       -0.7583477 0.62395453 0.29362527 -0.25942606
000200 03 2e 8e 3e c1 b5 f2 3e fa 90 ac 3f 69 ac c9 3d
       0.2776948 0.47404292 1.3481743 0.09847338
000210 f1 26 cb 3e c2 52 ed 3d ea a7 8f be 17 52 f4 3f
       0.39678147 0.115880504 -0.28057796 1.9087552
000220 a7 db 98 be fe 82 7f bf 57 14 d0 3e 4f 86 f1 3e
       -0.2985508 -0.99809253 0.40640518 0.47172782
000230 48 1f 10 bd 89 49 fc 3e 7a 8d 5b bf 47 ed 63 bc
       -0.035186082 0.49274853 -0.8576275 -0.013911552
000240 39 76 40 bf db 2b a1 be 35 43 04 be bb 8b 58 3f
       -0.75180393 -0.31478772 -0.12916262 0.8458821
000250 17 39 85 bf 72 81 37 be dd c1 ee bb 20 24 76 3f
       -1.0408047 -0.17920473 -0.007286294 0.9614887
000260 54 f3 54 3f 22 0c 9c be f4 ed d2 3f 49 39 eb 3d
       0.8318379 -0.30478007 1.6478868 0.11485536
000270 89 ff 37 bf 6e ca ca bd db 4f 26 3f a2 c7 0d 3f
       -0.7187429 -0.09901892 0.649656 0.5538274
000280 2b ce d3 3e 97 e1 40 bf c2 55 da be 11 bd 37 3e
       0.4136823 -0.7534422 -0.42643553 0.17943217
000290 f7 a9 9b bd 08 59 d8 bf a8 3a 89 3e 5b c7 a6 3c
       -0.076007776 -1.690217 0.26802564 0.020358732
0002a0 22 60 34 3f 21 eb 47 3f 51 55 19 bc 04 e2 07 3e
       0.7045919 0.78093153 -0.00935872 0.13269812
0002b0 81 99 1f 3f f4 ca 60 3f df 20 4c 3f bf 9f 8e 3f
       0.62343603 0.8780968 0.7973766 1.1142501
0002c0 a2 42 f8 be 5f 1e bb bd cd 13 b7 3f c8 4f 81 bf
       -0.48488337 -0.09136652 1.4302918 -1.0102472
0002d0 e9 05 40 3f 95 a3 59 3d 4a 70 fe be b8 a5 04 3e
       0.7500902 0.05313452 -0.49695045 0.12953842
0002e0 42 32 7f 3e c9 04 94 3f b0 f8 ff be f8 c9 87 bf
       0.24921516 1.156396 -0.4999442 -1.0608511
0002f0 14 a1 f5 be 85 7c 58 3f e9 91 0c 3a f0 11 3c 3f
       -0.47974455 0.84565 0.00053623185 0.7346487
000300 b0 bc 6d 3d 17 7c 10 3e ec 5e 4b 3d 37 96 b6 be
       0.058041275 0.14109837 0.04965107 -0.3566148
000310 57 2d ba bf ce ae 19 3d 24 8f cd be 04 96 cc 3c
       -1.4545087 0.037520222 -0.4014827 0.024973877
000320 b4 ae 46 3e 02 77 79 3f c9 a0 6f 3d e0 36 92 bf
       0.19402581 0.97447217 0.058502946 -1.1422997
000330 c3 cb 58 bf fb c8 bd be b9 95 8e bf 09 20 81 bf
       -0.84685916 -0.37067398 -1.1139442 -1.0087901
000340 a3 60 b2 bd 9c 45 4e bf a7 d0 db 3e 1c 5f 6d 3e
       -0.08709838 -0.80574965 0.42932627 0.23180813
000350 cc 14 88 bf fd 5a 30 be 9e 12 b8 3f 38 f8 87 3d
       -1.0631347 -0.1722221 1.4380682 0.06639141
000360 eb 9b 05 3f 50 17 64 bf e7 c4 d3 be 0b 6c 81 be
       0.52191037 -0.8909807 -0.41361162 -0.25277743
000370 e3 0a a0 3f dd 7b e8 be 61 c0 86 bf 4c 9f 21 be
       1.2503322 -0.45407 -1.0527459 -0.15783423
000380 12 76 93 be d0 f6 07 bf c3 c0 ae 3f ef 3d ab be
       -0.28801018 -0.5311098 1.3652576 -0.3344569
000390 63 4b 26 3f fe 65 f8 3e a2 64 5c 3f d0 98 91 bf
       0.6495878 0.48515314 0.86091053 -1.137476
0003a0 66 dd e5 3e d6 2f 63 be 81 93 31 3f 5c f3 88 3f
       0.44895476 -0.22186217 0.693657 1.0699267
0003b0 0a eb 72 be c6 bb eb be a1 7f 60 3f 21 51 c5 be
       -0.23722473 -0.46041697 0.87694746 -0.3853846
0003c0 b7 df 7e 3f 6d 1b 14 bf a7 06 64 bf 7a b8 75 bf
       0.9956011 -0.5785435 -0.8907265 -0.95984614
0003d0 85 67 93 3e b0 ee 1d 3f 7e 08 b8 3e f4 9e e9 3e
       0.28789917 0.61692333 0.3594398 0.45629084
0003e0 5f 03 06 bf af 5c 12 3f 1a 73 16 3f 1d bc 85 3f
       -0.52348894 0.57172674 0.5876938 1.0448033
0003f0 85 de 5b bf dd 99 52 3f 93 a4 25 3e 27 1e ab be
       -0.8588641 0.82266027 0.16176061 -0.33421442

classifier.bias f4 [20]
000000 98 8c 36 bd 48 dc d2 bd b4 2e 05 3d 48 c4 83 3d
       -0.044567674 -0.102959216 0.032515243 0.06433922
000010 42 79 53 bd f0 07 14 bb 7e 54 4a bd ef 66 a7 bd
       -0.051629312 -0.002258774 -0.049396984 -0.0817393
000020 9b 02 10 bd ed c5 71 3c e0 98 22 3d 70 f6 06 bd
       -0.035158735 0.014756662 0.039696574 -0.032949865
000030 2e 7c b7 3c 31 59 b3 38 03 b3 c1 bc 31 b1 bd 3b
       0.02239808 8.551998e-05 -0.02364493 0.005788945
000040 c7 4d 25 bc ee 99 0d 3e 92 4d 5c 3d 58 2d bb bd
       -0.010089344 0.13828251 0.053784914 -0.09139508
