Final Project/LEM-main/models/lorenz63/5/model.pt (torch, 45847 bytes, 6 tensors)

rnn.weights f4 [150, 53]
0	0xbeaec9e5	-0.34138408
1	0xbe832cb3	-0.2562004
2	0x3cf94683	0.03042913
3	0x3d68d7ca	0.056846417
4	0xbe72feed	-0.23730059
5	0x3e0c0e4c	0.13677329
6	0xbe421b93	-0.18955831
7	0x3d18b011	0.037277285
8	0xbe013e5e	-0.12621447
9	0xbe52b321	-0.20576145
10	0xbdd02213	-0.10162749
11	0xbe21c039	-0.15795983
12	0x3b774b9d	0.0037734278
13	0x3c8e4555	0.017367044
14	0xbdba161e	-0.0908625
15	0xbd9ceb71	-0.076620944
16	0x3d8aaecc	0.06771621
17	0xbdc4dd88	-0.09612566
18	0x3d5a8b9d	0.0533558
19	0x3e4a65e4	0.1976543
20	0x3e2ef65e	0.17086169
21	0xbcc4f2b6	-0.024041515
22	0xbd5962b3	-0.053072643
23	0xbe0e4bc4	-0.1389609
24	0xbd58b242	-0.052904375
25	0x3daf1af1	0.085500605
26	0xbdd658c3	-0.10466149
27	0x3df9c6c3	0.12196114
28	0x3e975e99	0.2956436
29	0xbe9344f9	-0.2876356
30	0x3e69dbba	0.22837725
31	0x3e20aa6e	0.15690014
32	0x3e165ced	0.14683886
33	0xbdd4555a	-0.10367842
34	0x3e1a16d3	0.15047769
35	0x3e7deeb8	0.24798095
36	0x3e9372cd	0.28798524
37	0x3d80b89e	0.06285213
38	0xbcd20c73	-0.025640702
39	0x3cb4dc6c	0.022077762
40	0xbe6a73f4	-0.22895795
41	0xbdf236f0	-0.11826885
42	0x3e3655f2	0.17806223
43	0x3e7a4d68	0.2444359
44	0x3d8780bf	0.06616353
45	0xbcbf0104	-0.023315914
46	0x3dd5d580	0.104411125
47	0xbdc0048d	-0.09375868
48	0xbd586dae	-0.052838974
49	0x3df21e9b	0.11822244
50	0xbcf4c222	-0.029877726
51	0x3e325916	0.17416796
52	0x3e8f4e9f	0.2798967
53	0x3d50f0e9	0.051011
54	0xbdad7f6f	-0.08471572
55	0x3dc79ea1	0.09747053
56	0xbe81e256	-0.25367993
57	0xbe4bb1a2	-0.1989198
58	0x3db51751	0.08842338
59	0x3dcef1d1	0.101047166
60	0x3d5b7727	0.05358043
61	0x3e1b84d1	0.15187384
62	0xbd04c0da	-0.03241048
63	0xbe1ae64b	-0.15126912
64	0xbd49dba9	-0.04928175
65	0xbcac38a0	-0.021023095
66	0x3bb8313c	0.0056211036
67	0xbdcf4088	-0.1011973
68	0xbde0e834	-0.10981789
69	0xba68d411	-0.0008881698
70	0x3c80f3c2	0.015741233
71	0x3e387dc6	0.18016729
72	0xbe9613b1	-0.29311898
73	0x3e4318d8	0.19052446
74	0x3d0ab7d4	0.03386672
75	0xbdff5117	-0.124666385
76	0xbdf60be1	-0.120139845
77	0xbc5f9878	-0.013647191
78	0x3d0dfa09	0.03466228
79	0xbe45cacd	-0.19315644
80	0xbbbf9ecc	-0.0058477875
81	0x3d9a97ad	0.07548461
82	0xbdb51cb7	-0.088433675
83	0x3dd4e445	0.103951015
84	0xbd8f22c5	-0.06989054
85	0x3e5be071	0.21472336
86	0x3e2f8282	0.17139629
87	0xbce68c26	-0.028143
88	0x3d1dfaaa	0.03856913
89	0x3d804eef	0.062650554
90	0xbd16bf87	-0.03680375
91	0x3a88156c	0.0010382361
92	0xbd83e855	-0.06440798
93	0xbe6a13a8	-0.22859061
94	0x3dd6fb64	0.10497168
95	0xbd8e6e04	-0.069545776
96	0xbb986740	-0.0046509802
97	0xbcb6df7c	-0.022323363
98	0xbda22a7d	-0.0791826
99	0x3db79b91	0.08965219
100	0x3cf849cc	0.030308627
101	0x3c140a31	0.009035633
102	0xbd9f897f	-0.07789897
103	0xbd634b7b	-0.055491906
104	0x3e169bdf	0.14707898
105	0x3e627e80	0.22118568
106	0xbe6206a6	-0.22072849
107	0xbe8adcd4	-0.27121603
108	0x3d1a07eb	0.037605207
109	0xbe5daed1	-0.21648718
110	0xbe02649f	-0.12733696
111	0x3dafc195	0.08581845
112	0x3d4082d2	0.04699976
113	0x3dfc2a0f	0.123127095
114	0x3db9a7cd	0.090652086
115	0x3b0fa3da	0.0021917732
116	0xbe245509	-0.16048063
117	0x3ca60e98	0.02027063
118	0x3d4170ff	0.047226902
119	0x3cbcf495	0.023065845
120	0xbe72e5de	-0.237205
121	0xbdf17f25	-0.11791829
122	0x3e8b8fe5	0.2725822
123	0xbe3e04f6	-0.1855658
124	0x3d371e40	0.044706583
125	0x3d98a7f7	0.07453912
126	0xbb82ccb7	-0.003991689
127	0xbd46cccf	-0.048535164
128	0x3dc39504	0.09549907
129	0xbe9bf612	-0.30461174
130	0xbdca4ecb	-0.0987831
131	0x3d3f7d77	0.046750512
132	0xbdb469c1	-0.088092335
133	0x3d2cb98c	0.04216914
134	0xbdab0166	-0.08349876
135	0xbe0ba5dc	-0.13637489
136	0x3e512d35	0.20427401
137	0x3d136a06	0.035989784
138	0x3df8788f	0.1213237
139	0x3e510d09	0.20415129
140	0xbc7a89ab	-0.015291612
141	0x3e19ed0f	0.15031837
142	0x3d4b0171	0.04956192
143	0xbd934348	-0.07190567
144	0xbdf702f3	-0.120611094
145	0xbe2f98b2	-0.17148092
146	0xbe358680	-0.17727089
147	0x3d4f96f8	0.050681084
148	0x3e3798ed	0.1792943
149	0x3e0d3768	0.13790667
150	0xbd456664	-0.04819335
151	0xbabb63df	-0.0014296732
152	0x3e555df5	0.20836623
153	0x3d117dcc	0.03552036
154	0xbe5c24b1	-0.21498372
155	0xbd47f8d9	-0.048821304
156	0x3de2b344	0.110693485
157	0x3ddb4bf3	0.107078455
158	0x3e67d5de	0.22640178
159	0xbe00997e	-0.12558553
160	0xbe503867	-0.20334016
161	0x3e980362	0.2969008
162	0xbdcae638	-0.09907192
163	0xbe73fb85	-0.23826416
164	0x3d298292	0.041384287
165	0x3d204782	0.039130695
166	0x3cd5e4e9	0.02611013
167	0xbd908434	-0.07056466
168	0xbe21e14f	-0.15808605
169	0xbe48f8a3	-0.19626097
170	0xbc43a815	-0.011941929
171	0x3c0c1ca9	0.008551755
172	0xbd331d1b	-0.04372893
173	0xbd516656	-0.051122986
174	0xbe08181c	-0.13290447
175	0x3eba0820	0.36334324
176	0xbc8ed29e	-0.017434414
177	0x3e04dfa1	0.12975933
178	0xbe4915b2	-0.19637182
179	0x3e5178a9	0.20456184
180	0xbea26b44	-0.31722462
181	0xbcd24262	-0.02566642
182	0xbe58beb1	-0.21166493
183	0xbe8b78b9	-0.27240542
184	0xbe6fb084	-0.23407179
185	0xbe2fc90c	-0.17166537
186	0x3e84e41a	0.25955278
187	0x3dae8ef9	0.085233636
188	0xbd6c0553	-0.057622265
189	0x3e0b4f09	0.13604368
190	0x3da7c7f0	0.08192432
191	0x3dbb3650	0.09141219
192	0x3df63a85	0.120228805
193	0x3e247cbc	0.16063207
194	0x3ea6160c	0.32438695
195	0x3df43369	0.11923868
196	0xbd85ffdc	-0.06542942
197	0xbe88c067	-0.2670929
198	0xbd095fb4	-0.033538535
199	0xbe2d0846	-0.16897687
200	0x3d826f3f	0.06368875
201	0x3e849698	0.25896144
202	0x3d8505e6	0.06495266
203	0x3c9fe7e2	0.01951975
204	0xbd21d450	-0.039509118
205	0x3e8f9fdb	0.28051648
206	0x3db0f6c1	0.086408146
207	0xbe09952d	-0.13435812
208	0xbe4ec5d3	-0.20192651
209	0x3e0ac701	0.13552476
210	0x3e8186ec	0.2529825
211	0x3e5e565d	0.21712632
212	0xbd73338b	-0.059375327
213	0x3c6d6423	0.0144892065
214	0xbe1342c4	-0.14380938
215	0xbdceb074	-0.100922495
216	0xbdb161e4	-0.08661249
217	0x3cd1ca72	0.025609229
218	0x36f553ab	7.311309e-06
219	0x3cb1931d	0.021676594
220	0xbd015d47	-0.031583097
221	0xbe052574	-0.13002568
222	0xbcbe8b08	-0.023259655
223	0x3e0a1b6f	0.13487028
224	0xbd88461a	-0.06653996
225	0x3e0f1193	0.13971548
226	0x3caba2da	0.020951677
227	0x3e08a2cf	0.13343357
228	0x3b64b37f	0.0034897027
229	0xbe2ec84a	-0.17068592
230	0x3d9e7507	0.07737165
231	0xbdbcaffc	-0.09213254
232	0xbdacbced	-0.08434472
233	0x3d9d9146	0.07693724
234	0x3d90f37d	0.07077692
235	0xbe13c514	-0.14430648
236	0x3d84fe99	0.06493873
237	0xbd051b05	-0.03249647
238	0x3ddad393	0.10684886
239	0xbd768ec2	-0.06019474
240	0xbdff36f9	-0.12461657
241	0xbe0f68e5	-0.14004858
242	0x3acfad1f	0.0015844441
243	0xbe201e47	-0.1563655
244	0xbcd1466f	-0.02554628
245	0xbd5e85d7	-0.05432686
246	0xbc181c19	-0.009284043
247	0xbcacf1ed	-0.021111453
248	0xbc192f30	-0.009349629
249	0xbe0cd554	-0.13753253
250	0x3d6df800	0.05809784
251	0xbdee7c01	-0.116447456
252	0x3d99458e	0.0748397
253	0x3dc051c9	0.09390599
254	0xbd30edb0	-0.043195426
255	0x3cff458c	0.031161092

rnn.weights_lin_z f4 [50, 53]
0	0xbdb7aec7	-0.08968883
1	0x3e18f336	0.14936528
2	0x3dafd4eb	0.08585533
3	0x3b79b7b8	0.003810389
4	0xbcd31e62	-0.025771324
5	0x3d757bde	0.059932582
6	0xbde76f78	-0.11300558
7	0xbdbd68d1	-0.09248508
8	0x3d95bdfd	0.07311628
9	0xbd47927c	-0.048723683
10	0x3d27d8cb	0.040978234
11	0xbdabfd61	-0.083979376
12	0xbc48b95b	-0.012251223
13	0x3dde5d6a	0.10857661
14	0x3e10ed4c	0.14153022
15	0x3dccbddb	0.099971496
16	0xbcce33e2	-0.025171224
17	0xbd5758a2	-0.05257476
18	0xbd58c38d	-0.052920867
19	0xbd835506	-0.06412701
20	0xbe0c26af	-0.13686632
21	0x3bea6481	0.0071530943
22	0x3cacee63	0.021109765
23	0x3d9801ae	0.074221954
24	0xbd7c5806	-0.061607383
25	0xbdee62d0	-0.11639941
26	0xbda31678	-0.0796327
27	0xbdec0883	-0.11525061
28	0x3cd93569	0.026514726
29	0xbc07fe1f	-0.008300333
30	0xbdc30520	-0.09522462
31	0xbd1e6bb3	-0.03867693
32	0xbd39c113	-0.045350146
33	0x3c0a911b	0.008457447
34	0x3d62b3df	0.05534732
35	0x3d27522b	0.040849846
36	0x3de344b4	0.110970885
37	0xbd45d85c	-0.04830204
38	0x3dee63de	0.11640142
39	0xbde95170	-0.11392486
40	0x3d2934dd	0.04131018
41	0xbe1dd30b	-0.15412538
42	0xbdc02c07	-0.093833975
43	0xbdf809d9	-0.12111253
44	0x3d9d6885	0.07685951
45	0x3cbd98db	0.023144176
46	0xbde8e4c5	-0.11371759
47	0x3e342469	0.17592014
48	0x3df91b9e	0.12163471
49	0x3d7147a4	0.058906212
50	0x3e1694d2	0.14705208
51	0xbdc60cc8	-0.096704066
52	0xbdeafbfe	-0.11473845
53	0xbdd0be90	-0.10192597
54	0x3dfe3594	0.12412563
55	0xbd0346d1	-0.032049958
56	0xbc63555a	-0.01387533
57	0xbdc0179c	-0.09379503
58	0xbc2d6825	-0.010583912
59	0x3d9be8db	0.07612773
60	0x3dbb6ab7	0.091512136
61	0xbcfece20	-0.031104147
62	0xbd92870a	-0.07154663
63	0x3dca884c	0.09889278
64	0x3db2f8ef	0.087388866
65	0xbab5eb36	-0.0013879302
66	0x3d1bac4c	0.038006112
67	0x3dd7db79	0.10539908
68	0x3bea825d	0.007156654
69	0xbe114d31	-0.14189602
70	0x3d8fd849	0.07023675
71	0xbe17d598	-0.14827573
72	0x3d1708ab	0.0368735
73	0xbdf94013	-0.12170424
74	0xbd89e2d3	-0.067327164
75	0x3d926b92	0.07149424
76	0x3ba79fdf	0.0051154937
77	0xbdf1185f	-0.117722265
78	0xbd1f8512	-0.038945265
79	0x3d9ea7e8	0.07746869
80	0xbcee72f1	-0.029107543
81	0xbd0c3dca	-0.034238614
82	0x3dce33f2	0.100685015
83	0x3d9a2c49	0.07527978
84	0x3e29a970	0.16568542
85	0x3dc7bd75	0.09752933
86	0xbdb0f7bc	-0.086410016
87	0xbcaa20f1	-0.02076766
88	0xbe1d9b76	-0.15391335
89	0xbe5c8e14	-0.21538574
90	0x3daa0f39	0.08303685
91	0xbd474fdf	-0.048660155
92	0x3dcca8b8	0.09993118
93	0x3df1b88b	0.11802777
94	0x3c86362d	0.016383255
95	0xbc82c3cc	-0.015962504
96	0xbe16d578	-0.1472987
97	0x3e0d13a5	0.13777025
98	0xbe04185e	-0.1289992
99	0x3e1969f1	0.1498182
100	0xbda471e5	-0.08029536
101	0x3b212b79	0.0024592562
102	0x3e0ed93b	0.13950054
103	0xbe034b62	-0.12821725
104	0xbcba2f4f	-0.022727637
105	0xbd926d97	-0.07149809
106	0xbc5f0f6d	-0.013614518
107	0xbdd89fc1	-0.10577346
108	0xbbe4b4a7	-0.0069795433
109	0x3d8ebadd	0.06969235
110	0xbd503f60	-0.05084169
111	0x3cf619c2	0.03004158
112	0x3d531c19	0.051540468
113	0xbd9bffa5	-0.0761712
114	0x3c65ce13	0.014026183
115	0xbcd78adc	-0.02631133
116	0x3e3d8a5c	0.18509811
117	0xbd0fb030	-0.035080135
118	0xbbe3a0f0	-0.0069466755
119	0xbdf79ed6	-0.120908424
120	0x3daca5c8	0.08430058
121	0x3c579ff2	0.0131606925
122	0x3e0e1aa9	0.13877358
123	0x3d0f4ee0	0.03498733
124	0x3de1b033	0.110199355
125	0xbddf206a	-0.10894854
126	0x3e11d0b3	0.14239769
127	0xbdcf573c	-0.101240605
128	0x3cb3c4c5	0.021944413
129	0xbe11e799	-0.14248504
130	0xbdb6b5ad	-0.08921371
131	0xbbc0fd22	-0.005889551
132	0x3e00b7e5	0.1257015
133	0x3dded6ad	0.1088079
134	0x3e099935	0.1343735
135	0xbe027771	-0.12740876
136	0x3d02070b	0.031744998
137	0xbd93fe5f	-0.07226252
138	0xbc233c4c	-0.009963106
139	0x3dc3658d	0.09540854
140	0xbcd35f3d	-0.02580225
141	0xbc878a96	-0.016545575
142	0x3dd6efed	0.10494981
143	0x3d74f936	0.05980798
144	0xbe144635	-0.14479907
145	0x3de92c8d	0.113854505
146	0xbd66b6da	-0.056326725
147	0xbdbd9afa	-0.09258075
148	0x3d56060f	0.05225187
149	0x3da3723a	0.07980771
150	0xbd4eacb4	-0.05045767
151	0xbdb784be	-0.089608654
152	0xbd96e03a	-0.073669866
153	0x3cfba216	0.030716937
154	0x3e06c8d7	0.13162552
155	0x3da9c491	0.08289445
156	0xbc1d5702	-0.009603264
157	0x3b29fed7	0.002593925
158	0xbdd8fe6f	-0.10595404
159	0x3b472966	0.0030389666
160	0x3ccc4d93	0.024939334
161	0xbd031591	-0.03200299
162	0x3dc4cd3d	0.096094586
163	0x3dc50d83	0.09621718
164	0x3da4bac3	0.080434345
165	0x3ce0738a	0.027398843
166	0xbe0e2eb8	-0.1388501
167	0x3d6fcf39	0.058547232
168	0xbdb3c6f6	-0.08778183
169	0x3ced49fa	0.028965939
170	0xbd9685e1	-0.07349754
171	0x3dc713e5	0.097205915
172	0xbd801858	-0.06254643
173	0x3c3734fa	0.011182064
174	0xbe1dd852	-0.15414551
175	0xbdded9dc	-0.10881397
176	0x3d4216b5	0.047384936
177	0xbd98a43e	-0.07453202
178	0xbd487e5b	-0.048948627
179	0xbd5ad103	-0.053421985
180	0xbde8c291	-0.113652356
181	0xbddda6ba	-0.10822816
182	0xbd7ea4dd	-0.062168945
183	0x3cfbb3e9	0.030725436
184	0xbd43952a	-0.047749676
185	0x3e278881	0.16360666
186	0xbdb4195a	-0.08793898
187	0xbdf528e5	-0.11970691
188	0xbd914c1a	-0.07094593
189	0x3d9f8ebe	0.07790898
190	0xbd1c1a95	-0.038111288
191	0xbd8515d7	-0.06498306
192	0xbb7842d4	-0.003788163
193	0x3dbed68b	0.093182646
194	0x3cf30695	0.029666224
195	0x3d882ddb	0.06649371
196	0x3cf25378	0.029580817
197	0x3dc3d08e	0.09561263
198	0x3e1c5bb5	0.15269358
199	0x3e17dfe4	0.14831501
200	0x3d6f9325	0.058489937
201	0xbdccfc40	-0.1000905
202	0xbd5111fb	-0.051042538
203	0xbdac77ad	-0.08421264
204	0x3da704fd	0.08155248
205	0x3dd21848	0.102585375
206	0x3d03f872	0.032219358
207	0x3d8c3324	0.06845692
208	0x3d005c1b	0.03133784
209	0xbda591d9	-0.08084459
210	0x3d2d21f7	0.04226872
211	0x3dfe02f7	0.12402909
212	0x3ddc2ec3	0.107511066
213	0x3be8257b	0.007084546
214	0x3c5ad6a2	0.0133568365
215	0x3e156ab8	0.14591491
216	0x3d9fca9b	0.07802316
217	0xbbe51d38	-0.0069920085
218	0x3dc9fe2f	0.09862935
219	0xbddeaa3c	-0.108723134
220	0x3d29e4df	0.041478034
221	0xbe1ff99f	-0.15622567
222	0xbdf48f8c	-0.11941442
223	0xbdcb6b44	-0.09932569
224	0x3daa36ec	0.08311257
225	0xbd43fafd	-0.047846783
226	0x3d1d425e	0.03839337
227	0xbe23f0f1	-0.1600988
228	0x3cc98e2f	0.024603931
229	0xbd0c7467	-0.034290697
230	0xbdad206f	-0.08453452
231	0x3b281d7c	0.002565234
232	0x3d8b04ab	0.06788
233	0xbe151fbb	-0.14562885
234	0xbd7e2ae1	-0.06205261
235	0x3dcb3e8f	0.099240415
236	0x3d384f61	0.044997577
237	0xbdace8a4	-0.0844281
238	0x3d940c2e	0.072288856
239	0xbdc9ab08	-0.09847075
240	0xbdc4a1bb	-0.0960116
241	0xbd8a4132	-0.06750716
242	0x3d88f177	0.06686681
243	0x3d2b74b7	0.041859355
244	0x3d1c1549	0.038106237
245	0x3b4131b5	0.002947909
246	0x3d0f52e1	0.03499115
247	0xbe2ec9c3	-0.17069153
248	0xbcfe6942	-0.03105605
249	0x3d963d3e	0.073359
250	0x3d977e4e	0.073971376
251	0x3ce6831d	0.028138692
252	0x3d263484	0.040577427
253	0xbdb160a1	-0.086610086
254	0x3ceca878	0.028888926
255	0x3da8a6f2	0.08234967

rnn.bias f4 [150]
0	0xbd6b60c0	-0.057465315
1	0x3d137698	0.03600177
2	0x3d829756	0.06376521
3	0x3c1e256c	0.009652477
4	0xbdf6819f	-0.12036442
5	0x3ce5e156	0.02806155
6	0x355871c1	8.0631804e-07
7	0xbdbcf63e	-0.092266545
8	0x3d07f4ab	0.033192318
9	0x3d0319bf	0.032006975
10	0xbe019df5	-0.12657912
11	0x3e922aa2	0.2854815
12	0x3e1918ae	0.14950821
13	0xbd0ac56e	-0.03387969
14	0x3a882b08	0.0010388801
15	0xbd00053a	-0.031254984
16	0xbe34536e	-0.17609951
17	0xbdc6ea77	-0.09712689
18	0x3dd584a9	0.104256935
19	0x3de508a7	0.11183291
20	0x3db98aee	0.09059702
21	0x3e5b8993	0.21439199
22	0x3dcf3287	0.10117059
23	0xbce745f2	-0.028231595
24	0xbe8a69e4	-0.27033913
25	0x3e779c67	0.24180757
26	0x3e1329a6	0.14371356
27	0x3e39919e	0.18121955
28	0x3d2d5e88	0.04232648
29	0x3ded7283	0.11594107
30	0xbd9a78b9	-0.07542557
31	0xbbf83433	-0.007574582
32	0x3b6ec4bd	0.0036433183
33	0x3de9d8af	0.11418282
34	0xbc55f88a	-0.013059745
35	0xbdbd845c	-0.09253761
36	0xbcd128cc	-0.025532149
37	0xbb7b1c33	-0.0038316369
38	0x3dbcae79	0.092129655
39	0x3d94e310	0.07269871
40	0x3df0c88c	0.11757001
41	0x3d92b7d4	0.07163969
42	0x3dad1470	0.08451164
43	0x3e92520c	0.28578222
44	0x3e50cdda	0.20391026
45	0xbd8e089b	-0.06935235
46	0x3e2fc9e2	0.17166856
47	0x3e2c13bb	0.16804402
48	0x3cc200b7	0.023681981
49	0x3e3e111b	0.18561213
50	0x3daca0c6	0.084291026
51	0xbdab2662	-0.0835693
52	0x3e031ffc	0.1280517
53	0x3d7f626b	0.062349718
54	0xbd0540c9	-0.032532487
55	0x3d694043	0.05694605
56	0xbd8c3697	-0.0684635
57	0x3de275b2	0.11057605
58	0xbdda16a0	-0.106488466
59	0xbe10f9a6	-0.14157733
60	0xbdd2b628	-0.1028865
61	0xbdacd416	-0.0843889
62	0x3de84a15	0.11342255
63	0xbddac2ff	-0.10681724
64	0xbd82753a	-0.063700154
65	0xbdc72093	-0.0972301
66	0xbcd6e899	-0.026233958
67	0x3dae613e	0.08514641
68	0xbcf90313	-0.030396974
69	0x3d7b944f	0.061420735
70	0xbe0abf7a	-0.13549605
71	0x3d2fa017	0.042877283
72	0x3e24e2fe	0.16102216
73	0xbd6c4a92	-0.057688303
74	0x3dd96832	0.10615577
75	0x3e0846bf	0.13308237
76	0x3dd44c37	0.10366099
77	0xbdf9805c	-0.12182686
78	0x3e2a0c6f	0.16606306
79	0x3c7d2c38	0.015452437
80	0xbde55094	-0.1119701
81	0xbddb8cc6	-0.1072021
82	0x3dcd3e67	0.10021668
83	0xbe0226df	-0.1271014
84	0x3cdb8fcd	0.026801968
85	0xbdf87748	-0.12132126
86	0x3da92a11	0.08259977
87	0x3de3fbc9	0.111320086
88	0xbd1e1ce1	-0.03860176
89	0x3d5b91df	0.05360591
90	0xbd16577b	-0.03670452
91	0xbc35c056	-0.01109322
92	0xbd0b4d45	-0.034009237
93	0xbdd750ca	-0.10513456
94	0xbdbeb34e	-0.093115434
95	0x3b0f5714	0.002187197
96	0xbdabfbfd	-0.08397672
97	0x3cd0d9da	0.025494505
98	0xbe24b963	-0.16086344
99	0xbd4c09fd	-0.049814213
100	0x3dae4dfb	0.08510967
101	0x3c94cdac	0.018164478
102	0x3e7c3c29	0.24632324
103	0x3be4d15b	0.006982965
104	0xbd40d0c3	-0.04707409
105	0x3cfc0da6	0.030768227
106	0x3e8501bf	0.25977895
107	0xbe0c3c87	-0.13694964
108	0xbc090160	-0.008362144
109	0x3e05b163	0.13055949
110	0x3e762086	0.24035844
111	0xbe95192f	-0.29120776
112	0x3e2be808	0.16787732
113	0x3de911a7	0.1138032
114	0xbe2d687f	-0.16934393
115	0x3d77486d	0.060371805
116	0x3c348040	0.011016905
117	0x3d33bd23	0.043881547
118	0x3e7a4515	0.24440415
119	0x3e52bae5	0.20579107
120	0x3e0df55d	0.1386313
121	0x3e323253	0.1740201
122	0x3e7c084b	0.24612539
123	0x3da6eb35	0.08150331
124	0x3e1a838a	0.1508924
125	0x3e1f034e	0.15528604
126	0x3db665e1	0.089061506
127	0x3d751c9e	0.059841745
128	0xbd64ac89	-0.055828605
129	0x3dcdee80	0.10055256
130	0x3d26dcdb	0.040737968
131	0x3d8cd0b1	0.06875742
132	0xbcc7084a	-0.024295945
133	0x3d452f1c	0.04814063
134	0x3e87f0e3	0.2655097
135	0x3d10ca1d	0.035349
136	0x3de977dc	0.113998145
137	0x3e6eb855	0.23312505
138	0x3d84b9de	0.06480764
139	0xbc8a4065	-0.016876409
140	0x3e4eff9a	0.20214692
141	0x3e3c21f6	0.1837233
142	0x3dfa5ee4	0.1222513
143	0x3e3954df	0.18098782
144	0x3e611771	0.21981598
145	0x3dbf4853	0.093399666
146	0x3e5a8a23	0.21341757
147	0x3e1a44ad	0.1506526
148	0x3e013de8	0.12621272
149	0x3daaaded	0.08333955

rnn.bias_lin_z f4 [50]
0	0xbb3b3e7e	-0.0028571184
1	0xbd977deb	-0.07397064
2	0xba157da6	-0.0005702622
3	0xbd4d3455	-0.050098736
4	0x3d8283e2	0.06372811
5	0x3df4fe75	0.11962596
6	0x3e2093af	0.15681337
7	0xbcc1f4c8	-0.023676291
8	0x3ac78311	0.0015221556
9	0xbd8c9a85	-0.0686541
10	0xbd4d7089	-0.05015615
11	0x3d8b5b0e	0.06804477
12	0xbddc4499	-0.107552715
13	0x3e334bbc	0.17509359
14	0x3bcedcd9	0.006312948
15	0x3df87c7d	0.12133119
16	0x3dde0598	0.10840911
17	0xbd339a43	-0.043848287
18	0x3da8d2fe	0.082433686
19	0x3c681cb4	0.014167
20	0x3dc6d305	0.097082175
21	0x3de79fc9	0.113097735
22	0x3e01538c	0.12629527
23	0xbd2b0723	-0.041754853
24	0x3bf6d23c	0.007532386
25	0x3df6a22a	0.12042649
26	0x3c8fa518	0.017534778
27	0x3cd4dd11	0.025984319
28	0xbe08b053	-0.13348512
29	0xba58500b	-0.00082516734
30	0x3e14dbaf	0.14536928
31	0x3d210e80	0.03932047
32	0xbced46db	-0.02896445
33	0x3e057d57	0.13036095
34	0xbc79c8be	-0.015245615
35	0xbda17d62	-0.07885243
36	0x3db93184	0.090426475
37	0xbe150a9f	-0.14554833
38	0x3dd3c85f	0.10340952
39	0xbdfa976b	-0.12235912
40	0x3d86f2fc	0.06589314
41	0xbe1ff736	-0.15621647
42	0x3de1038a	0.10987003
43	0x3d296d81	0.041364197
44	0xbdfeb155	-0.12436167
45	0xbd8cab13	-0.06868567
46	0x3d0d5745	0.034507055
47	0xbd9047d2	-0.07044949
48	0x3b60f77e	0.0034327204
49	0xbd8a4c2d	-0.067528106

classifier.weight f4 [3, 50]
0	0x3ec34b9c	0.38143623
1	0xbd621d2b	-0.055203598
2	0x3ecada4f	0.3961968
3	0xbeeb0033	-0.4589859
4	0xbd8f95ff	-0.07011031
5	0x3e4df017	0.20111118
6	0x3d80c365	0.062872685
7	0x3dabb334	0.0838379
8	0x3dee38cd	0.11631928
9	0xbe968eb2	-0.29405743
10	0xbe9facee	-0.31186622
11	0xbe1ed23b	-0.15509884
12	0xbe504775	-0.20339759
13	0x3e047c93	0.12938146
14	0x3e5b5a4b	0.21421163
15	0xbeaa6c8f	-0.3328595
16	0xbdb1f409	-0.08689124
17	0x3d107fe3	0.035278212
18	0xbca5ab7f	-0.020223377
19	0xbe988e39	-0.29796007
20	0x3e819460	0.25308514
21	0xbcb7fab5	-0.022458414
22	0xbea1e896	-0.3162276
23	0x3d8f3f3a	0.069944814
24	0x3e986984	0.29768002
25	0xbe1d5ffb	-0.15368645
26	0xbc23b531	-0.00999193
27	0xbd137fce	-0.036010556
28	0xbe1a40e8	-0.15063822
29	0x3e60edcf	0.21965717
30	0x3d515a82	0.051111706
31	0xbe18cdfa	-0.14922324
32	0x3e57043b	0.20997708
33	0x3e703ee2	0.23461488
34	0x3dcae759	0.09907407
35	0x3dba6041	0.0910039
36	0x3d96e03b	0.07366987
37	0xbd934553	-0.07190957
38	0xbe423a3b	-0.18967526
39	0x3d008265	0.031374354
40	0x3d190ace	0.03736382
41	0x3dd2c62e	0.10291706
42	0x3e666757	0.22500359
43	0xbe5b3810	-0.21408105
44	0x3e22247c	0.1583423
45	0xbde37eac	-0.11108145
46	0x3e48c3a4	0.19605881
47	0xbdc2397c	-0.094836205
48	0xbe00cfa3	-0.12579207
49	0xbea64d1a	-0.324807
50	0xbe1792fb	-0.14802162
51	0xbe365c27	-0.17808591
52	0xbe94bbe9	-0.29049614
53	0xbe65957d	-0.22420307
54	0x3da15ca8	0.07879001
55	0x3e9e6386	0.30935305
56	0x3e2815bc	0.16414541
57	0xbdf36d9d	-0.118861414
58	0x3e36848f	0.17824005
59	0xbe1731c5	-0.1476508
60	0xbd49c4c4	-0.049259916
61	0x3e0bce1b	0.13652842
62	0x3f0f4ca8	0.55976343
63	0xbe8cdb3d	-0.27511016
64	0x3dca6792	0.09883036
65	0x3d169e87	0.036772277
66	0x3d87968d	0.06620512
67	0x3e5347c7	0.2063285
68	0x3ed44eb3	0.41466293
69	0xbf00cdd3	-0.5031406
70	0x3dbb308e	0.091401204
71	0xbe5e5a00	-0.2171402
72	0x3c861cd1	0.016371163
73	0xbaa698f0	-0.0012710374
74	0xbdfff031	-0.12496985
75	0xbeb7c509	-0.35892513
76	0x3d4e8d39	0.05042765
77	0x3eae11e1	0.33998016
78	0x3e44a7ae	0.1920459
79	0x3e095a80	0.1341343
80	0x3ec9f07e	0.39441293
81	0x3d0efed2	0.034910984
82	0x3e4aef0a	0.19817749
83	0xbd9625b1	-0.07331408
84	0x3e82fed3	0.2558504
85	0x3e80050d	0.25003853
86	0xbdb53f9b	-0.088500224
87	0xbe226c5e	-0.15861651
88	0x3e7a9cd2	0.24473885
89	0x3e1676ee	0.14693806
90	0xbdd82e86	-0.10555749
91	0x3db986d9	0.09058923
92	0xbd1c255c	-0.038121566
93	0x3e22a0ce	0.15881655
94	0xbe9311b9	-0.2872446
95	0xbd14e03b	-0.036346655
96	0x3e794b90	0.24345231
97	0x3d88bc05	0.06676487
98	0x3d454a32	0.04816646
99	0x3c80112a	0.015633184
100	0xbf0568f3	-0.52113265
101	0xbe8f1862	-0.2794829
102	0xbde56a7e	-0.112019524
103	0x3e657e02	0.2241135
104	0xbe0a5b05	-0.13511284
105	0x3ddd5783	0.10807707
106	0xbcbdf65b	-0.02318876
107	0x3deb1e46	0.114803836
108	0xbe0e036f	-0.13868497
109	0xbecc32bf	-0.39882466
110	0xbed95564	-0.4244796
111	0x3d53bf81	0.051696304
112	0xbd50159d	-0.050801862
113	0xbe131efb	-0.14367287
114	0xbd167dbd	-0.036741007
115	0x3c28a69b	0.010293628
116	0x3e8af1a9	0.27137497
117	0xbdd62857	-0.10456913
118	0xbd6c042b	-0.057621162
119	0x3e19b70c	0.15011233
120	0xbe914b57	-0.28377792
121	0x3e3f846d	0.1870286
122	0x3d47883a	0.0487139
123	0xbe60c524	-0.21950203
124	0xbe9e31fa	-0.30897504
125	0x3e3006d9	0.17190112
126	0xbd8470b8	-0.06466812
127	0xbdb489ce	-0.08815347
128	0xbd6cd61b	-0.057821374
129	0xbda2a6c9	-0.07941968
130	0x3e242aea	0.16031995
131	0x3ef2ee70	0.47447538
132	0xbd705467	-0.058674242
133	0xbe8dd81d	-0.27703944
134	0x3e77c518	0.24196279
135	0x3dc53149	0.09628541
136	0x3de39a02	0.11113359
137	0xbbbc71a6	-0.0057508526
138	0xbed2e09d	-0.4118699
139	0x3dc64951	0.09681953
140	0xbdb9dab3	-0.09074917
141	0xbda7d179	-0.081942506
142	0x3e6362c7	0.2220565
143	0x3ec62679	0.38701227
144	0x3e8a2193	0.2697874
145	0xbbd49a63	-0.006488131
146	0xbc823e44	-0.015898831
147	0x3d40f38d	0.047107268
148	0xbe2d0b83	-0.16898923
149	0x3e0ab66b	0.1354615

classifier.bias f4 [3]
0	0x3c905004	0.01761628
1	0xbdac858c	-0.084239095
2	0x3da3ce9c	0.07998392
