Final Project/LEM-main/models/lorenz96/6/model.pt (torch, 424535 bytes, 6 tensors)

rnn.weights f4 [450, 170]
00000000: 0ca3 85be eca9 633d 3a0a 4bbd 27ab 90be
00000010: 0762 a7bd a54c b63d 630a debd d68d 76bc
00000020: cc35 31be 2d20 9abd b499 2e3e a1cb a6bc
00000030: a257 a6bd b1eb 03bd e788 35be d52f d53c
00000040: 2ee5 11be a529 8f3e 5713 6bbe 1b0f 8e3d
00000050: 9c06 94bc d6cf ebbd aece 5f3d af8d 82bc
00000060: ee44 1abe 9d35 833e 9201 3ebe e501 cf3d
00000070: ff71 a63d 3925 f63d 0210 f6bc 7388 d7bb
00000080: 96c1 653d 6bdd 933d 7969 b6bd 6e9a d23d
00000090: 8879 33be 094b 963c 8dc0 293e 2bfd 34be
000000a0: b645 673c 35df 6dbd e21c ea3d c82f 80bd
000000b0: 8951 103e af9b 413d adc8 03b9 c8d5 37be
000000c0: 7f7b 923d d56e ff3d a859 c5bd 04d2 893d
000000d0: accf 81bd a251 853d 7508 ad3c 2565 c8bd
000000e0: 4bd5 b4bd 1b6c 2dbd 5040 073e ae94 15bd
000000f0: 4fe4 193e 9224 58bb f01f db3d 4b31 94be
00000100: ccba a23d 460f c3bd 9846 e03d ca36 a4bd
00000110: beed 06be fa0e 083e 2ede 56be 941e 4239
00000120: da81 d6bc 5767 aebd c83c 0ebe 6a5e 4bbd
00000130: f74f 16bd 1f9c 2d3c 0db3 9a3d f198 31bc
00000140: 2001 88bd 730d b33d 1cf8 abbc 7c29 32bd
00000150: 60ec 33bc 5471 bb3d caa0 4f3d 5fd1 21be
00000160: 0b19 efbc b348 073e 291b ffbd 776c 453e
00000170: ce28 81bc fd42 4b3d e9a2 fabd b079 afbc
00000180: f317 89bd 568e 62be c4fd 88be 619a 80bd
00000190: 3d3f cf3c 36b2 cf3c 3ed3 15bc c7b9 62bd
000001a0: cef6 553d ec55 3e3e 2e22 8e3d d35f d4bc
000001b0: bdbc 703d 71f6 2abe fb79 173d fc92 653e
000001c0: 3cd2 d83c 61b1 8238 9158 dcbb 0a97 6a3e
000001d0: 8742 04be 6fb6 b33d b4fc c83c 1ac6 bc3c
000001e0: fdef e43c af1c 44be 0501 7c3e ab81 8abd
000001f0: 4c5f f1bd f02e bf3c ac92 e73d 0994 033e
00000200: 51c4 8c3e 0389 edbc dc4f 9b3d 0e2e 2a3d
00000210: f447 21bd f730 39be bbbd 03bd 2ebc cd3c
00000220: 3238 273e c76a 4abd 9825 083e e110 0a3e
00000230: 782a f4bc 8fdf 413d 6369 69bb 27f3 833c
00000240: 2dfd b83c 8edd 6cbe 5656 2d3d 9d17 0d3e
00000250: 1945 b8bd b1e9 8ebd e7cf 073e ce63 853d
00000260: cc4e 993d 2404 ec3d c887 a03c 6e25 2dbc
00000270: a91a 323e bc10 293d 2405 3d3a 4057 9abd
00000280: 73f3 bebd 0838 9dbd a18f e0bd a218 83bd
00000290: eedd 1c3e c479 d0bd 2d5c 013e 6239 68be
000002a0: 17a0 20be 3698 f43d afb5 28be 4aa9 8fbd
000002b0: 9426 12be 3bfe 1dbe 090e adbd b18c 543e
000002c0: 66d6 73bd 5a23 bbbd 0769 fdbd 7fd5 dd3d
000002d0: cd56 423c 2ac4 a63d 42a5 75bd 82fb c6bc
000002e0: 16c6 74be 42d6 c33c 6dae b23d ba6e 2b3e
000002f0: b380 03be c964 93bd 6bbe f33d a55e 6cbe
00000300: d7a9 913d 3269 e73d 9245 053d d940 353e
00000310: 290a babd f502 4b3e 25ca a5bd c409 653e
00000320: c2f4 22bd 979f e43d 1942 0ebd 1f6e 773d
00000330: b151 893d 9b42 033e 106f 32be d07e 343e
00000340: 4588 863d 0d04 c5bd d6dd 413e fefa 8cbd
00000350: 23d4 42be 0f74 7ebd 15f3 c3bd d652 6abd
00000360: 1392 64be 2720 c53d 2873 90bd bf49 f93d
00000370: 7fef 7dbe 71ec 0bbd 1eb9 f1bc baef 8f3e
00000380: 7322 55be 2dfc 9e3d 66c8 353d f57f 983c
00000390: 166a 7c3c bed3 bebd 6061 473d 2987 12be
000003a0: 8c6c 93bc 2445 26be 1cf9 c33d 9205 20be
000003b0: f35c ad3d d14f 423d cd48 253d bfd0 ebbb
000003c0: aec6 02be e1f7 41be c94a 9e3d 5325 99be
000003d0: 208d 873b f5a5 bdbc 561a f03c 0f89 c13d
000003e0: 9397 6dbd 9dfb 2d3c b380 c03d 6a61 ffbd
000003f0: cff2 363e c65a bdbc f9ec 513b 1d4d b7bd
-0.26100957 0.055581972 -0.0495703 -0.2825558 -0.08172994 0.089013375 -0.10841825 -0.015048465
-0.17305678 -0.07525668 0.1705082 -0.02036077 -0.081221834 -0.032207195 -0.17728005 0.026023785
-0.14247581 0.2796146 -0.22956596 0.06936475 -0.018069558 -0.11514251 0.054640464 -0.0159367
-0.15065357 0.2562684 -0.18555287 0.10107783 0.08127212 0.120188184 -0.03003693 -0.0065775453
0.05609282 0.072199665 -0.08906836 0.102833614 -0.17526829 0.018346326 0.16577359 -0.17674701
0.0141157415 -0.058074195 0.1143129 -0.062591136 0.14093603 0.047267612 -0.00012567891 -0.17952645
0.07152461 0.124723114 -0.09636241 0.067295104 -0.063384384 0.06509711 0.021122197 -0.09784917
-0.08829745 -0.042339426 0.13208127 -0.036518745 0.15028499 -0.0032980782 0.10699451 -0.28943858
0.07945785 -0.095243976 0.10950965 -0.08018263 -0.13176629 0.13286963 -0.20983192 0.00018512673
-0.026184965 -0.08515804 -0.13890374 -0.049650587 -0.036697354 0.010596304 0.075536825 -0.010839687
-0.066408396 0.087427996 -0.020992331 -0.043496594 -0.010981649 0.09152475 0.05069045 -0.15802525
-0.029186746 0.13211326 -0.12456352 0.19279657 -0.015766528 0.049624432 -0.12238104 -0.02142033
-0.06694021 -0.2212461 -0.26756108 -0.062794454 0.025298709 0.025353532 -0.009144602 -0.055352952
0.052237324 0.18587464 0.06940113 -0.025924599 0.058773745 -0.16695572 0.036981564 0.22419351
0.026467435 6.2319225e-05 -0.006724425 0.2290918 -0.12916003 0.08775031 0.02453456 0.023043681
0.027946467 -0.19151567 0.24609764 -0.067630135 -0.117857546 0.023337811 0.11307272 0.1284944
0.27493528 -0.028995996 0.07583591 0.041547827 -0.03937526 -0.18085085 -0.032163363 0.025114145
0.1633003 -0.049418237 0.13295591 0.13483001 -0.029805407 0.047332343 -0.0035615794 0.016107155
0.022581661 -0.23131391 0.042318664 0.13778539 -0.08997554 -0.06978167 0.13262902 0.06513177
0.074857324 0.11524227 0.019595996 -0.010568006 0.17392983 0.041275725 0.0007210544 -0.07536173
-0.09323778 -0.07676703 -0.10964895 -0.06401183 0.15319034 -0.10179475 0.12632819 -0.2267814
-0.1568607 0.119430944 -0.16475557 -0.07014711 -0.14272529 -0.15429012 -0.084499426 0.20756795
-0.05953064 -0.09137602 -0.12373548 0.10831737 0.011861515 0.08142884 -0.059972055 -0.02428985
-0.23903689 0.023905877 0.08724675 0.16741458 -0.12842064 -0.071969576 0.11901554 -0.23082979
0.071124725 0.11299361 0.03253705 0.17700519 -0.09083969 0.19825347 -0.08095197 0.22367007
-0.0397842 0.11163252 -0.034731004 0.060407754 0.067050345 0.12818377 -0.1742518 0.176265
0.0656896 -0.09619913 0.1893228 -0.068838105 -0.19026236 -0.0621224 -0.095678486 -0.057207905
-0.22321348 0.09625273 -0.07053214 0.12172269 -0.24798392 -0.034161035 -0.029507216 0.28112584
-0.20813923 0.077629425 0.044380568 0.018615702 0.015406152 -0.0931773 0.04867685 -0.14309372
-0.017996095 -0.16237313 0.09568998 -0.15627125 0.08464994 0.0474394 0.04035263 -0.0071965153
-0.12771103 -0.18942215 0.07729108 -0.2991129 0.0041366965 -0.023150424 0.029309433 0.0944997
-0.05800588 0.010619071 0.093995474 -0.12469752 0.17866062 -0.023114573 0.0032032116 -0.08950255

rnn.weights_lin_z f4 [150, 170]
00000000: a955 4fbd c4b6 b5bc fbe3 023e 197c f03d
00000010: e6a8 4e3d 7bf9 74bd 2ec1 a7bc 21fe cabd
00000020: 8fd1 6abd 335b a1bb 8140 0ebb c4ba 6a3d
00000030: 15b0 993d 4009 e13d b51a 10bd 9add c8bd
00000040: 29d5 8ebd 0f0a a23b 4ade d73d a5a5 8bbd
00000050: 54d0 f13d 1245 d23a e151 60bd 5734 9abb
00000060: b739 273d c5aa 73bc 8197 f23b 2e48 353d
00000070: 2f88 99bd e0d6 803d d5ef 02be 81db 4c3d
00000080: fbb4 683d 7f03 993d 2506 203c e657 24bd
00000090: d213 a4bd 4190 bdbb b333 5c3d 16c6 373d
000000a0: 77a3 6d3d e440 c93c c3e1 6cbd 1ca8 1bbd
000000b0: 7579 1abe 863c 6e3c fa3e a4bd 4bcd 2e3d
000000c0: 3b63 433d 8bf4 32bd d605 433d 8fbd c2bd
000000d0: 7ffe 633d 210e 973d 4ddd 913d 1a44 10be
000000e0: 1c7e 78bd 4f27 973d 7ec7 c53b 289c 52bd
000000f0: 6cf7 e03c 4545 2c3d 780c 3f3d 3531 de3d
00000100: 1b8a aabd 39a2 e13c 4529 ffbb 5f65 173d
00000110: 5821 35bc de12 babb b900 9c3c 3785 41bd
00000120: 3850 0f3b 9bd8 35bc cc50 2a3d 0dc2 ad3d
00000130: 2b53 8fbd 4015 c13d 5fdd 4abd be4c d1bc
00000140: 0578 3dbd 2c80 273d d36d ce3d a4f5 37bd
00000150: a686 7b3d 585e 4bbd 40a4 f2bc 8625 acbd
00000160: 924d 543d c1d5 2a3d c834 05bc bea7 04be
00000170: 4ecd d33d c563 83bd fa2d 91bc 18ca cd3d
00000180: 8a22 0cbe eefc 6abd 94c9 8c3d 16f6 c1bd
00000190: f0fb aebc 0c5d 00bc 4ffb b03d 7944 eb3d
000001a0: aa79 30bc 41bd 9a3d 5044 703d cd81 103d
000001b0: 309d 013e e1f8 c63d c83c 833c 4f12 96bd
000001c0: ec9d bc3d d19b 2fbc 134c a5bd 4cf4 3dbc
000001d0: 82bc 05bb 75f8 c2bd 63f5 143d 38fa 5fbd
000001e0: 34b3 7c3c 2b96 2dbd 3373 923b 6239 9cbc
000001f0: 42ba 82bd 1526 a3bd 6635 db3c 748c 19bc
00000200: f3bc 393d 51b5 163c 9af4 803c 887e b73d
00000210: 4484 f6b9 c5ab 64bd 57c8 373d fba5 503d
00000220: edb3 a0bd b9c2 6e3d 770e 86bd 94cf beb9
00000230: 9397 94bb a397 ae3c 609e c73c 9630 6c3d
00000240: ee79 343d f006 33bd 4ce0 523b 0fc9 a6bd
00000250: abcc a1bd 17f4 0cbe 6c75 fc3c 6be2 50bc
00000260: 589c 873d 3783 bd3d 7cdb bb3d 7fba 563d
00000270: 0a9f b3bd 8aa3 6e3c d711 063b 41b6 8ebc
00000280: 11e5 383e 0ac2 8c3c b4b8 a23d 4208 ba3c
00000290: e3c1 ea3c 208c 373c 4fda 05bd 20de 9e3d
000002a0: 684c 2abc fffe 253c 2aac 47bd 9a97 0fbd
000002b0: aece 6dbc c4fc c3bd 89b2 d23c 4599 0b3c
000002c0: f198 5fbd 6c9b d0bc 5a3a 06be bdec 67bd
000002d0: 03dd 09bd d096 85bd c4d6 5ebd 3c18 4cbc
000002e0: 2469 ebbd fce3 0bbb dbfe 6dbd 2436 bbbd
000002f0: f575 0b3d 7f02 5c3d c58d f4bd 9f47 763d
00000300: 61f3 fbbc 05ba 0dbd 8eb3 8f3d 41c2 91bd
00000310: 3a3f 85bd 7587 133e 3f29 8d3d b555 c5bd
00000320: 9291 f23c 3082 97bc f1b5 663c 4732 0abe
00000330: 1e6b b93a 4507 6b3d f3e2 c9b9 4df0 8e3d
00000340: 20f4 e63c 9552 3bbc 16e9 0e3d 7f74 bc3c
00000350: e37a 1b3d adf9 593d 4b60 0bbd 8026 9c3c
00000360: 42da 093c 29d0 8abd c086 31bd 0516 a5bc
00000370: 60ae b8bc ea7e 0e3e 0b8b 073c c682 09bd
00000380: fc11 8bbb 36a5 18be 8b13 84bc ffdc 0dbd
00000390: 899d d53c ad5f c2bd 3154 03be 217a ac3d
000003a0: 370b a8bd 394a acbc e27c c53d d5ec ffbc
000003b0: 8738 46bc 55cf 073e 90a4 b438 b2a1 003e
000003c0: c2f1 d93c 8b37 403d ce0b 95bd 34da adbc
000003d0: 1adb a8bb 7232 fb3d ddf0 a5bc f8ad 1e3e
000003e0: ffca c23d 94de e6b9 de1d 83bd b09f de3c
000003f0: c878 30bd 0316 b2bd a241 70bd 90cd f6bb
-0.0506188 -0.022181876 0.1278228 0.1174242 0.050454043 -0.059808236 -0.020477857 -0.099117525
-0.057328757 -0.004924202 -0.0021705928 0.05730702 0.07504288 0.109880924 -0.03518172 -0.09807892
-0.06974251 0.0049450467 0.10540445 -0.068187036 0.118073136 0.0016042313 -0.054765586 -0.0047059464
0.040826526 -0.014872258 0.0074033146 0.04425829 -0.07496678 0.06290984 -0.12786801 0.050014023
0.05681322 0.0747137 0.00976709 -0.04012289 -0.08011593 -0.0057850187 0.05376024 0.044866644
0.05801722 0.024567075 -0.05783249 -0.03800212 -0.15085395 0.014540797 -0.08019824 0.04267625
0.047702055 -0.043690246 0.047612987 -0.09508812 0.05566263 0.07375742 0.07122288 -0.14088479
-0.060667142 0.073805444 0.006035744 -0.051418453 0.02746173 0.042058248 0.04664275 0.10849229
-0.08327123 0.027543174 -0.007786902 0.03696191 -0.011055313 -0.0056785187 0.019043313 -0.047246184
0.0021867882 -0.011099006 0.04158096 0.08484278 -0.06998285 0.09427881 -0.049527522 -0.025549289
-0.046257038 0.04089372 0.10079541 -0.044911996 0.061407708 -0.04965052 -0.029619336 -0.084055945
0.05183179 0.041707758 -0.00813026 -0.12954614 0.10341893 -0.06415514 -0.017722119 0.10048312
-0.1368505 -0.05737012 0.068743855 -0.09470765 -0.021360368 -0.007834684 0.08641683 0.114876695
-0.0107711945 0.075556286 0.058658898 0.035280038 0.12657619 0.09715439 0.016020194 -0.07327711
0.09209809 -0.010718302 -0.08071151 -0.011593889 -0.002040655 -0.09520046 0.03636683 -0.054681987
0.015423585 -0.04237954 0.004469299 -0.019070331 -0.06383182 -0.07966248 0.02675886 -0.009371866
0.04534621 0.009198503 0.015741635 0.08959681 -0.00047019322 -0.055827875 0.044868793 0.05093954
-0.07846818 0.05829117 -0.06545728 -0.00036394282 -0.0045346706 0.02131254 0.024367511 0.057663523
0.044061594 -0.043707788 0.0032177148 -0.08143818 -0.079003654 -0.13764988 0.03081771 -0.012749295
0.06621617 0.09253543 0.09172723 0.05242395 -0.08770569 0.014565358 0.002045741 -0.01742089
0.18056132 0.017182369 0.079453856 0.022709016 0.028656906 0.011202842 -0.0326789 0.07757211
-0.010394193 0.010131597 -0.048748173 -0.035056688 -0.014514608 -0.095696956 0.025719898 0.008520429
-0.054589216 -0.025464736 -0.13108197 -0.056622256 -0.03365804 -0.06522906 -0.054404035 -0.01245695
-0.11494663 -0.0021345606 -0.058104377 -0.09141186 0.03404804 0.053713318 -0.11941103 0.060126897
-0.0307557 -0.03460123 0.07016669 -0.07117129 -0.065062 0.14407142 0.06892633 -0.09635488
0.029610429 -0.018494695 0.014081464 -0.13495742 0.0014146303 0.05737998 -0.00038506798 0.069794275
0.02819258 -0.011433263 0.034890257 0.023004768 0.03795899 0.053216625 -0.03402738 0.019061327
0.008413853 -0.06777985 -0.0433414 -0.020152101 -0.022544086 0.13915601 0.0082728965 -0.03357198
-0.0042440873 -0.14906773 -0.0161226 -0.034634586 0.026076095 -0.09490905 -0.12825085 0.08421732
-0.08205264 -0.021031486 0.0964296 -0.03124086 -0.012098438 0.13262685 8.613721e-05 0.12561682
0.026604537 0.04692797 -0.07277642 -0.021222211 -0.005153072 0.12265481 -0.020256454 0.15496051
0.09511375 -0.00044034852 -0.06402181 0.027175754 -0.043083936 -0.08695605 -0.058656342 -0.007531829

rnn.bias f4 [450]
00000000: 6e5f b63e e2ae ac3e df6d cc3e ba4e a73e
00000010: 563b 623e a421 863e 509b 9b3e 5b8e 603e
00000020: 6e7c 923e 55f6 843e 387e 3c3e d4bb 853e
00000030: 9f59 9b3e f207 713e 1f46 853e f6b9 5c3e
00000040: 3181 a73e ff79 7c3e 8325 783e e30d 8c3e
00000050: 91ed 7f3e ba44 6f3e 4fe5 9b3e 13f9 e33e
00000060: ff89 953e 5ce3 b53e 9243 b93e 67c0 713e
00000070: bc00 833e 9d4d c93e 4d46 0a3e ef54 4c3e
00000080: d8ac 483e e64f 003f 3a76 743e b364 a73e
00000090: bf71 cd3e 8453 a83e 65ef cd3e ffe2 ee3e
000000a0: bf41 ab3e 0cb4 3e3e 5f64 823e 5940 a13e
000000b0: a6fa 4c3e a263 9b3e 2d79 ea3e c702 1b3e
000000c0: 33d7 b83e b89c 713e 7ce9 8f3e 2e51 8d3e
000000d0: 2177 a03e 673a df3d 859c a83e aac9 8f3e
000000e0: 8488 113e 7de9 a63e 33e4 7a3e 7590 923e
000000f0: 3af4 943e aadd 843e 0f41 673e 68f3 133e
00000100: 1cb3 b53e 9f8c a23e 1e71 ee3d 4f04 063e
00000110: 17a4 d93e 2cd6 dd3e 77c6 563e a5c7 8f3e
00000120: ba4c 5e3e 8cb4 4b3e a50f aa3e c228 893e
00000130: f563 803e 2c44 bc3e df9f a43e 6d41 cf3e
00000140: fbad 753e de7d 303d 7427 913e 4b71 703e
00000150: 4e7a 6d3e 3ab9 3e3e 69d2 7d3e f261 9f3e
00000160: 3b23 643e 3441 493e 6014 7d3e 767a 3e3e
00000170: 2f1d 5b3e 4c68 413e b3c3 ac3e 37da 543e
00000180: 2495 463e b749 3c3e fb67 6c3e 88d8 583e
00000190: e479 8b3e e9bd 763e 1ca3 b33e ef3b 9f3e
000001a0: 6a27 8b3e 2738 8a3e ebb5 823e d815 f73e
000001b0: b958 023f 8b44 803e e383 8e3e 9957 993e
000001c0: 504d d23e a62a e43e c1ed fa3e 68ff a43e
000001d0: 3646 9a3e 48dd 323e b56a ab3e 72e1 ae3e
000001e0: b142 5d3e 20bf 9f3e 3733 ad3e 165e 9b3e
000001f0: a10e cf3e 17bb aa3e b018 b53e 04a2 fa3c
00000200: f003 173f 4b34 aa3e 9f45 a53e 551b 983e
00000210: ef63 9f3e f60b 443e acd3 423e 5e7a 683e
00000220: c817 6c3e 67ac 2c3e dcde c43d fe20 2b3e
00000230: 5fef b13e f9af 9c3e 9062 863e d1dd ca3e
00000240: 76e7 b73e 7191 953e feff 8e3e 538d 863e
00000250: 7430 943e 40a3 c33e f70d f83d b9a9 07be
00000260: acaf 733d b8c3 ce3c baec e5bc e520 383d
00000270: 44e2 af3d e1b7 8bbd ee99 bfbd 4121 103e
00000280: f7d7 433c 57a3 823d b101 6bbd 33fd 81bd
00000290: 5de3 4f3d 6bf9 14be a80d 32bd 82e3 8e3d
000002a0: 9c0f 86bd 0751 bfbd 5318 cc3c 50a7 483e
000002b0: 261c d23c a3ed f33d 9c88 45bd 5cbb a7bd
000002c0: 9a77 9d3d 0d63 0c3e 6b1e 32bc c5a6 02bc
000002d0: 74a1 0d3e 3188 b0bd 886e fe3c 4c77 72bd
000002e0: af9b c7bc 89a3 60bd 33a4 35bd 35f2 223d
000002f0: da45 6e3c 4ebb 073d b612 71bd 924d f1bd
00000300: aa62 b9bd c16b afbd 9b40 7e3b 02c4 233d
00000310: 5e09 1d3d 25c8 ae3d 5ea1 363e e405 683c
00000320: caa6 8f3d c23d 443c 138d 083d 996b 623d
00000330: 4cfa c13d 971e 773c df7d 4cbd 00b1 17bd
00000340: ce8c 613c 356b d0bd 2f30 fc3d 87c3 afbc
00000350: 8106 5abc e0eb 2f3b a348 113d 16f4 283e
00000360: e7de 983c cc59 a5bc 1e0b 27bd 1f70 f53c
00000370: 2103 06bd bf85 4ebd e81c 023d 3598 8b3d
00000380: 06fb 39bd 6e45 b5bb 88ae 5b3b 54fd a5bd
00000390: 6def fcbc a1df 113d dbf9 e1bd fa35 033d
000003a0: a688 7ebd b91c 76bd 12b4 813c 9603 dd3d
000003b0: 088c 533d 435e 63bd ed91 b23c d32d 693c
000003c0: 37c8 963d db3d 8f3c da58 183d a72e fd3c
000003d0: 5e78 693d 06b7 9c3c f566 44bd 04c7 6e3a
000003e0: 4125 053c 37ba 45bb 0ac1 f9ba 54be 013e
000003f0: 7768 6d3d 8455 02bd d2c0 703d 80a1 4bbd
0.35619682 0.33727175 0.39927575 0.3267725 0.22092947 0.2619754 0.30391932 0.21929304
0.28610557 0.25969186 0.18407524 0.26119864 0.30341813 0.23538187 0.2603006 0.21555313
0.32715753 0.24655913 0.2423306 0.27354345 0.24992968 0.23366061 0.30448386 0.44525966
0.29206845 0.35525024 0.36184365 0.23608552 0.25586498 0.39317027 0.1350338 0.19954275
0.19597185 0.50121915 0.23873225 0.32694015 0.40125844 0.32876217 0.40221706 0.4665756
0.33448598 0.1862337 0.25467202 0.31494406 0.2001749 0.3034945 0.45795575 0.15137778
0.36101684 0.2359494 0.28107822 0.27600998 0.31340888 0.10899811 0.32931915 0.28083545
0.14212233 0.32600012 0.24501114 0.28625837 0.2909258 0.25950366 0.22583412 0.14448321
0.35488212 0.3174791 0.11642669 0.13087581 0.42508003 0.43327463 0.20974146 0.28082004
0.21708956 0.19893092 0.3321506 0.26788908 0.2507626 0.3677076 0.32153222 0.40479603
0.2399215 0.043088786 0.28350413 0.23480718 0.23191187 0.18625346 0.24787296 0.31129414
0.22279064 0.1965378 0.24714804 0.18601403 0.21397851 0.18887442 0.33743057 0.20786367
0.1939283 0.18387495 0.2308654 0.2117635 0.27241433 0.24095882 0.3508538 0.31100413
0.27178508 0.26995966 0.25529417 0.48258853 0.5091663 0.25052294 0.27834997 0.29949644
0.4107461 0.44563788 0.49009517 0.3222611 0.30131692 0.17467225 0.33479849 0.34156376
0.21607472 0.31200504 0.33828136 0.3034522 0.40440848 0.33345863 0.35370398 0.030594833
0.58990383 0.3324302 0.3227968 0.29708353 0.3113093 0.19145188 0.19026059 0.2270293
0.23055947 0.16862641 0.096128196 0.16711804 0.34752938 0.30603006 0.26247072 0.39622357
0.35918778 0.29212525 0.27929682 0.26279697 0.28943217 0.38210487 0.121120386 -0.13248338
0.059493706 0.02523981 -0.028066982 0.044953246 0.085880786 -0.068221815 -0.09355532 0.14075185
0.0119533455 0.06378811 -0.05737466 -0.06347122 0.05075394 -0.1454827 -0.043470055 0.069769874
-0.06545946 -0.093416266 0.024913942 0.19595075 0.025648188 0.1191056 -0.048225984 -0.08190033
0.07688828 0.1370966 -0.01087151 -0.007974331 0.1383112 -0.086197264 0.031058565 -0.0591958
-0.024366228 -0.05484346 -0.044346046 0.039781768 0.014543021 0.033137612 -0.058855735 -0.117823735
-0.09052022 -0.08565474 0.0038795832 0.03998185 0.03833901 0.08534268 0.17834994 0.014161561
0.07014234 0.011977615 0.033337664 0.055278394 0.094715685 0.015082977 -0.049924728 -0.037034035
0.013766481 -0.10176698 0.12313878 -0.02145554 -0.013307215 0.0026843473 0.035469662 0.16499361
0.018660976 -0.02018442 -0.040782087 0.02996069 -0.032717828 -0.05042052 0.03176585 0.068161406
-0.04540541 -0.0055319583 0.0033520777 -0.08104959 -0.030875886 0.03561366 -0.11033984 0.032033898
-0.062142037 -0.060085986 0.015832935 0.107916996 0.051647216 -0.055509817 0.021798098 0.014232117
0.07362407 0.01748555 0.03719411 0.030906035 0.056999557 0.019130241 -0.04794975 0.0009108635
0.008126558 -0.0030170807 -0.0019054723 0.1267026 0.057960954 -0.031819835 0.058777638 -0.049714565

rnn.bias_lin_z f4 [150]
00000000: 5272 da3d 8070 44bc 00ca 07be b628 9cbd
00000010: 72f3 e8bc fcff f53d 3143 4bbd e825 2c3d
00000020: fc1a 093c cf2b e03c ab45 0b3d ee76 5a3c
00000030: d499 86bd b3f9 45bd 49be 3a3d 75ac bd3d
00000040: 02ee 1e3d c00c cc3d 1751 98bd 8d05 903c
00000050: 4529 ed3d ff74 93bb c9b3 90bd 956f 8a3b
00000060: f64a 3dbc 2c5d d03d d3a8 98bd 35a8 8a3d
00000070: 4ef5 f8bc 8aa7 6cbc a231 063d ff4c c63d
00000080: 1602 47bd 745c 2d3c e52e 973d 266e bf3d
00000090: 3252 6ebb dcf8 7c3c e4f4 803d 2bac bebd
000000a0: 7969 f33d 6a95 82bc 9da7 2dbc ae58 90bd
000000b0: ca0d 0f3d d97b 52bd 2e93 acbd bf5b 923d
000000c0: 847f 3c3d 06ea 343b e2bb 95bc ecdd 3f3d
000000d0: 8584 0cbe 2295 e73d d319 c6bd 3449 f1bc
000000e0: c24b 2cbd 6f11 313d f1f3 c33c 21d5 1dbe
000000f0: e34e 59bd a75e 88bd ef06 87bd b4a6 423d
00000100: 9dd4 e33d 5889 de3c a300 2f3d 77ca ba3d
00000110: 119d afbc 72cd 4ebc 6a67 273d d2dc e1bd
00000120: 0fa8 9c3d b8c9 e2bd 5f29 35bc 39e6 05be
00000130: b745 813d c2e4 9cbd 4822 8c3d 6538 473d
00000140: e23b 1e3e 0380 cd3c 8ef6 d53b 1d88 d1bd
00000150: fe5e 22bd 5b0e e13c dc07 ce3d 03c3 b4bd
00000160: 3a8f 54bd 106c 5e3d 9503 afbd f286 e13d
00000170: e2b4 8a3d a530 583d b188 2fbd 2fe5 cf3d
00000180: b1cf 8a3c 66f7 7cbd 4a28 c03b 0a86 ba3b
00000190: 35da 933d 0b79 74bc ca3e 36bd 19f8 aabd
000001a0: f30e 093d 19e7 a8bc 700c 773d 9b73 f53d
000001b0: b228 6b3d 4c45 4abd c762 c13b 9762 1c3e
000001c0: a914 a43d 467b b93b 8124 d0bd 8df8 763d
000001d0: 4cc9 07be 0466 f0bd 250c 113b 7b47 0d3e
000001e0: 2267 b5bd f76d 4cbc 6d62 133d d776 c7bd
000001f0: f50d 673c 116d 753d 5a69 863c 4051 bb3c
00000200: c9af 633e 1763 a43d 2ce3 d63c 15bc a23d
00000210: a134 77bc 5087 27bd 72fe 443b 03b1 d7bc
00000220: 50bd cd3d f9b3 bcbb 17cf 2ebd 56b5 3c3d
00000230: 6e18 973d 2948 f1bd 2bc4 abbc ce97 543c
00000240: e1ec d43c 5a58 b0bc 5882 b23d 8a93 513b
00000250: 6f23 e8bd bbbd 1c3e
0.10666336 -0.011989713 -0.1326065 -0.076249525 -0.028436396 0.12011716 -0.049624626 0.042028338
0.00836825 0.02736464 0.034001987 0.013334019 -0.06572309 -0.048333835 0.045591626 0.09261409
0.0388012 0.09963369 -0.07437342 0.017580772 0.11580137 -0.004500031 -0.07065541 0.0042247274
-0.011553517 0.10174021 -0.07454076 0.06770364 -0.030390408 -0.014444241 0.032762177 0.096826546
-0.048585974 0.010581125 0.07381991 0.09347181 -0.003636491 0.015440192 0.06296709 -0.09310182
0.11885352 -0.015940387 -0.010599044 -0.07048164 0.03492526 -0.05138764 -0.0842651 0.071464054
0.046020046 0.002760531 -0.018278066 0.0468425 -0.13722427 0.11307742 -0.09672894 -0.029453851
-0.042064436 0.043229517 0.023920031 -0.15413333 -0.053053748 -0.066586785 -0.06593119 0.04752226
0.11124537 0.0271651 0.042725217 0.09120648 -0.0214372 -0.012622224 0.040870108 -0.11028446
0.07649242 -0.11073631 -0.011057227 -0.13076104 0.06312125 -0.076608196 0.06842476 0.048637766
0.15452531 0.025085455 0.0065296357 -0.1023104 -0.039641373 0.027472666 0.10060093 -0.08826258
-0.051894404 0.054302275 -0.08545605 0.11012067 0.06772782 0.052780766 -0.04285497 0.10151135
0.016944738 -0.061759375 0.005864178 0.005692248 0.07219354 -0.014921437 -0.044493474 -0.08348102
0.033461522 -0.020618008 0.060314596 0.119849406 0.057411857 -0.049382493 0.0059016678 0.15271984
0.08011753 0.0056604473 -0.101632126 0.06029563 -0.13260382 -0.11738208 0.0022132483 0.13796799
-0.08857562 -0.01247739 0.035982538 -0.09739464 0.014102449 0.059918467 0.016407657 0.022865891
0.22235025 0.080267124 0.02623137 0.0794603 -0.015088231 -0.04090053 0.0030058888 -0.026329523
0.10045874 -0.005758759 -0.042677965 0.046071373 0.073777065 -0.117813416 -0.020967564 0.012975646
0.025991859 -0.021526504 0.08716267 0.003197881 -0.113348834 0.15306751

classifier.weight f4 [20, 150]
00000000: c85e 733d 4803 48be 072e 4ebd 37d5 ca3e
00000010: d16a 9abe d0ae e1bd 9ca0 8ebd b7d5 3abe
00000020: 91d6 7a3e 0c64 82bc bb75 10bd 0e1d 663d
00000030: e47d 803c 8a2a f43d 0f39 be3d 710e 4fbe
00000040: 9c5b e03d f7f5 3b3e 51bd 4ebe c5a8 0abe
00000050: 836b babc a262 0c3e e816 9a3e 77e0 3c3e
00000060: 1a56 023d 01b0 853e 5620 eebd ace9 7d3e
00000070: 249e f53b 7630 09be 832c 823d 0c93 873d
00000080: d413 053e 36d5 aabd b73f c03d dc67 0abd
00000090: 83ab e4bb 3113 0a3d c878 283d c729 1bbe
000000a0: ee8a 91be 92bc 83bc 64f4 2e3e e702 92bd
000000b0: 9123 36be 6ba8 d4bd 6b08 feba c3ec 983e
000000c0: 600a d8bd b67c 403e b430 f33d ab60 603e
000000d0: 3706 e53d c644 8f3d 2463 6abe b932 7dbe
000000e0: ebd5 02bd 6b54 3bbe fb44 d1bc b95c 19be
000000f0: 3fc1 763d 2402 dc3d 5677 1b3d 959c f6bd
00000100: 0c3f 0bbe 3d02 663d 8149 a7bc dd2d 013d
00000110: 07ce 1b3d d114 25bc a0b4 43be 71ef 4d3e
00000120: 9ddd a73d 8978 473e 9ff5 193e 1489 febd
00000130: aab7 d4bd 99f9 49be 8ef7 013e b4fb 22be
00000140: a447 babd 9d9c 04be 9611 663d 7865 c43d
00000150: f472 56be 31b7 5d3e fcb7 163e 20fd db3d
00000160: 4e38 6e3c ed96 f23c fce4 543e e075 06be
00000170: 6078 0f3e 35d8 06be 29fa a93c b3ca c6bc
00000180: d3d8 c4bb fa03 5a3e d6dc 86bc 8620 b0bd
00000190: 32e1 12ba 0641 293d dbaa 403e 6533 f3bd
000001a0: 659e 293e b985 67bd 2250 58be f147 99bd
000001b0: 06cb 5f3e d943 4c3e 4df8 0cbe 4bfe 6bbe
000001c0: 83aa 5ebc 984c 05bd 1f9e 15be 4d31 983e
000001d0: 7b67 45be e8d3 9dbe e2e1 29be 5555 a63d
000001e0: 78d8 0bbe de85 02be 1548 d5bc 0d94 573e
000001f0: 609f 2f3e 27b7 5e3d 49e3 8b3d 4683 7e3d
00000200: 42f4 d7bc 5ff4 28bc 3a3a 5d3d 7966 e23d
00000210: db36 16be 0504 7b3c 5cec 8c3e 88d8 5c3e
00000220: ef1e e8bc caeb 933d 8b8f 043c 6cb4 4bbd
00000230: 4567 54be 4519 59be 6879 da3d 8675 e13d
00000240: db56 2d3e 20a7 5b3e 7f3d dabb 2a6c ad3e
00000250: 2e13 7cbd 1882 e23d 59e3 3dbd 9981 45bd
00000260: 93d9 4c3e 05d7 6cbe 0c01 7cbe 0d91 84bd
00000270: 5357 ab3d fe0d 873e 6b17 ffbd 3776 37be
00000280: 7d42 7f3d 6afe bfbd d7d3 2fbd c249 8b3d
00000290: 315e a13d e00c b3bd eb40 dbbd 8e13 9dbe
000002a0: cd86 863d 31c3 56bd 1a68 06be 7625 7ebd
000002b0: 275b 9d3b 1207 693d cdf6 9ebd 19fd cabd
000002c0: a907 26be c739 83bd 7e88 1bbd 947e 18be
000002d0: b833 7cbe 10e6 2e3d 6888 83be ffc6 75be
000002e0: 36e4 2dbd 5cc3 803d ac82 ae3b 18f8 aebd
000002f0: fcc6 41be 88e1 dd3d 012e da3d f0bc 31be
00000300: f2b0 a63d 159a bf3e 3c4e 43be 8e05 933c
00000310: c7c1 07be d6d5 6c3d 4855 403d f8d4 5cbc
00000320: 3f97 58bd 3f72 663d c730 bfbc 2502 aabd
00000330: 9364 19bd d59d 683e 1e66 82bd cc54 c1bd
00000340: c241 02bd acc6 e33c 767a 2b3e 2e19 2e3e
00000350: be77 ce3d b7c4 1bbe 2736 903d 1095 eb3d
00000360: 207f 313e 2a90 48bd 72de db3b bf7e db3d
00000370: 7593 943c 6242 f4ba 83ab 9fbe d586 903e
00000380: 96cf f9bd 636a a9be efc2 473e 797c 233e
00000390: e7ee c7bd f466 d23d 71e6 283e 50fc 01be
000003a0: 9dfe 23bc d676 0ebd 311e e0be 3ccf 133e
000003b0: 5c61 cdbc 7960 063e 13fd 6a3e 0a29 1a3e
000003c0: ede2 a7bd 05c0 32be afe8 263d aa25 2a3c
000003d0: 5a66 b6bd ceda e4bd a4de 09bd fe0c 9cbe
000003e0: 83ef 89bd 4dbe 9bbd 4e71 8b3e ca5c bd3c
000003f0: ad22 3d3d 33f9 2f3e 11fc e0bd 52e3 313e
0.059416562 -0.19532502 -0.050336864 0.39615795 -0.3015962 -0.11019671 -0.069642276 -0.18245588
0.24495913 -0.015916847 -0.035268527 0.056180052 0.01568503 0.11922176 0.09288227 -0.20220353
0.10954973 0.18355547 -0.20189406 -0.13540943 -0.022756344 0.137095 0.300956 0.18445002
0.031820394 0.26110843 -0.11627261 0.2479617 0.0074956585 -0.13397393 0.06356146 0.06619844
0.12995845 -0.08341448 0.09387153 -0.033790454 -0.0069784536 0.03370971 0.04113081 -0.15152656
-0.28426307 -0.016081128 0.17085415 -0.0712946 -0.17787005 -0.10383686 -0.0019381171 0.29868135
-0.10548854 0.18797573 0.11874524 0.21911876 0.11182826 0.06995539 -0.22889382 -0.2472638
-0.03194229 -0.18293922 -0.025545588 -0.14976777 0.060242888 0.10742596 0.037955604 -0.120415844
-0.13598269 0.05615448 -0.020420792 0.03153788 0.03803828 -0.010075764 -0.19111872 0.20110871
0.08196566 0.19479574 0.15035103 -0.12428489 -0.10386594 -0.1972412 0.12692091 -0.1591633
-0.090956956 -0.12950368 0.056169115 0.09589666 -0.20942289 0.21651913 0.14718622 0.10741639
0.014539791 0.029612983 0.20790476 -0.13130903 0.14010763 -0.13168414 0.020749168 -0.024266576
-0.006007293 0.2129058 -0.016462725 -0.08599953 -0.0005603015 0.041321777 0.18815176 -0.11875037
0.16564329 -0.056524012 -0.21124318 -0.07484425 0.21854791 0.19947757 -0.13766594 -0.23046224
-0.013590458 -0.03254375 -0.146111 0.29725114 -0.19277756 -0.30825734 -0.16590074 0.081217445
-0.13656795 -0.12746379 -0.026035348 0.2105257 0.1715064 0.054373886 0.068304606 0.06213691
-0.026361588 -0.010312169 0.054010607 0.11054701 -0.14669363 0.015320783 0.27524078 0.21566975
-0.028335063 0.072227076 0.008090864 -0.04973261 -0.20742519 -0.21201046 0.10667688 0.11008744
0.16927664 0.21450472 -0.006660163 0.33871585 -0.06154173 0.1105997 -0.046359394 -0.048219297
0.20004873 -0.23128898 -0.24609774 -0.06472979 0.08366265 0.26377863 -0.124556385 -0.17916189
0.062319268 -0.093746975 -0.042926636 0.068011776 0.07879294 -0.0874269 -0.107057415 -0.30678982
0.0656868 -0.052432243 -0.13125649 -0.062047444 0.004802126 0.05689151 -0.07761917 -0.09911556
-0.1621386 -0.064075045 -0.037971966 -0.14892036 -0.24629104 0.042699873 -0.25690007 -0.24001692
-0.042453967 0.06287262 0.005325636 -0.08543414 -0.18923563 0.10834032 0.10653306 -0.1735723
0.081392184 0.37422243 -0.19072813 0.017946985 -0.13257514 0.057821117 0.04695633 -0.01347851
-0.052878615 0.056261297 -0.023338689 -0.0830119 -0.03744943 0.22716458 -0.063671336 -0.09440002
-0.031800993 0.027804695 0.16745934 0.17001793 0.10081433 -0.1521176 0.07041579 0.11503041
0.1733365 -0.04896561 0.006709867 0.10717534 0.01813672 -0.0018635506 -0.3118554 0.2822787
-0.12197797 -0.3308898 0.19507955 0.15965451 -0.09762364 0.10273543 0.16494156 -0.12693906
-0.010009435 -0.0347813 -0.43773034 0.14434522 -0.025070839 0.13122739 0.22948103 0.15054718
-0.081975795 -0.17456062 0.040749248 0.010384956 -0.08906241 -0.11174546 -0.033659592 -0.30478662
-0.06735136 -0.07604656 0.27234882 0.023115534 0.046175648 0.17184906 -0.10985578 0.17371872

classifier.bias f4 [20]
00000000: 82b8 63bd 2ceb 7b3b 3be4 193d 145e 033c
00000010: e5ef 71bc 239b 043d 90cb e0bc db1c 57bc
00000020: b3a6 c9bd 19ea 6abc 2cbc 88bd 11be 163d
00000030: a284 19bc 6da6 a73c ea26 413c 9f8d 963d
00000040: 96be a4bc c247 7ebc 259d f43a 001d 833d
-0.055595882 0.0038439734 0.037571173 0.008018035 -0.014766668 0.032374512 -0.027440816 -0.013129438
-0.098462485 -0.01433804 -0.06676516 0.036802355 -0.009370001 0.0204651 0.011789063 0.07351231
-0.02011041 -0.015520038 0.0018662555 0.06402016
