Final Project/LEM-main/models/lorenz63/3/model.pt (torch, 7191 bytes, 6 tensors)

rnn.weights f4 [48, 19]
0.3988091 -0.05763811 -0.36938348 -0.45133498 0.08204059 0.027736003 -0.038367126 0.2516823
-0.1066106 -0.27233338 0.14987503 -0.020120839 -0.19438891 -0.22875293 0.07531472 -0.16938971
-0.25554088 -0.26291355 0.084767506 -0.08373961 -0.5454731 0.19721249 -0.14940411 -0.16659334
-0.10169746 -0.011703053 0.0022763317 -0.052914023 0.6101362 0.39301682 -0.035048448 0.25049675
0.09242099 -0.6833243 0.30670398 0.6383135 0.377114 -0.10701554 0.15014699 -0.24416944
-0.117114805 -0.12492346 0.11575746 -0.18571493 -0.13060111 0.2848632 -0.11701679 -0.18662573
0.27235797 0.2672316 0.072588034 0.13762578 0.093218654 0.020585565 -0.29799005 -0.37714633
0.024755897 -0.20476952 -0.30854902 0.065262936 0.19354104 0.6047618 0.00073395355 -0.3189143
0.15073243 0.08183742 0.5068647 -0.5001353 -0.062406145 0.04149836 -0.49850273 -0.30454683
-0.2645691 0.495665 0.29063448 0.019942896 -0.12732132 -0.34932882 0.20407586 0.2097165
0.16672952 0.11397134 -0.17113067 0.12215597 -0.24352024 0.14490882 0.20819627 -0.47480625
-0.32748687 -0.28429788 -0.14411633 -0.019363867 -0.25877336 -0.21875855 0.6494833 -0.24065751
-0.29038373 0.071840726 0.21184808 0.18324594 -0.02688021 -0.004099434 0.16563958 0.1566362
0.2786851 0.25297004 0.12808092 -0.1353655 -0.28623375 -0.38224894 -0.078079276 -0.06291005
-0.1024901 0.023221415 0.59467316 0.3789105 -0.6707273 -0.18876381 0.2298555 0.1276986
-0.07392955 0.32910043 0.11201896 -0.42905205 0.08224979 0.063866325 -0.43196678 -0.22284381
0.75657105 -0.43977615 -0.1067653 -0.27581793 -0.04888773 -0.0060305833 -0.14210556 0.39905342
0.11490788 0.40342706 0.45772475 0.08414135 0.0453976 0.22760728 -0.29673585 -0.045336075
0.048451427 -0.6116206 -0.2681279 0.23292175 -0.0009637276 -0.33620217 -0.34205502 0.40723026
-0.09918766 -0.080647334 0.055409458 0.22708593 -0.17030439 0.1509929 0.20382206 -0.07046755
0.19000685 0.26762944 0.3213847 -0.16226882 -0.056010485 -0.3484341 -0.38109758 0.026342645
0.31291956 0.28720412 -0.32743016 -0.08677512 0.13763347 0.4020069 -0.019619528 -0.038284846
-0.5094668 0.4337834 -0.5299655 -0.67936 -0.027535459 0.31335673 -0.65585077 0.19728842
-0.26499584 -0.13989137 0.22288662 0.08970513 0.5651674 0.0059787673 0.16416466 -0.5971364
0.04438315 -0.07051077 0.34190288 -0.06986338 -0.060344003 0.027900312 -0.1069982 0.40121844
-0.41234577 0.019882757 -0.12399849 -0.062161945 0.042595968 0.25224864 0.09010112 0.16697255
0.20906968 0.1526426 -0.12120519 -0.197916 -0.058703534 0.43209258 -0.34056333 -0.3351624
0.039913915 0.08468145 0.10733618 -0.22581235 0.22491682 -0.19931501 -0.14340848 0.13516112
-0.27260834 0.282393 0.16302712 0.2949818 -0.29102296 -0.3114202 0.26582724 -0.14466858
-0.15884659 0.22552706 -0.089124 -0.22268803 0.21727249 -0.18771708 0.18183622 -0.18857189
-0.34843293 -0.25822425 -0.12273994 -0.20022584 -0.2697484 -0.36985183 0.2546022 0.492813
-0.4886014 0.06409626 -0.7442834 -0.022244833 -0.40882316 0.8734085 -0.2655467 -0.92921025
00000000: b530 cc3e f015 6cbd d51f bdbe 6115 e7be
00000010: e604 a83d 9d36 e33c d926 1dbd 81dc 803e
00000020: a956 dabd 486f 8bbe d778 193e 75d4 a4bc
00000030: e30d 47be 353e 6abe 9b3e 9a3d 7f74 2dbe
00000040: 41d6 82be 9b9c 86be 969a ad3d ac7f abbd
00000050: 20a4 0bbf 12f2 493e 64fd 18be 7297 2abe
00000060: c246 d0bd 29be 3fbc 822e 153b 60bc 58bd
00000070: e331 1c3f 8039 c93e f68e 0fbd 1c41 803e
00000080: 3747 bd3d 57ee 2ebf 4e08 9d3e 8368 233f
00000090: 1615 c13e f72a dbbd 22c0 193e 8e07 7abe
000000a0: e3d9 efbd dfd7 ffbd 3f12 ed3d 0e2c 3ebe
000000b0: 4cbc 05be 97d9 913e 80a6 efbd d11a 3fbe
000000c0: 8172 8b3e 95d2 883e 09a9 943d c6ed 0c3e
000000d0: 6ce9 be3d 0fa3 a83c 2792 98be 5319 c1be
000000e0: e1cc ca3c 1aaf 51be 23fa 9dbe 93a8 853d
000000f0: 9f2f 463e abd1 1a3f ca66 403a bc48 a3be
00000100: 9a59 1a3e 619a a73d e3c1 013f de08 00bf
00000110: 969d 7fbd 2ffa 293d c03b ffbe 90ed 9bbe
00000120: 9a75 87be cec7 fd3e 0bce 943e 495f a33c
00000130: 8560 02be 3adb b2be 43f9 503e ecbf 563e
00000140: 25bb 2a3e ce69 e93d e13c 2fbe e92c fa3d
00000150: 5f5d 79be fa62 143e 6731 553e ce19 f3be
00000160: 5cac a7be 7e8f 91be 3b93 13be f9a0 9ebc
00000170: f17d 84be 3e02 60be 8a44 263f ec6e 76be
00000180: 2dad 94be 3b21 933d b4ee 583e d3a4 3b3e
00000190: e333 dcbc 8b54 86bb 6c9d 293e 3d65 203e
000001a0: d0af 8e3e 4a85 813e a527 033e 419d 0abe
000001b0: 3b8d 92be 22b6 c3be 07e8 9fbd fcd6 80bd
000001c0: 54e6 d1bd d63a be3c 803c 183f 8f00 c23e
000001d0: c9b4 2bbf 4d4b 41be 3d5f 6b3e 6cc3 023e
000001e0: 6068 97bd da7f a83e 326a e53d b6ac dbbe
000001f0: 9472 a83d 59cc 823d c02a ddbe 2b31 64be
00000200: a4ae 413f 572a e1be c4a7 dabd 0238 8dbe
00000210: 803e 48bd 339c c5bb 1f84 11be bb50 cc3e
00000220: d354 eb3d fe8d ce3e e65a ea3e 4d52 ac3d
00000230: d5f2 393d e211 693e c3ed 97be 52b2 39bd
00000240: 0175 463d 2b93 1cbf 0f48 89be 0a83 6e3e
00000250: aaa2 7cba b122 acbe d621 afbe 7c80 d03e
00000260: e622 cbbd 6e2a a5bd 07f5 623d 3789 683e
00000270: 4664 2ebe e29d 1a3e bbb6 503e 4a51 90bd
00000280: 2891 423e ba06 893e 898c a43e cc29 26be
00000290: 406b 65bd f465 b2be 391f c3be 88cc d73c
000002a0: fe36 a03e 6b0c 933e eda4 a7be 27b7 b1bd
000002b0: caef 0c3e d9d3 cd3e 22b9 a0bc 92d0 1cbd
000002c0: 6b6c 02bf dc18 de3e d2ab 07bf 89ea 2dbf
000002d0: 0b92 e1bc 4b70 a03e d6e5 27bf fa05 4a3e
000002e0: 89ad 87be af3f 0fbe 643c 643e 53b7 b73d
000002f0: d0ae 103f 89e9 c33b c81a 283e eedd 18bf
00000300: 1bcb 353d f367 90bd e50d af3e 8814 8fbd
00000310: 462b 77bd 328f e43c df21 dbbd 816c cd3e
00000320: fc1e d3be 2ae1 a23c ecf2 fdbd 869d 7ebd
00000330: 1c79 2e3d bc26 813e f086 b83d dafa 2a3e
00000340: 5d16 563e 574e 1c3e 6d3a f8bd 7eaa 4abe
00000350: 1e73 70bd 3d3b dd3e 515e aebe 689a abbe
00000360: c67c 233d 786d ad3d 12d3 db3d 5a3b 67be
00000370: 9850 663e 3c19 4cbe acd9 12be ad67 0a3e
00000380: 5293 8bbe d195 903e 95f0 263e db07 973e
00000390: f600 95be 7872 9fbe 821a 883e 0024 14be
000003a0: aea8 22be 91f0 663e a586 b6bd 5508 64be
000003b0: ae7c 5e3e e838 40be 4633 3a3e fd18 41be
000003c0: cd65 b2be f835 84be 145f fbbd 0108 4dbe
000003d0: 761c 8abe 385d bdbe 385b 823e fc51 fc3e
000003e0: f629 fabe e644 833d 5b89 3ebf cc3a b6bc
000003f0: 4551 d1be b397 5f3f bdf5 87be b9e0 6dbf

rnn.weights_lin_z f4 [16, 19]
-0.21620408 -0.06422702 -0.17847686 0.34557584 -0.22981496 0.20469218 0.28177553 0.0522821
0.16028228 -0.016361777 0.17686492 -0.10898504 -0.13856076 -0.13042225 -0.18094423 -0.25527102
-0.24747838 -0.21026346 0.33327278 -0.088831075 -0.081177704 -0.3107561 -0.15474658 -0.17018658
0.29045323 -0.2943948 -0.28907183 -0.13318586 -0.08895602 0.20824014 0.08751607 -0.08412533
-0.22756226 -0.00586022 0.34284845 -0.15748201 0.084215924 -0.1690817 -0.17312317 -0.040139012
0.11723326 -0.13310479 -0.040123913 0.017901529 0.31526157 -0.12370888 -0.20559081 -0.17416278
0.28139982 -0.20313683 0.005698797 -0.22542499 -0.09989045 -0.23775697 0.15242742 0.2939031
0.07809118 -0.042346947 0.0072189416 0.07409244 -0.04619497 0.19564672 0.16155618 0.14891016
0.12121523 0.17025365 -0.15105627 -0.15089217 0.2336965 0.27259338 -0.15150781 0.28949472
-0.08309101 -0.03951074 0.1462632 -0.20663312 0.057177376 -0.027231924 0.06771611 -0.058071095
0.12856561 -0.11092915 0.091114715 0.1636056 -0.017678522 -0.36285707 0.058065876 -0.23462898
0.08158619 0.34669852 0.08597558 0.20464157 -0.24055064 -0.31217346 0.16483876 -0.02037018
-0.07951632 0.04954134 -0.13288085 -0.017869476 0.40925714 0.24579643 0.17890663 -0.04872268
-0.12509538 -0.20579186 0.33619553 0.13997163 -0.1176147 -0.005332842 0.2534843 -0.1130392
-0.25521553 -0.023245635 -0.117022425 0.15645036 -0.30460566 0.3221357 -0.39867365 -0.18695794
0.2939676 -0.09581629 0.27822936 0.16090813 0.28723404 -0.23952916 0.060617737 -0.13369174
-0.08298694 0.0729484 0.10865789 -0.0561262 0.06579253 -0.18788649 -0.23827858 -0.016777454
-0.060198788 0.03653445 0.12891549 0.13099062 -0.04921514 0.07122675 -0.40188202 -0.15042345
0.15047766 0.0519243 0.33999658 -0.1384661 0.22391705 0.06897875 -0.32447547 -0.0030814284
-0.052725784 0.34457374 0.09714248 -0.47285184 0.3530835 0.47345194 -0.12330768 -0.036012303
0.0511745 -0.10543915 -0.26059005 0.20054162 -0.08158905 -0.01803472 0.13042387 -0.04653564
-0.008239397 -0.01298569 -0.17259996 0.31826857 0.042825066 -0.26051882 -0.13166134 -0.16054456
-0.033117697 -0.1555878 0.3382213 0.22456545 -0.304011 0.005692111 -0.20980936 -0.09115254
0.16840711 -0.09652257 0.07673119 0.19699198 0.06811896 -0.007877498 0.096804075 -0.25688204
0.23699684 0.32053238 -0.032267462 0.018578604 -0.18356068 0.2120182 -0.0056828517 0.26742977
-0.005614888 -0.1937248 0.2191217 0.23221387 0.04066795 0.029513432 0.3640947 -0.205168
-0.1081396 -0.2106898 -0.077718765 0.3368808 -0.32437766 0.06684628 -0.18879148 0.23138161
0.17054468 0.026892688 -0.08141174 -0.08581099 0.22827797 0.098511554 -0.11070181 -0.040052336
0.2795883 0.082859375 -0.26921287 -0.32144222 0.13632338 0.29164597 -0.07818974 -0.25014326
0.0772637 -0.11525571 -0.023521062 0.07171091 0.10756352 0.14437926 -0.026009517 -0.22170517
0.08390894 0.048126854 0.062111825 -0.15581375 0.07220474 0.33195105 -0.21662909 -0.110616766
-0.13451037 0.2589173 -0.24550408 -0.10401126 -0.079158805 0.05893402 -0.056465704 -0.21377629
00000000: 9a64 5dbe 7589 83bd a3c2 36be 51ef b03e
00000010: 9d54 6bbe d49a 513e e244 903e c125 563d
00000020: 0a21 243e 2209 86bc 141c 353e 8c33 dfbd
00000030: dfe2 0dbe 698d 05be 7249 39be e2b2 82be
00000040: f96a 7dbe 4e4f 57be bba2 aa3e 11ed b5bd
00000050: 7f40 a6bd 6c1b 9fbe e375 1ebe 6445 2ebe
00000060: 49b6 943e eaba 96be 3901 94be e061 08be
00000070: 932e b6bd e73c 553e a03b b33d e749 acbd
00000080: 1506 69be 1707 c0bb d589 af3e f742 21be
00000090: 6679 ac3d c123 2dbe 3347 31be ce68 24bd
000000a0: fe17 f03d 9f4c 08be f958 24bd 3aa6 923c
000000b0: f769 a13e 155b fdbd 6686 52be ba57 32be
000000c0: a313 903e 1a03 50be f9bc ba3b cfd5 66be
000000d0: 5d93 ccbd 9076 73be ef15 1c3e 787a 963e
000000e0: 45ee 9f3d fe73 2dbd df8c ec3b c7bd 973d
000000f0: f036 3dbd 9d57 483e fc6e 253e e87b 183e
00000100: b13f f83d f956 2e3e 7fae 1abe 7a83 1abe
00000110: 234e 6f3e 5c91 8b3e dd24 1bbe a738 943e
00000120: 9f2b aabd 04d6 21bd 05c6 153e a297 53be
00000130: d332 6a3d 7c15 dfbc beae 8a3d f5db 6dbd
00000140: b4a6 033e d22e e3bd 5a9a ba3d 3a88 273e
00000150: 8cd2 90bc 67c8 b9be 7cd6 6d3d 9442 70be
00000160: a916 a73d 7882 b13e f713 b03d 8f8d 513e
00000170: e852 76be 33d5 9fbe 7ecb 283e 5ddf a6bc
00000180: 74d9 a2bd dceb 4a3d eb11 08be 0263 92bc
00000190: 278a d13e 0fb2 7b3e 4d33 373e 6f91 47bd
000001a0: 0119 00be 1abb 52be d221 ac3e b954 0f3e
000001b0: fadf f0bd 1fbf aebb b2c8 813e 1981 e7bd
000001c0: 9cab 82be a16d bebc 74a9 efbd 8634 203e
000001d0: 46f5 9bbe f8ee a43e f41e ccbe e771 3fbe
000001e0: ec82 963e 553b c4bd 1474 8e3e 1ac5 243e
000001f0: 5710 933e 2247 75be 4e4a 783d 7de6 08be
00000200: 0ff5 a9bd f965 953d 0788 de3d 96e4 65bd
00000210: 3cbe 863d 5165 40be 4dff 73be df70 89bc
00000220: 0193 76bd 26a5 153d 6c02 043e 6822 063e
00000230: d195 49bd 55df 913d 7bc3 cdbe 9b08 1abe
00000240: d116 1a3e 93ae 543d 0814 ae3e 0fca 0dbe
00000250: 834a 653e bb44 8d3d a621 a6be caf1 49bb
00000260: fef6 57bd f86b b03e a3f2 c63d a319 f2be
00000270: 5cc7 b43e 4b68 f23e bd88 fcbd a381 13bd
00000280: 5a9c 513d 7bf0 d7bd 0f6c 85be c85a 4d3e
00000290: 2918 a7bd 8dbd 93bc d68d 053e 289c 3ebd
000002a0: 89fe 06bc eec1 54bc 0bbe 30be 19f4 a23e
000002b0: 5669 2f3d b962 85be 3bd2 06be cb65 24be
000002c0: 6ca6 07bd 6952 1fbe 582b ad3e 7cf4 653e
000002d0: 54a7 9bbe e384 ba3b 44d8 56be 2fae babd
000002e0: ea72 2c3e a0ad c5bd 3e25 9d3d 44b8 493e
000002f0: f481 8b3d 9f10 01bc 3741 c63d 0b86 83be
00000300: 4daf 723e d21c a43e e32a 04bd 2832 983c
00000310: 55f7 3bbe 4d1b 593e 3737 babb 8eec 883e
00000320: 18fd b7bb cb5f 46be 7061 603e 79c9 6d3e
00000330: 7093 263d 27c6 f13c 9f6a ba3e 8f17 52be
00000340: 4b78 ddbd 11bf 57be 042b 9fbd a47b ac3e
00000350: d414 a6be b4e6 883d 8e52 41be 4def 6c3e
00000360: 44a3 2e3e 0e4e dc3c 33bb a6bd acbd afbd
00000370: b3c1 693e 6dc0 c93d a1b7 e2bd eb0d 24bd
00000380: 3326 8f3e 2db2 a93d 45d6 89be 1394 a4be
00000390: 5b98 0b3e 9f52 953e f121 a0bd c712 80be
000003a0: 6e3c 9e3d 300b ecbd 3eaf c0bc 2bdd 923d
000003b0: 434a dc3d 28d8 133e e911 d5bc ae06 63be
000003c0: 73d8 ab3d aa20 453d f868 7e3d a48d 1fbe
000003d0: 14e0 933d 7df5 a93e 04d4 5dbe 0b8b e2bd
000003e0: 16bd 09be cf90 843e 6c65 7bbe db03 d5bd
000003f0: 031e a2bd cd64 713d 9548 67bd 2ce8 5abe

rnn.bias f4 [48]
0.256443 0.06376828 0.07580399 -0.23613235 -0.20775759 0.42123628 -0.014698593 -0.51767206
-0.075659804 0.238885 -0.05633601 -0.3319405 -0.449418 0.036898393 -0.14088693 0.11572618
0.18286443 0.114934795 -0.35608482 0.21390805 -0.22235198 -0.011112286 -0.32636622 -0.13230276
0.0889671 0.14342362 0.2216882 -0.25524867 -0.30879217 -0.21498957 -0.16294567 -0.10647972
0.31578135 0.3786997 0.27360967 0.23456378 0.2935302 0.18193899 -0.12102898 0.40858045
0.27855527 -0.2901466 0.0036917198 0.2659209 0.19582073 0.56981444 0.57170445 0.5356125
00000000: 7f4c 833e f298 823d 1f3f 9b3d aecc 71be
00000010: 68be 54be 48ac d73e 5ed2 70bc 2886 04bf
00000020: 87f3 9abd 459e 743e 97c0 66bd 1bf4 a9be
00000030: 1e1a e6be c522 173d aa44 10be d901 ed3d
00000040: d040 3b3e ef62 eb3d c050 b6be b60a 5b3e
00000050: 3db0 63be 4e10 36bc 7919 a7be 607a 07be
00000060: 6234 b63d a4dd 123e 3b02 633e f4af 82be
00000070: 021a 9ebe 3a26 5cbe 3bdb 26be 0a12 dabd
00000080: 18ae a13e ede4 c13e 9116 8c3e 7d31 703e
00000090: 9749 963e 374e 3a3e 0bde f7bd 7531 d13e
000000a0: cc9e 8e3e 188e 94be c8f0 713b c926 883e
000000b0: 3b85 483e 5cdf 113f 395b 123f e71d 093f

rnn.bias_lin_z f4 [16]
0.28330746 0.05860046 -0.24325994 -0.21985081 -0.17292897 0.021953903 0.097880185 0.05839903
-0.13037924 -0.018180896 0.045616865 0.0448715 0.1813932 0.14968261 0.22052635 -0.1263595
00000000: ad0d 913e 0907 703d 2219 79be 9220 61be
00000010: 4b14 31be acd8 b33c 6875 c83d d233 6f3d
00000020: 2382 05be 1af0 94bc c0d8 3a3d 2ecb 373d
00000030: 24bf 393e 6646 193e a9d1 613e 6364 01be

classifier.weight f4 [3, 16]
-0.24774195 -0.56121814 0.18982507 0.12988892 -0.4159547 -0.33953965 0.089779384 -0.018788522
-0.12344655 0.26287857 0.93598723 -0.01338419 0.23750901 -0.1476613 -0.14043045 0.22539558
-0.49246275 0.17359221 0.25062823 0.09742975 -0.11938854 -0.3723342 0.046039116 -0.59690523
-0.1332928 0.20698082 -0.51653 -0.5250105 0.040872242 0.26926354 -0.49787888 0.89939207
0.36855465 -0.27501968 0.15377724 -0.86216027 0.6444814 -0.04376467 0.27149412 -0.08178693
-0.36049947 0.35388994 -0.1873259 -0.5514834 -0.48388928 -0.5558389 -0.3797582 0.22025931
00000000: 11b0 7dbe feab 0fbf 8161 423e 9a01 053e
00000010: 04f8 d4be 24d8 adbe 41de b73d 63ea 99bc
00000020: 8bd1 fcbd 0598 863e dc9c 6f3f 5d49 5bbc
00000030: 9035 733e 8634 17be 00cd 0fbe 19ce 663e
00000040: 1424 fcbe 28c2 313e 5852 803e 4089 c73d
00000050: fb81 f4bd 97a2 bebe 8393 3c3d c8ce 18bf
00000060: e87d 08be c8f2 533e 4f3b 04bf 1767 06bf
00000070: a769 273d e9dc 893e fbe9 febe 8f3e 663f
00000080: 32b3 bc3e 61cf 8cbe c877 1d3e 89b6 5cbf
00000090: bcfc 243f 9542 33bd 4701 8b3e e87f a7bd
000000a0: 6393 b8be 1031 b53e 5cd2 3fbe 042e 0dbf
000000b0: 56c0 f7be 754b 0ebf ab6f c2be a88b 613e

classifier.bias f4 [3]
0.076638736 0.016592875 -0.07271057
00000000: c5f4 9c3d c8ed 873c 48e9 94bd
