Final Project/LEM-main/models/lorenz63/1/model.pt (torch, 7191 bytes, 6 tensors)

rnn.weights f4 [48, 19]
000000 2b f5 bc bd 33 7c 9a bd af 1c 5d be 6a 18 69 be
       -0.092264496 -0.0754322 -0.21592973 -0.2276322
000010 f1 23 ec bd fd b1 53 bd bb ec b5 bd 9a 46 91 3d
       -0.11530293 -0.051683415 -0.088830434 0.07093544
000020 13 ea a4 bd 5a 62 a9 bd c8 9f 92 3d 76 31 9b bc
       -0.080524586 -0.08270712 0.07159382 -0.018944483
000030 e8 69 90 3d 73 6e 26 3e 32 de 5a bd d3 a5 f3 3c
       0.0705145 0.1625307 -0.05343456 0.029742157
000040 a8 86 30 be 14 0d 38 bd e6 25 ad 3c 4f ab 2a 3e
       -0.17238867 -0.044934347 0.021136235 0.16666912
000050 04 a6 e0 bd 0c 67 9b bd a9 03 91 be f1 09 4a bd
       -0.10969165 -0.07588014 -0.28323105 -0.049325887
000060 f5 33 9e 3d 30 93 de 3d 44 5b 0a be db f9 0c be
       0.07724754 0.108679175 -0.13511378 -0.13767187
000070 93 f1 ab 3e 34 b5 44 be 87 7a e7 bd 78 cd 56 3d
       0.33582744 -0.19209749 -0.11302667 0.052442044
000080 16 2f a7 bc 19 e9 86 be 72 ef 19 3e fe e3 77 3e
       -0.020408195 -0.26349714 0.15032747 0.24208066
000090 2f 0d 91 3e 45 43 03 3e b2 b9 ab 3e 97 bd 19 be
       0.2833037 0.1281863 0.33540112 -0.15013729
0000a0 a4 07 25 be d9 f3 d8 be fc 01 b4 3d 7e a5 9e bd
       -0.16116196 -0.4237354 0.08789441 -0.07746409
0000b0 8d 0b fe bc 0a 1c 31 3e 08 f1 58 be f9 36 8d be
       -0.031011367 0.17295852 -0.21185696 -0.27581003
0000c0 1b d2 c4 3d dc 2f ec 3d a7 29 90 3d bb fb d9 3d
       0.09610387 0.11532566 0.070391946 0.10643717
0000d0 96 6b 48 3e 3c 48 81 3d a5 88 14 3e 07 b7 13 be
       0.19572291 0.06312606 0.14505251 -0.14425288
0000e0 c7 48 6a bc 7a fd 88 bd 9e 66 92 3d ac 4b a0 bd
       -0.014299578 -0.06688972 0.07148479 -0.07826933
0000f0 f1 9b 35 be 5e 3a 22 3e 41 78 8e bc a1 ca 0e be
       -0.17735268 0.15842578 -0.017391326 -0.13944484
000100 0a d3 6b bd b0 1e 1c be 17 53 1e 3e e2 60 54 be
       -0.05757431 -0.15246081 0.15461384 -0.20740083
000110 86 77 fd bd fc 94 38 bd 63 49 93 bd d0 cf 22 bc
       -0.12376313 -0.045063958 -0.07191732 -0.009937242
000120 bb cb 87 be b7 bf 63 3e b9 e2 09 3e 9c 49 4c 3d
       -0.26522622 0.22241102 0.13465394 0.049874887
000130 cc 76 c6 bd 0c 6a e0 bd 00 01 c4 3d 2b fe 93 be
       -0.096906275 -0.10957727 0.09570503 -0.28904852
000140 44 4c 77 bd d4 45 c5 3c f6 15 96 bd 8c 8e 33 3c
       -0.060375467 0.024081148 -0.073284075 0.010959279
000150 c1 ed bc be 14 1a 6a 3e c3 61 d9 3d 05 7a c6 be
       -0.36900142 0.2286151 0.1061435 -0.3876497
000160 7c d5 31 be 12 b9 8a 3d c3 7a ab 3b 1d 8e 10 3d
       -0.17366594 0.067735806 0.00523314 0.03529178
000170 21 c5 63 be b8 ab 1f be 21 5f a1 3e 5d 9d 31 be
       -0.22243167 -0.15592849 0.3151789 -0.17345186
000180 9f 0b b9 bd 03 fa c8 3d 54 54 8f 3d 05 00 29 bb
       -0.0903542 0.09813311 0.06998506 -0.0025787365
000190 33 92 cf bd e0 6a 44 3e 59 18 76 bd 7f 34 7c be
       -0.10135307 0.19181395 -0.060081813 -0.246294
0001a0 ca 90 82 3e df 72 72 3e f5 b5 3e 3d 3c 83 a6 bd
       0.2550109 0.23676632 0.046560246 -0.081305
0001b0 c8 a4 43 be d5 b8 80 be a7 cc 3f 3c 31 83 88 bd
       -0.19105828 -0.25141016 0.011706508 -0.06665648
0001c0 04 04 67 3c 83 f0 22 bc d7 41 7d 3e ea 8d 6f 3e
       0.0141000785 -0.009945038 0.24732147 0.2339398
0001d0 57 c9 51 bd 6f f6 d9 bc 4d 1e 62 3e d5 5b 3b 3d
       -0.051217403 -0.026606767 0.22081871 0.045741875
0001e0 c9 5b f6 bd 46 54 39 3e 00 eb 62 3e 3d fa 6c be
       -0.120292254 0.18098554 0.22159958 -0.23142333
0001f0 fd a8 9e 3c 78 f6 68 3d 0d f0 95 be c0 83 2e be
       0.01936769 0.056875676 -0.29284707 -0.17042446
000200 59 a8 52 3e 99 3a 20 be f2 27 73 3d 7f 41 10 bd
       0.20572032 -0.15647353 0.059364267 -0.035218712
000210 6b ca 00 bd 1e 70 ae bd 4c 61 b2 bd 89 95 46 3e
       -0.03144304 -0.085174784 -0.08709964 0.1939298
000220 52 ca c4 3d 27 f7 21 3d 0c 1d 91 3d 9c 00 7d 3e
       0.09608902 0.039542343 0.070856184 0.24707264
000230 20 24 2a be 42 45 70 3d 38 83 45 3c 7b 20 5a bc
       -0.16615343 0.0586598 0.012055211 -0.013313408
000240 f5 73 d6 3d 09 2d 90 be 5b bc 45 bd a0 94 6a 3e
       0.10471336 -0.2815936 -0.048275333 0.22908258
000250 83 94 85 3d a3 7d e5 bd 71 f0 28 be 46 7f 4c 3e
       0.06522467 -0.11205604 -0.16497971 0.19970426
000260 bd 01 65 bc 57 8d 68 3d 0f e4 42 bd ca 2a a7 3d
       -0.013977465 0.056775417 -0.047580775 0.08162458
000270 07 1e 58 bd 4a 75 e9 3d d2 77 06 3e b6 fb 1e 3d
       -0.05276301 0.11399324 0.13131645 0.03881427
000280 08 5e 84 3e af 80 7d 3e f4 18 7b 3e 12 f6 18 be
       0.2585299 0.2475612 0.24521238 -0.14937618
000290 d7 ec e6 bd 49 99 9e be 2b 9d 93 be be 5d 63 bd
       -0.11275642 -0.30976322 -0.28830847 -0.05550932
0002a0 f8 e5 66 3e 64 c9 2c 3e 66 f6 f5 bd f8 74 09 be
       0.22548664 0.168737 -0.120098874 -0.13423526
0002b0 1a eb 3c 3e c2 91 75 3e 2d 03 14 3e 8f e5 95 3e
       0.18449059 0.23981383 0.14454336 0.29276702
0002c0 76 4d 13 be 14 57 0f bd 71 0f f9 bd dc fe f7 bd
       -0.14385018 -0.034995154 -0.12161148 -0.121091574
0002d0 09 4b 0a be dc 0e 9f 3e c2 01 c6 bc 5e b5 bd 3d
       -0.13505186 0.31066024 -0.02417076 0.09263109
0002e0 1d 65 08 be ef cd 50 bd b2 7b b5 3c 85 6f 89 bd
       -0.13319822 -0.050977644 0.02215371 -0.06710724
0002f0 5d ad 72 3e a3 ac 03 be af 82 7a 3e e2 c6 9a be
       0.23698945 -0.12858824 0.24463914 -0.3022986
000300 d6 d8 0a be 96 dc 56 be f5 8c 0e 3e 99 b9 dd bb
       -0.13559279 -0.20982584 0.13920958 -0.0067665097
000310 a2 59 57 3e 22 64 72 bc 0e 7e 81 be d5 55 8f 3e
       0.21030286 -0.014794381 -0.25291485 0.27995172
000320 f3 ac 80 be c2 c9 af 3d 27 5c ea bd ca 34 27 3e
       -0.2513195 0.08583404 -0.11443358 0.16328731
000330 8f 3b a3 3e ff 9b 32 3e ea 77 de 3d a2 c6 d1 3d
       0.31881377 0.1744232 0.108627155 0.10242964
000340 0a b7 95 3d 62 fe 1b 3e e1 db ce 3d de 5e 4c be
       0.073103026 0.15233758 0.10100532 -0.19958064
000350 3c 1b f7 bd 5f 7b 2f 3e 65 ba c8 be 07 23 c0 bd
       -0.120657414 0.17136906 -0.39204708 -0.09381681
000360 f5 58 19 be a7 1e 16 be 40 47 97 3d 5e d8 ab bd
       -0.1497534 -0.1466013 0.07386637 -0.08390878
000370 8b c7 b0 bd 68 9d 00 be 1d fc 49 3d 9f 59 8c 3e
       -0.0863181 -0.12560046 0.0493127 0.27412125
000380 a2 60 65 be 29 ce 30 3e d2 0e d0 3d 67 1a a2 3e
       -0.22400144 0.17266144 0.10159077 0.31660768
000390 a6 d2 86 be 2a 34 85 be 32 1f 30 3e 03 0f 1d be
       -0.26332587 -0.2601636 0.171994 -0.15337758
0003a0 72 03 27 be 24 de 81 3e 4c 75 e5 3d 46 37 36 be
       -0.16309908 0.25364792 0.11204013 -0.17794523
0003b0 e5 1a 9d 3e 57 1f 36 bd 87 ca 70 3e c0 b3 89 bd
       0.3068458 -0.04446348 0.23514758 -0.06723738
0003c0 d2 7c 8b be 48 8f 24 be fb 42 be bd 43 29 61 be
       -0.27243668 -0.16070282 -0.09290119 -0.21988396
0003d0 96 d4 56 bd 25 ec 6b be c6 e6 12 be 54 df c5 3d
       -0.05244883 -0.230393 -0.14345846 0.09661737
0003e0 df cd 96 bd cd 0c 66 be c8 97 42 bd 69 d9 48 be
       -0.073634855 -0.2246582 -0.04750803 -0.19614185
0003f0 22 e0 d7 bb 02 c1 65 3e 41 18 dc bd 28 9b 90 bd
       -0.006587998 0.22436908 -0.107468136 -0.07060844

rnn.weights_lin_z f4 [16, 19]
000000 a4 64 6d be cd ba c1 3c 1a 9f f1 bd 7c f0 66 3e
       -0.23182923 0.023648644 -0.11797924 0.22552675
000010 7e d0 14 be 0f 71 58 3e c5 a6 8a 3e a4 1b b4 bc
       -0.14532658 0.21136878 0.2708036 -0.021985836
000020 7d 9e 3e 3e bb 12 59 bd 3b 35 0a 3e 91 ec 2c bd
       0.18615146 -0.05299638 0.13496868 -0.042217795
000030 81 bb b2 bd 5b c7 d8 bd e3 f6 8c bd 53 28 5b be
       -0.0872717 -0.10584899 -0.068830274 -0.21402101
000040 16 9f 8d be 5d 79 65 be 90 3e 74 3e 55 ba a3 bd
       -0.27660435 -0.22409578 0.2385199 -0.079945244
000050 5e ef 1a be 9d 86 84 be 98 1b 10 be 11 1d 26 be
       -0.15130374 -0.25883952 -0.14073026 -0.16222025
000060 2b d5 8a 3e 42 dc 52 be 9f 96 59 be 8b e5 2d be
       0.2711576 -0.20591834 -0.21248864 -0.16982095
000070 08 08 ba bd dd 99 38 3e ae 33 0c 3e d3 08 3a bd
       -0.09083563 0.18027444 0.13691589 -0.04541857
000080 c6 f6 3f be bf dc d6 3b 1d 97 a2 3e 2f 99 c2 bd
       -0.1874648 0.0065570767 0.31755915 -0.09501874
000090 40 18 e1 3d 6e 76 ef bd 73 4d 3d be f2 13 a4 3c
       0.109909534 -0.116925105 -0.18486576 0.020029042
0000a0 36 28 90 3d 9c ff aa bd a9 cb 26 bd 1c e1 43 3c
       0.0703892 -0.08349535 -0.04072157 0.011955526
0000b0 c7 47 9b 3e 3d f2 d8 bd ac f7 32 be ce 32 0f be
       0.303282 -0.10593078 -0.17477292 -0.13984224
0000c0 6f 34 73 3e ce 04 2a be a4 ed 30 ba a6 56 65 be
       0.2375047 -0.16603395 -0.00067492784 -0.22396335
0000d0 4a 54 d1 bd d9 2d 83 be a2 6e 07 3e 4c 4b 79 3e
       -0.10221155 -0.25620916 0.13225797 0.2434513
0000e0 2b ec 2c 3d 30 70 4b bd e5 bf 21 3d 13 9f 68 3d
       0.042217415 -0.049667537 0.039489646 0.05679233
0000f0 fc 59 ed bc 90 52 30 3e f6 1e 4f 3e 99 1d 5e 3d
       -0.028973572 0.17218995 0.20226654 0.054227445
000100 50 70 1a 3e 4a b9 0f 3e 6b d5 bc bd 9a cc 7e be
       0.15081906 0.14035526 -0.09220394 -0.24882737
000110 b5 53 86 3e c9 32 6a 3e 54 39 3a be d1 ad 8e 3e
       0.26235738 0.22870935 -0.18185931 0.27866986
000120 e1 95 d2 bd 54 e8 24 bb 59 85 e4 3d b7 a2 1d be
       -0.102824934 -0.0025162892 0.111582465 -0.15394102
000130 7d 5a b8 3d 65 3e 22 bd de dd d9 bc 61 33 5e bd
       0.09001634 -0.039610285 -0.026595052 -0.054248217
000140 8b e3 fa 3d d1 f9 f8 bd 31 60 8a 3d 53 4f 07 3e
       0.122504316 -0.12157024 0.06756628 0.13213854
000150 9a 36 12 bd 77 93 93 be 7e a0 b3 3d 1d e8 85 be
       -0.035696603 -0.28823444 0.08770846 -0.2615365
000160 05 19 31 3c fe 11 96 3e f7 c7 a0 3d 2f ee 77 3e
       0.010809188 0.29310602 0.0785064 0.24211954
000170 76 8b 85 be 69 10 a4 be 77 65 05 3e 40 af 86 3b
       -0.26082963 -0.3204377 0.13026987 0.004110247
000180 50 5e b4 bd 33 25 0b 3d 86 cf ff bb 07 f5 57 bd
       -0.08807051 0.033971023 -0.007806721 -0.05272391
000190 00 9a b4 3e a5 ea 76 3e 00 d4 17 3e 69 21 b3 bc
       0.35273743 0.24112947 0.14826965 -0.021866517
0001a0 0e fc dc bd bc 92 bb bd b6 37 9e 3e f8 b5 28 3e
       -0.10790263 -0.09158847 0.3090188 0.16475666
0001b0 9a a2 6f bd ae f1 14 3b ff 43 89 3e ba 43 37 bd
       -0.05850468 0.002272706 0.2680969 -0.044742323
0001c0 08 0c 3d be 05 29 fb 39 ef 57 4d bd c7 64 c0 3d
       -0.18461621 0.00047905013 -0.050132688 0.09394222
0001d0 ad 60 da bd 61 f0 43 3e 01 5e af be b4 a4 d4 bd
       -0.10662971 0.19134666 -0.34251407 -0.10382977
0001e0 35 2b 87 3e 6f 9a aa bd 8b 98 69 3e ca ab 36 3e
       0.26400152 -0.08330237 0.22812097 0.1783897
0001f0 47 26 60 3e 9a a4 73 be 8c b1 bf bc 1f 6f 54 be
       0.21889602 -0.2379326 -0.02340009 -0.20745514
000200 dc cd b2 bd 91 91 bc 3d bd ec b8 3d 63 99 89 bd
       -0.08730671 0.09207452 0.09029529 -0.06718709
000210 33 a7 b9 bc 5e 00 03 be 8a 30 00 be ea eb 80 bd
       -0.022662735 -0.12793109 -0.12518516 -0.06294997
000220 af a9 02 be 9d 14 ea bb 2b 80 1e 3e 70 e8 75 3c
       -0.12760042 -0.0071435706 0.1547858 0.015009031
000230 67 d5 cb bd 7b 76 ca 3d 1d 05 84 be b3 ff 7e bd
       -0.09952813 0.098858796 -0.2578515 -0.062255573
000240 a3 2a 23 3d 19 88 0d 3b d7 1d 8e 3e 22 19 15 be
       0.039835583 0.0021596013 0.2775714 -0.14560369
000250 46 44 67 3e 10 83 83 bc 0f f8 8e be 12 06 ad bb
       0.22584638 -0.016053706 -0.2792363 -0.0052802647
000260 79 c6 91 bd e2 c6 b3 3e 62 1d 39 3e c3 47 ae be
       -0.07117934 0.35112673 0.18077615 -0.34039125
000270 7b 8e a6 3e f6 f0 a9 3e 99 be f9 3c 55 c0 d5 bd
       0.3253058 0.3319165 0.030486392 -0.10437075
000280 8f 03 05 3e 9d bb d7 bd 91 df ab bd 91 63 c3 3d
       0.12989639 -0.10533831 -0.08392251 0.09540475
000290 80 98 05 3d 8b cf 87 3d 0a 73 8e 3c 72 8d ee bb
       0.03261614 0.066313826 0.01738884 -0.007280045
0002a0 6a bf 67 bd 53 ae f0 3c fa bd 37 3c d4 d3 94 3e
       -0.05657903 0.02938 0.011214728 0.29067862
0002b0 e3 3f cb 3c 44 f0 92 be 6b 98 d9 bd a9 3c 3b be
       0.024810737 -0.28698933 -0.106247745 -0.18284859
0002c0 de 26 6e bd d4 d8 0d be c0 e7 6f 3e 99 7f 85 3e
       -0.058142535 -0.13852245 0.2342825 0.26073912
0002d0 f7 d0 84 be c6 89 03 3c 1d 9f 58 be 6f a1 ca bd
       -0.25940678 0.008028453 -0.21154447 -0.09894072
0002e0 5d da 32 3e 62 65 00 be 19 24 84 3d 03 62 48 3e
       0.17466111 -0.12538674 0.064521976 0.19568639
0002f0 08 db b4 3d 19 c8 97 bd 0d c1 19 3d 99 4c 25 be
       0.088308394 -0.074112125 0.037537623 -0.16142501
000300 72 e9 7e 3e 12 65 93 3e b1 af 93 bd fd 36 1f 3d
       0.2489374 0.28788048 -0.07211245 0.0388708
000310 e9 5f 50 be 4a 9e 4b 3e 31 cb 0c 3d 90 69 70 3e
       -0.20349087 0.19884601 0.034373466 0.23477769
000320 3d 30 b0 bc 19 2c 5a be ea 05 8f 3e ca a0 59 3e
       -0.021507377 -0.21305884 0.279342 0.21252742
000330 9d c5 94 3d 1c cb 0e 3c a8 29 a8 3e 58 f1 3b be
       0.07264254 0.008715417 0.3284428 -0.18353784
000340 e6 08 d4 bd dc 99 81 be 3c d2 86 3d 6a 19 8a 3e
       -0.1035326 -0.25312698 0.06583068 0.26972514
000350 20 16 85 be 8f e7 35 3d 71 96 31 be ff 53 fa 3d
       -0.25993443 0.044410285 -0.17342545 0.12223052
000360 7c 90 23 3e 1d 66 ed 3c 72 b8 8f bd b3 d6 c0 bd
       0.15973085 0.028979355 -0.07017602 -0.094159506
000370 90 86 75 3e a8 a0 9d 3d 97 13 ff bd 7f 12 9e 3c
       0.23977113 0.076966584 -0.12454908 0.019295929
000380 7c c1 81 3e b7 0a da 3d 04 bc 84 be 44 db 96 be
       0.2534293 0.10646575 -0.25924695 -0.2946416
000390 1b bd e0 3d 29 f2 88 3e 39 a5 7d bd c1 08 64 be
       0.10973569 0.26747254 -0.061925147 -0.22268964
0003a0 9b 70 e4 3d 58 35 dc bd 32 de 48 3d bc a8 13 3e
       0.1115429 -0.10752362 0.049040027 0.14419836
0003b0 50 1a e0 3d af 2c b6 3d 5e 8a 07 be ca 51 08 be
       0.10942519 0.088952415 -0.13236377 -0.1331245
0003c0 01 5b 0c 3e 63 41 a2 3d 32 9b db 3d f9 16 3b be
       0.1370659 0.07922628 0.107229605 -0.18270482
0003d0 85 66 cb 3d a4 ff a8 3e bf 3a 12 be 48 fe c9 bd
       0.099316634 0.33007538 -0.14280222 -0.098629534
0003e0 02 7c 11 be cd c2 73 3e 90 5a 72 be ff 72 9d bd
       -0.14207461 0.2380478 -0.2366736 -0.076879494
0003f0 d5 d7 53 bd b4 b0 b9 3d 5b 22 80 3d b4 3f 68 be
       -0.051719505 0.090669066 0.06256553 -0.22680551

rnn.bias f4 [48]
000000 b2 5c 8c 3e 08 56 0b 3e 9b bd 55 3e 85 18 fd 3d
       0.2741447 0.13607037 0.2087311 0.12358192
000010 f9 89 da bb 36 1a 22 3a b1 4e 8d be f4 e6 2b bd
       -0.0066692797 0.00061837153 -0.275991 -0.0419683
000020 1d 10 01 3e 06 67 03 3d bc 9e 4a 3e 57 9c 0f bd
       0.12603803 0.032080673 0.19787115 -0.035061207
000030 48 bf 23 be 60 60 95 bd 2e 7d 65 3e 60 e4 b5 3d
       -0.15990937 -0.07293773 0.22411034 0.0888145
000040 3e 0d 40 3e 99 45 d5 3d e8 54 94 be f5 ec 3e 3e
       0.18755051 0.10413665 -0.28971028 0.1864508
000050 01 b2 e2 bd b4 7d 31 be 90 16 65 be 28 bb 9e 3c
       -0.11069108 -0.17333108 -0.22371888 0.019376352
000060 07 9f b0 3d d1 10 9d 3d 13 f0 45 3e 2d bc 81 be
       0.08624082 0.07669223 0.19329862 -0.2533888
000070 90 79 50 be 47 bf 24 be cd 28 b3 bd 08 da bc bd
       -0.20358872 -0.16088592 -0.087480165 -0.09221274
000080 a2 c4 a5 3e 0a 3d 31 3e 75 23 86 3d a7 67 da 3e
       0.3237658 0.17308441 0.06549732 0.42657205
000090 23 29 11 bc 37 d1 c1 bd cb 40 25 be dd e0 6e 3e
       -0.008859905 -0.09463733 -0.16137998 0.23327966
0000a0 3f 0a a1 3e 16 ef 1e be b1 ef 48 3e 94 ef 90 3e
       0.3145313 -0.15520892 0.19622685 0.28307784
0000b0 70 be a8 bb 19 e4 3f 3d 86 15 81 3e a4 a4 27 3e
       -0.005149655 0.04684839 0.25211734 0.16371399

rnn.bias_lin_z f4 [16]
000000 f1 90 68 3e d4 07 3e b9 c9 65 56 be 66 e5 2f be
       0.22711541 -0.00018122728 -0.20937265 -0.17177352
000010 68 3f a2 bd fa 2c da bc ef 97 b0 3d e7 65 05 3e
       -0.0792225 -0.026632775 0.08622729 0.13027154
000020 cd 6e 81 be fb d3 ff 39 f6 7c 68 bd 02 11 b8 3d
       -0.25279847 0.00048795328 -0.056759797 0.08987619
000030 80 37 06 3e ca 00 21 3e b0 fd 50 3e 2e 48 e3 bd
       0.13107109 0.15722957 0.20409274 -0.110977516

classifier.weight f4 [3, 16]
000000 78 08 5e be 91 94 f7 be 47 ff e9 3d ea 56 15 3e
       -0.21682918 -0.48355535 0.114256434 0.14583936
000010 fd 93 c6 be fb 9c 82 be aa d7 c5 3d 12 d9 9b 3b
       -0.3878478 -0.25510392 0.09660275 0.0047561014
000020 31 c5 c9 bd b0 32 40 3e e6 de 57 3f 51 cf e4 bb
       -0.098520644 0.18769336 0.8432449 -0.006982722
000030 10 ff 4a 3e 26 f7 28 be 47 ee 9e bd 2b bd 2b 3e
       0.19823861 -0.1650053 -0.077602915 0.1677138
000040 e7 af b0 be eb a1 2e 3e 2f be 6b 3e bb 26 06 3d
       -0.34509203 0.17053954 0.23021768 0.03275178
000050 40 e5 b9 bd 80 f7 7b be 81 c0 34 3d a2 c4 08 bf
       -0.09076929 -0.24606133 0.0441289 -0.5342504
000060 21 ac d4 bd ce 92 47 3e bd 09 fc be d7 bc ed be
       -0.103843935 0.19489595 -0.4922618 -0.46433136
000070 89 ff b4 3c da fe 8c 3e 7c 07 f4 be 09 56 59 3f
       0.022094505 0.27538186 -0.4766196 0.84896904
000080 c4 91 a4 3e 0c 66 79 be b5 d1 2f 3e ae 45 4f bf
       0.3214246 -0.24355334 0.1716984 -0.809657
000090 9f 75 21 3f f4 63 36 bd 2c b8 4e 3e b2 06 ae bd
       0.630701 -0.044528916 0.20187443 -0.08497371
0000a0 92 a3 9e be 6d 55 ca 3e 0e 8f 55 be 92 63 f6 be
       -0.3098417 0.395183 -0.20855352 -0.4812284
0000b0 14 4a f4 be 2e b0 00 bf bc df b5 be f9 16 77 3e
       -0.47712767 -0.5026883 -0.35522258 0.24129857

classifier.bias f4 [3]
000000 23 37 a0 3d 6b e2 3d 3b e9 25 e7 bd
       0.078230165 0.0028974067 -0.11286528
