Final Project/LEM-main/models/lorenz63/7/model.pt (torch, 45847 bytes, 6 tensors)

rnn.weights f4 [150, 53]
-0.2974263 -0.18447967 0.073889636 0.047133014 -0.20639417 0.12413688 -0.21643065 0.047240946
-0.13515618 -0.12570246 -0.0059482227 -0.12799978 -0.038901143 0.03230833 -0.090540186 -0.07191402
-0.028128462 -0.052779563 0.067405514 0.19579487 0.17682692 -0.0855794 -0.017090674 -0.07356964
0.12691388 0.0758466 -0.12380326 0.1041958 0.35655332 -0.2607968 0.19964027 0.10802162
0.19971888 -0.09024054 0.072708115 0.2402089 0.23290583 0.074683614 0.09135051 0.014203861
-0.1677781 -0.11347532 0.09936613 0.15324324 -0.01744528 -0.03961109 0.081348106 -0.08151894
-0.04187939 0.16247804 -0.053848185 0.20897993 0.39283723 -0.1234675 -0.11603967 -0.019436847
-0.15995727 -0.16344385 0.037051674 0.027609171 0.0018353125 0.08012747 0.01742051 -0.24239717
-0.10776578 -0.045379575 0.035908975 -0.08087679 -0.06587046 0.031279456 -0.11680652 0.28165734
-0.2643661 0.09383111 0.11188095 -0.061743945 -0.28984323 -0.18398505 0.08966195 -0.1631788
-0.014767908 0.20304525 -0.23844437 0.22044574 0.019989228 0.16842024 0.07283137 -0.07658544
0.06220765 0.12372128 0.039705876 -0.04649796 -0.056889847 -0.2429242 0.08299656 0.09674782
0.08228612 -0.045739494 0.041513335 0.09408968 0.1117019 -0.032828845 0.119699135 -0.3063823
0.08038983 0.42907867 -0.30480307 -0.2516439 -0.12870878 -0.04298333 -0.07644659 -0.054160602
-0.084721856 0.026343618 0.027293792 0.052581668 -0.2791857 0.15663086 0.016097995 0.12433619
-0.15586077 -0.0041405624 0.398142 -0.33228302 -0.0043423483 0.25762585 -0.14702085 0.048768997
0.25159416 -0.39374235 -0.27146396 0.24450757 -0.07181372 -0.057268582 -0.02643595 -0.18567212
0.17981862 0.08476399 -0.028107354 0.028148897 -0.08967428 0.06842198 0.19591783 -0.0008578197
-0.22240254 -0.275437 -0.16414325 -0.07554394 0.24603537 0.22203872 0.09789337 0.11118671
0.09443532 0.01935869 -0.20079337 0.123406135 0.1435657 0.13561998 0.29489657 -0.12201663
-0.16534641 0.27456814 -0.10028497 -0.22206444 0.07240619 0.09506135 0.023622524 -0.07331863
-0.07020287 -0.16460562 0.046561617 -0.10198683 -0.012227478 -0.13795388 -0.10863776 0.36428797
-0.023111794 0.22224155 -0.19591554 0.26746258 -0.3216833 0.0065860567 -0.19891687 -0.17977013
-0.18609087 -0.17920738 0.26967713 0.09353363 -0.060533307 0.23046663 0.14733914 0.09247353
0.17539512 0.10954284 0.300585 0.27397567 -0.15872197 -0.15190057 -0.070171274 -0.0852869
0.02942542 0.3160906 -0.027181579 -0.08775193 -0.04368338 0.30460972 0.06152797 -0.14457127
-0.14653207 0.2011084 0.2971956 0.19635117 -0.063369334 0.06635555 -0.25481245 -0.013145041
0.0016270621 -0.18335083 -0.016981764 -0.12079887 0.033571064 -0.10606211 -0.0012800117 0.28832132
-0.090294994 0.28690794 0.15480524 0.33383486 0.17177257 -0.24780352 -0.015636824 0.080920115
-0.13426074 0.18504088 0.25628147 -0.17980838 -0.0059458483 0.13399352 0.17011538 -0.22781509
-0.28180543 -0.15343814 -0.21818914 -0.020528842 -0.30787042 -0.06416749 -0.121107206 -0.3065747
0.13232125 -0.20762707 0.14086083 -0.29895166 0.1940264 -0.13759246 -0.0733469 0.080918685
00000000: 4348 98be 3de8 3cbe 7353 973d 8c0e 413d
00000010: fe58 53be 7a3b fe3d ff9f 5dbe b97f 413d
00000020: 6266 0abe 25b8 00be 4fe9 c2bb 6012 03be
00000030: ce56 1fbd bd55 043d 226d b9bd a847 93bd
00000040: a96d e6bc 622f 58bd e70b 8a3d 737e 483e
00000050: 1e12 353e 4144 afbd be01 8cbc aeab 96bd
00000060: b6f5 013e 7655 9b3d 908c fdbd 9c64 d53d
00000070: 288e b63e 2887 85be 806e 4c3e 703a dd3d
00000080: 1b83 4c3e 08d0 b8bd fee7 943d 52f9 753e
00000090: de7e 6e3e b9f3 983d fa15 bb3d 50b7 683c
000000a0: 06ce 2bbe c065 e8bd 7880 cb3d cceb 1c3e
000000b0: 67e9 8ebc 3d3f 22bd d699 a63d 67f3 a6bd
000000c0: b989 2bbd a560 263e ea8f 5cbd d6fe 553e
000000d0: f621 c93e 87dc fcbd 35a6 edbd 063a 9fbc
000000e0: d7cb 23be d35d 27be 7fc3 173d a12c e23c
000000f0: de8e f03a df19 a43d 75b5 8e3c f736 78be
00000100: 4eb4 dcbd efdf 39bd 4a15 133d bba2 a5bd
00000110: 17e7 86bd e31e 003d 4238 efbd 6435 903e
00000120: fe5a 87be 862a c03d d721 e53d 38e7 7cbd
00000130: 5566 94be 9466 3cbe afa0 b73d 5818 27be
00000140: 18f5 71bc 18eb 4f3e c32a 74be 87bc 613e
00000150: 73c0 a33c 5b76 2c3e 9d28 953d d4d8 9cbd
00000160: 73cd 7e3d 9561 fd3d a1a2 223d a574 3ebd
00000170: 5405 69bd 1fc1 78be 1afa a93d b923 c63d
00000180: a085 a83d 5659 3bbd e309 2a3d 17b2 c03d
00000190: f7c3 e43d 8a77 06bd d224 f53d 24de 9cbe
000001a0: 6ca3 a43d 33b0 db3e 260f 9cbe 78d7 80be
000001b0: 3ccc 03be 4a0f 30bd 0890 9cbd 82d7 5dbd
000001c0: a782 adbd 92ce d73c 3b97 df3c e05f 573d
000001d0: 6ef1 8ebe d763 203e f1df 833c f9a3 fe3d
000001e0: f799 1fbe 8ead 87bb 45d9 cb3e 0021 aabe
000001f0: 424a 8ebb 89e7 833e a28c 16be 00c2 473d
00000200: f3d0 803e 9998 c9be 53fd 8abe 3160 7a3e
00000210: 1213 93bd 7692 6abd 3590 d8bc d520 3ebe
00000220: 5f22 383e be98 ad3d 6541 e6bc 8498 e63c
00000230: 26a7 b7bd d320 8c3d af9e 483e 4edf 60ba
00000240: 7ebd 63be 1406 8dbe 2b15 28be c8b6 9abd
00000250: b2f0 7b3e 1e5e 633e 527c c83d dcb5 e33d
00000260: 4e67 c13d 1e96 9e3c c79c 4dbe 5bbc fc3d
00000270: e302 133e f7df 0a3e affc 963e dbe3 f9bd
00000280: 9250 29be 3294 8c3e 3562 cdbd dc64 63be
00000290: b249 943d 86af c23d 0684 c13c 1428 96bd
000002a0: 86c6 8fbd 608e 28be 65b7 3e3d 79de d0bd
000002b0: c355 48bc c843 0dbe 797d debd f483 ba3e
000002c0: f254 bdbc 4a93 633e 159e 48be dbf0 883e
000002d0: acb3 a4be d9cf d73b ddb0 4bbe a915 38be
000002e0: 9b8e 3ebe 2482 37be 1f13 8a3e 8f8e bf3d
000002f0: c6f1 77bd 72ff 6b3e 12e0 163e c362 bd3d
00000300: c79a 333e ff57 e03d 47e6 993e 8a46 8c3e
00000310: 0388 22be d38b 1bbe f5b5 8fbd e6aa aebd
00000320: 940d f13c a1d6 a13e e7ab debc 49b7 b3bd
00000330: 58ed 32bd cef5 9b3e c104 7c3d 7e0a 14be
00000340: 810c 16be 5cef 4d3e 062a 983e 4810 493e
00000350: c8c7 81bd 6be5 873d c776 82be 4c5e 57bc
00000360: 2543 d53a 52c0 3bbe 571d 8bbc 6665 f7bd
00000370: d081 093d 1737 d9bd 11c6 a7ba da9e 933e
00000380: 95ec b8bd 99e5 923e 4485 1e3e 67ec aa3e
00000390: 26e5 2f3e 35c0 7dbe cc18 80bc 72b9 a53d
000003a0: a67b 09be 5b7b 3d3e 5337 833e b01f 38be
000003b0: 64d5 c2bb 9935 093e ba32 2e3e 5c48 69be
000003c0: cd48 90be e31e 1dbe f96c 5fbe 1a2c a8bc
000003d0: 31a1 9dbe 3f6a 83bd 0e07 f8bd 5cf7 9cbe
000003e0: 397f 073e 319c 54be d23d 103e 3110 99be
000003f0: dbae 463e 0ae5 0cbe e636 96bd b2b8 a53d

rnn.weights_lin_z f4 [50, 53]
-0.07876325 0.13295802 0.1054597 0.028845621 -0.061564595 0.048990835 -0.10698761 -0.105303675
0.07052992 -0.083270624 0.0628583 -0.14569953 -0.022487609 0.10470808 0.19007412 0.07179288
-0.023341477 -0.046244547 -0.04587281 -0.07940533 -0.16439891 -0.0070335427 0.014595083 0.06566392
-0.058533315 -0.11667605 -0.08746837 -0.18923138 0.022545878 -0.02389343 -0.07913348 -0.100977555
-0.05387344 0.006178433 0.051104613 0.0300113 0.13298501 -0.060172945 0.11633503 -0.111189224
0.071345896 -0.15770707 -0.10650527 -0.13337377 0.0563678 0.0054182666 -0.12702294 0.1992032
0.12635109 0.05530625 0.15627687 -0.12625928 -0.14411232 -0.12122687 0.15099576 -0.03186017
-0.004429076 -0.097324334 -0.08864531 0.0825336 -0.0032392226 0.010574362 -0.040909994 0.095468245
0.075546265 -0.052104004 0.09715013 0.16021788 0.018102678 -0.07123246 0.005255064 -0.22575457
0.08594261 -0.07679634 -0.14419985 0.020162214 -0.06048382 -0.16466391 -0.06060749 0.1476023
0.010005128 -0.012558247 0.11176669 0.11803707 0.26436636 0.019614547 -0.041975282 -0.0741367
-0.23557083 -0.27393678 0.04266938 -0.10667667 0.139675 0.19365536 0.016093513 -0.016839402
-0.12605454 0.16735515 -0.17988937 0.15800884 -0.060801197 0.04630535 0.23323417 -0.16694432
-0.047303736 -0.1454441 -0.015867915 -0.09984381 -0.0065070074 0.04474899 -0.07075117 0.04018611
0.06391035 -0.09446945 0.007155228 -0.05425632 0.20462522 -0.07687484 -0.03939233 -0.1158941
0.1028306 0.001326874 0.13359264 0.05797476 0.12132412 -0.15234967 0.12953928 -0.11071249
0.025285298 -0.15273018 -0.08236654 -0.005090497 0.09181899 0.053024717 0.1355987 -0.11066899
0.045126524 -0.12462312 -0.017381445 0.089941196 -0.027336381 -0.049626555 0.13643299 0.048090823
-0.15790674 0.0857841 -0.0892697 -0.102242865 0.060537465 0.07695128 -0.06555591 -0.13589053
-0.092200555 0.042223055 0.13699672 0.059409883 0.028042655 -0.002611027 -0.100491844 0.028828029
0.023379121 -0.010383224 0.14404431 0.09385098 0.0846083 0.023845946 -0.15664476 0.063480556
-0.088489175 0.035931118 -0.030157689 0.16421556 -0.07907141 -0.0550056 -0.17294016 -0.11825186
0.033511102 -0.088868454 -0.045866217 -0.06422349 -0.09643485 -0.09815433 -0.05855089 0.026819702
-0.02851172 0.18994203 -0.067618415 -0.14392583 -0.111496106 0.09876494 -0.05535279 -0.0481046
-0.0048766686 0.15772243 0.056668725 0.054852672 0.032214034 0.12211894 0.16494781 0.15154529
0.04989231 -0.13371556 -0.06236344 -0.083654754 0.11608949 0.10514885 0.040722426 0.062474977
0.06188174 -0.13603514 -0.009118556 0.10774962 0.1324608 0.0059921886 0.049745597 0.19892883
0.058785457 0.0045295805 0.08100385 -0.039434984 0.03251448 -0.18440251 -0.14062843 -0.1434676
0.14542663 -0.08341316 0.06752168 -0.18936348 0.009966721 -0.039394826 -0.061165787 0.011947099
0.022338005 -0.14658582 -0.05035005 0.10075894 0.05892367 -0.07616445 0.079357766 -0.12952973
-0.090030156 -0.13097414 0.08490611 0.008743892 0.062401522 -0.013260727 0.041795067 -0.17545186
-0.024088994 0.098414555 0.06413026 0.056290433 0.08762399 -0.09389515 -0.006059323 0.0357665
00000000: a04e a1bd 2626 083e 41fb d73d a74d ec3c
00000010: 282b 7cbd 9daa 483d 521c dbbd 74a9 d7bd
00000020: fe71 903d ca89 aabd dabb 803d 4232 15be
00000030: ef37 b8bc 3171 d63d caa2 423e 2508 933d
00000040: a036 bfbc ec6a 3dbd 21e5 3bbd 439f a2bd
00000050: 3058 28be a279 e6bb 3720 6f3c ce7a 863d
00000060: a1c0 6fbd daf3 eebd 9e22 b3bd dfc5 41be
00000070: 22b2 b83c 28bc c3bc bc10 a2bd 52cd cebd
00000080: 65aa 5cbd 7474 ca3b 1253 513d 42da f53c
00000090: 392d 083e e877 76bd 0f41 ee3d 2db7 e3bd
000000a0: cc1d 923d f67d 21be 6f1f dabd 2293 08be
000000b0: ece1 663d b78b b13b 4d12 02be ecfb 4b3e
000000c0: 2e62 013e ce88 623d 0b07 203e 1d4a 01be
000000d0: 2e92 13be cb45 f8bd a29e 1a3e cf7f 02bd
000000e0: c821 91bb fb51 c7bd ac8b b5bd 6007 a93d
000000f0: 2349 54bb 1740 2d3c 3d91 27bd db84 c33d
00000100: 00b8 9a3d 026b 55bd a6f6 c63d 2810 243e
00000110: 114c 943c 53e2 91bd ac32 ac3b 352c 67be
00000120: ae02 b03d 6647 9dbd 20a9 13be 3a2b a53c
00000130: e2bd 77bd a89d 28be 8f3f 78bd 0f25 173e
00000140: 8cec 233c 1bc1 4dbc efe5 e43d 6bbd f13d
00000150: 075b 873e b0ae a03c 46ee 2bbd fbd4 97bd
00000160: 7b39 71be 7141 8cbe 16c6 2e3d 4c79 dabd
00000170: f706 0f3e 974d 463e 8bd6 833c c9f2 89bc
00000180: 7114 01be 265f 2b3e eb34 38be 12cd 213e
00000190: ad0a 79bd aeaa 3d3d f0d4 6e3e 74f3 2abe
000001a0: 90c1 41bd 4cef 14be 6efd 81bc e97a ccbd
000001b0: bc38 d5bb b84a 373d fde5 90bd 319a 243d
000001c0: 6ee3 823d 3379 c1bd 6776 ea3b e03b 5ebd
000001d0: 4689 513e 8e70 9dbd da59 21bd e359 edbd
000001e0: da98 d23d 81ea ad3a 82cc 083e f176 6d3d
000001f0: c878 f83d 8d01 1cbe f2a5 043e 3bbd e2bd
00000200: 1d23 cf3c 4d65 1cbe caaf a8bd 2fce a6bb
00000210: 980b bc3d 7230 593d 63da 0a3e 6ca6 e2bd
00000220: 97d6 383d 683a ffbd 8863 8ebc 1733 b83d
00000230: 8cf0 dfbc 3745 4bbd 17b5 0b3e e2fa 443d
00000240: 4eb2 21be 93af af3d 08d3 b6bd b564 d1bd
00000250: 22f6 773d a298 9d3d 2d42 86bd e326 0bbe
00000260: a5d3 bcbd 15f2 2c3d de48 0c3e c757 733d
00000270: b6b9 e53c c41d 2bbb abce cdbd c228 ec3c
00000280: 9285 bf3c 661e 2abc 5a80 133e f134 c03d
00000290: 1e47 ad3d 9358 c33c 7c67 20be 1802 823d
000002a0: d039 b5bd 822c 133d 420d f7bc 2028 283e
000002b0: 31f0 a1bd 8d4d 61bd 3a17 31be 082e f2bd
000002c0: f042 093d aa00 b6bd 37de 3bbd 9b87 83bd
000002d0: a27f c5bd 2305 c9bd 0fd3 6fbd feb4 db3c
000002e0: 6991 e9bc 2a80 423e 867b 8abd 4b61 13be
000002f0: 1258 e4bd 4645 ca3d 9bb9 62bd 5409 45bd
00000300: 76cc 9fbb fd81 213e 771d 683d 32ad 603d
00000310: ddf2 033d 7f19 fa3d 14e8 283e b02e 1b3e
00000320: e15b 4c3d bbec 08be ce70 7fbd 2f53 abbd
00000330: 54c0 ed3d 4858 d73d 8fcc 263d c3e5 7f3d
00000340: b577 7d3d cc4c 0bbe ff65 15bc d5ab dc3d
00000350: cea3 073e 1f5a c43b 0ac2 4b3d 00b4 4b3e
00000360: 05c9 703d e06c 943b 59e5 a53d 9486 21bd
00000370: e72d 053d 03d4 3cbe e600 10be 2ce9 12be
00000380: b8ea 143e 85d4 aabd ce48 8a3d 80e8 41be
00000390: 754b 233c 785c 21bd fa88 7abd c4bd 433c
000003a0: 31fe b63c 981a 16be db3b 4ebd b45a ce3d
000003b0: f259 713d 1bfc 9bbd 5386 a23d 71a3 04be
000003c0: bb61 b8bd 161e 06be 41e3 ad3d 8b42 0f3c
000003d0: bd98 7f3d 8543 59bc 4e31 2b3d a7a9 33be
000003e0: 4856 c5bc 928d c93d ba56 833d cc90 663d
000003f0: 3574 b33d 1a4c c0bd 498d c6bb e57f 123d

rnn.bias f4 [150]
0.07332807 0.25257847 0.21834847 0.17667435 0.014868003 0.25009456 0.12081828 -0.03481206
0.075066805 0.2716235 -0.05997282 0.4568239 0.3449359 0.010467064 0.103916235 0.10545288
-0.021232285 0.15790217 0.28982478 0.3571328 0.23420526 0.41838115 0.3400303 0.17436537
-0.0037746767 0.49246746 0.28463066 0.47497913 0.17524189 0.17633691 0.19024426 0.24315415
0.08965675 0.40676132 0.061848983 0.19105776 0.13057986 0.12836388 0.22954167 0.31560767
0.3699819 0.31974524 0.13378088 0.41798055 0.46444675 -0.06524474 0.39647305 0.3133604
0.28697628 0.34024543 0.13107236 -0.098093994 0.18683095 0.086020574 -0.061914206 0.0977925
-0.08942715 0.13099474 -0.12985174 -0.20658801 -0.09667376 -0.12621988 0.15065455 -0.16807371
-0.06774847 -0.12151889 0.008159936 0.1716664 -0.0071725766 0.007967756 -0.19842692 0.07593181
0.29116005 -0.11843225 0.22311121 0.21199365 0.07475126 -0.184103 0.2023986 -0.019684613
-0.16425723 -0.14399542 0.10681095 -0.2689143 0.0045270054 -0.123469025 0.11422897 0.15808564
-0.075456075 0.104827054 -0.038212836 -0.058343336 -0.03521201 -0.11843749 -0.16517617 0.0010478289
-0.19370677 0.048338346 -0.2026791 -0.07607894 0.23521796 0.22256744 0.3661949 0.14593036
-0.039165094 0.20061319 0.47943443 0.15426126 0.17235853 0.29492334 0.4217208 -0.20768973
0.290233 0.26812273 -0.0518292 0.24177505 0.24726765 0.24417071 0.46371666 0.37252948
0.3408934 0.3950904 0.42403692 0.26908642 0.38566422 0.29535118 0.36470264 0.2427463
0.104365565 0.28215417 0.260351 0.1919342 0.13652633 0.14687532 0.4592505 0.30067632
0.34830108 0.4746463 0.27926788 0.24120864 0.42612126 0.5017425 0.3012537 0.35754514
0.42467472 0.22455922 0.39906025 0.33771062 0.36458004 0.29146492
00000000: 072d 963d f751 813e be96 5f3e 1fea 343e
00000010: ed98 733c 650c 803e 936f f73d 1797 0ebd
00000020: a0bc 993d 3c12 8b3e 0fa6 75bd d2e4 e93e
00000030: 709b b03e 0c7e 2b3c 09d2 d43d aef7 d73d
00000040: 54ef adbc 1bb1 213e ea63 943e 1cda b63e
00000050: 81d3 6f3e 0e36 d63e 7418 ae3e d68c 323e
00000060: 9160 77bb b224 fc3e 1cbb 913e 7730 f33e
00000070: 9c72 333e aa91 343e 64cf 423e 67fd 783e
00000080: f59d b73d 0543 d03e 5c55 7d3d a5a4 433e
00000090: bab6 053e d271 033e f90c 6b3e 5497 a13e
000000a0: 456e bd3e a6b5 a33e dbfd 083e 8c01 d63e
000000b0: f7cb ed3e 099f 85bd 84fe ca3e c670 a03e
000000c0: 8eee 923e a634 ae3e d537 063e 81e5 c8bd
000000d0: 9d50 3f3e 8e2b b03d c099 7dbd 6f47 c83d
000000e0: 9525 b7bd 7c23 063e dbf7 04be cf8b 53be
000000f0: e4fc c5bd c93f 01be 3045 1a3e 841b 2cbe
00000100: b6bf 8abd e5de f8bd 41b1 053c 51c9 2f3e
00000110: ef07 ebbb 318b 023c 6d30 4bbe 2382 9b3d
00000120: ee12 953e 9c8c f2bd 4477 643e dd14 593e
00000130: 3017 993d 7f85 3cbe 9441 4f3e a041 a1bc
00000140: 0c33 28be 8973 13be b3bf da3d 23af 89be
00000150: 4657 943b 54dd fcbd e1f0 e93d 34e1 213e
00000160: b788 9abd 91af d63d 1085 1cbd 6cf9 6ebd
00000170: 783a 10bd 5b8f f2bd f123 29be 4e57 893a
00000180: 115b 46be 6efe 453d 1c8b 4fbe 46cf 9bbd
00000190: fadc 703e b8e8 633e e67d bb3e c56e 153e
000001a0: 946b 20bd 8b6d 4d3e 6e78 f53e aaf6 1d3e
000001b0: c17e 303e 3100 973e caeb d73e 9eac 54be
000001c0: 6b99 943e 6247 893e db4a 54bd e193 773e
000001d0: bb33 7d3e e307 7a3e 456c ed3e 2fbc be3e
000001e0: 9489 ae3e 4a49 ca3e 5e1b d93e b2c5 893e
000001f0: c875 c53e 4538 973e 4eba ba3e 7c92 783e
00000200: 9dbd d53d 8376 903e ba4c 853e 668a 443e
00000210: 8fcd 0b3e 7c66 163e e222 eb3e 3ff2 993e
00000220: 8554 b23e d704 f33e 33fc 8e3e 66ff 763e
00000230: 912c da3e 3272 003f ed3d 9a3e 2810 b73e
00000240: f76e d93e daf2 653e a051 cc3e 68e8 ac3e
00000250: 3caa ba3e e43a 953e

rnn.bias_lin_z f4 [50]
0.025405765 -0.12494123 0.020686062 -0.05538155 0.10981314 0.10384793 0.22420272 -0.14830837
0.06443275 -0.06923932 -0.09692028 0.08281992 -0.098701805 0.21563937 0.013295638 0.14598295
0.21433221 -0.0108409105 0.10432673 0.018526094 0.17620136 0.024914103 0.15200517 0.013214371
0.026673637 0.14516419 0.13711885 0.04019351 -0.18486328 0.057710722 0.15556888 0.026320651
-0.07316787 0.16244891 -0.021452872 -0.24708577 0.18596894 -0.24533755 0.11947483 -0.20922099
0.058340576 -0.3776293 0.0814394 0.011685411 -0.13753842 -0.048477206 0.021100702 -0.14108904
0.11856384 -0.13103555
00000000: c01f d03c 30e1 ffbd d175 a93c c4d7 62bd
00000010: b6e5 e03d 39ae d43d 6695 653e 26de 17be
00000020: 51f5 833d 58cd 8dbd 247e c6bd 7d9d a93d
00000030: 2c24 cabd 91d0 5c3e f3d5 593c 8e7c 153e
00000040: e779 5b3e 139e 31bc 41a9 d53d 09c4 973c
00000050: 216e 343e a918 cc3c 3ea7 1b3e 1781 583c
00000060: ac82 da3c eca5 143e e268 0c3e f3a1 243d
00000070: cd4c 3dbe 1462 6c3d 734d 1f3e 689e d73c
00000080: 09d9 95bd 0259 263e efbd afbc 0d04 7dbe
00000090: a46e 3e3e c439 7bbe 38af f43d 073e 56be
000000a0: 87f6 6e3d a158 c1be b3c9 a63d 2b74 3f3c
000000b0: dfd6 0cbe 0990 46bd 61db ac3c a579 10be
000000c0: 99d1 f23d 2f2e 06be

classifier.weight f4 [3, 50]
0.4133793 -0.103451386 0.38578147 -0.46716326 -0.09328886 0.24332593 0.09938388 0.118130095
0.15503906 -0.319971 -0.36279345 -0.14779077 -0.18631615 0.117253125 0.23728788 -0.37064287
-0.08867448 0.04044889 0.0325888 -0.33462882 0.28548187 -0.0015334816 -0.36687484 0.0460384
0.28540364 -0.21757247 -0.026047101 0.01890884 -0.18491177 0.24587254 0.11071728 -0.1914345
0.25317204 0.24912716 0.17279477 0.096899405 0.03331427 -0.073165655 -0.20361939 0.02109667
0.016251052 0.1283917 0.2672085 -0.18511198 0.17010282 -0.16166897 0.22409315 -0.06420697
-0.16374086 -0.3649123 -0.15190624 -0.21266757 -0.30983472 -0.23645747 0.07094127 0.3237489
0.19412938 -0.124729976 0.23391008 -0.17816226 -0.07757735 0.14831586 0.6039322 -0.30723828
0.084460825 0.04860792 0.073319525 0.22760811 0.5156853 -0.5499936 0.10660024 -0.22596273
-0.012352476 -0.016423032 -0.14986068 -0.4169088 0.043363657 0.43219548 0.21513972 0.13400948
0.44572502 0.013877831 0.22515559 -0.05163067 0.31810552 0.27989835 -0.16669497 -0.18939477
0.269484 0.16244784 -0.115362465 0.13046537 -0.03796856 0.166341 -0.3494805 -0.046069294
0.27830264 0.10879661 0.017766954 0.0011757255 -0.57964164 -0.32070312 -0.15714541 0.23119283
-0.15661024 0.120580316 -0.037129674 0.13561937 -0.133098 -0.43306738 -0.47010306 0.057063702
-0.022824535 -0.1662931 -0.051977053 -0.022876235 0.30134585 -0.119129784 -0.03917548 0.14805633
-0.2996453 0.2250288 0.020158347 -0.26752755 -0.3673303 0.179648 -0.07955205 -0.05902242
-0.0837859 -0.10984199 0.20629731 0.4976796 -0.076976754 -0.31214312 0.28467864 0.10590798
0.12401808 0.015645204 -0.5165894 0.09273046 -0.15665264 -0.08962192 0.29244718 0.46502623
0.32486475 -0.039287012 0.009428382 0.067460716 -0.19785386 0.11328044
00000000: 74a6 d33e 52de d3bd 2685 c53e 0630 efbe
00000010: 3b0e bfbd 6f2a 793e c789 cb3d 31ee f13d
00000020: 8fc2 1e3e 3dd3 a3be 10c0 b9be 7756 17be
00000030: a9c9 3ebe 6822 f03d 98fb 723e e7c4 bdbe
00000040: f79a b5bd bcad 253d d57b 053d 7854 abbe
00000050: ae2a 923e 1bff c8ba 05d7 bbbe c392 3c3d
00000060: 6d20 923e 51cb 5ebe bb60 d5bc b6e6 9a3c
00000070: 8359 3dbe 03c6 7b3e bebf e23d 6807 44be
00000080: c49f 813e 311b 7f3e 1df1 303e 3273 c63d
00000090: 8b74 083d e0d7 95bd 9a81 50be ecd2 ac3c
000000a0: ed20 853c 1d79 033e 8dcf 883e ff8d 3dbe
000000b0: 6f2f 2e3e 8d8c 25be ad78 653e f27e 83bd
000000c0: afab 27be c9d5 babe 4f8d 1bbe 87c5 59be
000000d0: a8a2 9ebe e821 72be a849 913d 6ac2 a53e
000000e0: dac9 463e 6e72 ffbd 2086 6f3e 2b70 36be
000000f0: e0e0 9ebd 1de0 173e 4d9b 1a3f 564e 9dbe
00000100: ccf9 ac3d 1919 473d 8c28 963d 1a12 693e
00000110: f403 043f 61cc 0cbf 3a51 da3d c662 67be
00000120: 0a62 4abc 9889 86bc 1475 19be 1275 d5be
00000130: 179e 313d ba48 dd3e 964d 5c3e c839 093e
00000140: 1236 e43e d85f 633c 308f 663e ae7a 53bd
00000150: bade a23e d64e 8f3e 16b2 2abe b4f0 41be
00000160: cff9 893e ba58 263e 2843 ecbd b798 053e
00000170: ec84 1bbd 4c55 2a3e 1cef b2be 28b3 3cbd
00000180: af7d 8e3e c2d0 de3d 018c 913c cd1a 9a3a
00000190: 6563 14bf 3333 a4be baea 20be d0bd 6c3e
000001a0: 6f5e 20be d0f2 f63d 4915 18bd cedf 0a3e
000001b0: d84a 08be 02bb ddbe 59b1 f0be a1bb 693d
000001c0: 85fa babc bd48 2abe e4e5 54bd f166 bbbc
000001d0: 014a 9a3e 51fa f3bd 7876 20bd 149c 173e
000001e0: 1c6b 99be f36d 663e 1e23 a53c 5ff9 88be
000001f0: b812 bcbe a5f5 373e 2fec a2bd 7ec1 71bd
00000200: f197 abbd d6f4 e0bd 9a3f 533e dccf fe3e
00000210: fda5 9dbd 39d1 9fbe 66c1 913e 48e6 d83d
00000220: 31fd fd3d 5f2a 803c 343f 04bf 78e9 bd3d
00000230: 8d69 20be b28b b7bd a3bb 953e eb17 ee3e
00000240: ac54 a63e 6beb 20bd 8079 1a3c d828 8a3d
00000250: 349a 4abe 93ff e73d

classifier.bias f4 [3]
0.019478232 -0.07797962 0.046749186
00000000: d090 9f3c c7b3 9fbd 137c 3f3d
