Final Project/LEM-main/models/lorenz96/2/model.pt (torch, 62935 bytes, 6 tensors)

rnn.weights f4 [150, 70]
0	0x3da58c05	0.08083347
1	0xbe678328	-0.22608626
2	0x3df98261	0.12183071
3	0xbd986e5f	-0.074429266
4	0xbe5449f9	-0.20731343
5	0xbd7bab52	-0.06144268
6	0x3ca52b2f	0.020162193
7	0xbe0cd5d4	-0.13753444
8	0x3db65577	0.0890302
9	0x3a3029b4	0.00067200814
10	0xbd3068da	-0.043068744
11	0xbe54d2c5	-0.20783527
12	0x3e8a4528	0.27005887
13	0x3e8826dc	0.26592147
14	0xbd75bd9c	-0.05999528
15	0x3e807688	0.25090432
16	0xbe05aa86	-0.13053331
17	0xbad2b15c	-0.0016074586
18	0xbe0f1334	-0.13972169
19	0x3ce46d34	0.027884103
20	0x3e01f04d	0.12689324
21	0xbddc32b2	-0.10751857
22	0xbcb694db	-0.022287777
23	0x3e33fe0b	0.17577378
24	0x3e137e90	0.14403749
25	0xbdc7d449	-0.09757287
26	0xbe3f8e19	-0.1870655
27	0x3df49dcf	0.11944162
28	0x3de8cbf5	0.11367027
29	0xbe9888a2	-0.29791743
30	0xbc573d72	-0.013137208
31	0x3bc3d934	0.0059768204
32	0xbb97cd27	-0.0046326104
33	0xbd2665bf	-0.040624376
34	0xbe338912	-0.17532757
35	0x3e6217af	0.22079347
36	0x3e91d94d	0.284861
37	0xbdd56556	-0.10419719
38	0xbb427dc5	-0.0029677015
39	0x3d87902e	0.06619297
40	0x3dbdb428	0.09262878
41	0xbe005027	-0.12530576
42	0x3d84bfce	0.06481896
43	0x3d937100	0.071992874
44	0xbdfef892	-0.12449755
45	0xbdaf138b	-0.085486494
46	0xbdc86db7	-0.097865514
47	0xbe8b5b53	-0.27218112
48	0x3e9d9894	0.3078047
49	0xbdbe317a	-0.09286781
50	0x3cfb50a4	0.0306781
51	0x3d988556	0.07447307
52	0x3db2f1cc	0.08737525
53	0xbc15366e	-0.009107215
54	0x3c0fc434	0.008774806
55	0x3cf518a8	0.029918984
56	0xbdc76854	-0.09736696
57	0xbd8a9f7a	-0.06768699
58	0xbd057967	-0.03258648
59	0x3c94e987	0.01817776
60	0xbdbe5352	-0.09293236
61	0x3c628b00	0.0138270855
62	0xbd83aff0	-0.06430042
63	0xbcb290dc	-0.02179759
64	0xbc8e747e	-0.017389532
65	0xbc26f2af	-0.010189696
66	0x3d6de934	0.058083728
67	0x3a257fb5	0.00063132803
68	0xbc8c17e4	-0.017101236
69	0xbd862e9c	-0.06551859
70	0x3e3c343b	0.183793
71	0xbe66cb14	-0.22538406
72	0x3d937255	0.071995415
73	0x3de8727b	0.113499604
74	0x3d64f74d	0.055899907
75	0xbe62c96e	-0.22147152
76	0x3dba63d2	0.091010705
77	0xbd08f0af	-0.03343266
78	0x3db83647	0.089947276
79	0xbd45d05b	-0.048294406
80	0xbd289b33	-0.041163635
81	0xbe1d1780	-0.15340996
82	0x3d806578	0.06269354
83	0x3e4df479	0.2011279
84	0xbe1b8078	-0.15185726
85	0x3ea4a4d7	0.32157013
86	0xbd1b2d51	-0.037885014
87	0xbddac29b	-0.10681649
88	0xbe669757	-0.22518669
89	0x3c4b4666	0.012406921
90	0x3d813fba	0.06310983
91	0xbcd0b326	-0.02547605
92	0xbac07973	-0.0014684632
93	0x3d7bf8ba	0.0615165
94	0x3de1746e	0.11008535
95	0xbe43b3cc	-0.19111556
96	0xbe709695	-0.23494942
97	0x3e427759	0.1899084
98	0xba78a733	-0.0009485364
99	0xbe2a6269	-0.16639103
100	0x3ca7bf6a	0.020477016
101	0x3d08dbc1	0.0334127
102	0xbdce7068	-0.100800335
103	0xbdffe830	-0.12495458
104	0xbd61dc13	-0.05514152
105	0x3e8d9174	0.27650034
106	0x3e51d902	0.20492938
107	0xbdbe9e06	-0.09307484
108	0xbe7c977f	-0.24667166
109	0x3d7d7d69	0.06188718
110	0x3dd832dc	0.10556576
111	0xbc928975	-0.01788781
112	0xbbd7b1a8	-0.0065824576
113	0xbbb7c199	-0.0056077954
114	0xbcb122f1	-0.021623107
115	0xbb576580	-0.0032866895
116	0xbdefb1f9	-0.117038675
117	0xbdd5e2de	-0.10443662
118	0x3e91159b	0.28336796
119	0xbdf3faca	-0.119130686
120	0xbd997f2a	-0.07494958
121	0x3c79d286	0.015247947
122	0x3c8fc8e6	0.01755185
123	0xbdb8d9dc	-0.090259284
124	0xbce7f37e	-0.028314348
125	0x3d7f18c8	0.062279493
126	0xbd26a312	-0.04068286
127	0xbe278067	-0.16357575
128	0xbc839428	-0.016061857
129	0x3cf06a5e	0.029347595
130	0x3cc62db2	0.024191711
131	0xbcd82684	-0.026385553
132	0x39c12054	0.00036835915
133	0xbcc739b5	-0.024319509
134	0xbd0238e7	-0.031792548
135	0x3d1cc50b	0.038273852
136	0x3c04e363	0.008110854
137	0x3cedc0b4	0.029022552
138	0xbb2d8a07	-0.0026479976
139	0x3cabf93f	0.020992873
140	0x3d81c7a4	0.063369066
141	0xbdca8d23	-0.09890201
142	0x3e1b4494	0.15162879
143	0xbd2dccd0	-0.042431653
144	0x3d492f3a	0.049117304
145	0xbe6d5f79	-0.23180951
146	0x3dc08d79	0.09401984
147	0xbc517b85	-0.012785797
148	0x3e05c1fc	0.1306228
149	0x3ca02e8d	0.019553447
150	0xbe16e4a0	-0.14735651
151	0xbdcf1237	-0.10110896
152	0x3e3816f2	0.17977503
153	0x3e80e6d3	0.25176105
154	0xbd711ee4	-0.05886735
155	0x3e53728a	0.20649162
156	0xbda6fc9d	-0.08153651
157	0xbd19cc36	-0.037548266
158	0x3cab283d	0.02089321
159	0x3d847182	0.064669624
160	0x3e5f9113	0.21832685
161	0x3d9beb88	0.076132834
162	0x3e30237e	0.17201039
163	0x3df0eba0	0.11763692
164	0xbddfc8c8	-0.10926968
165	0xbe8d7ee3	-0.2763587
166	0xbe82297e	-0.2542228
167	0x3d700674	0.058599904
168	0x3df3651b	0.11884519
169	0xbe20aa61	-0.15689994
170	0xbd796ac7	-0.060892846
171	0xbda50cd6	-0.08059089
172	0x3d6b7a33	0.057489585
173	0x3da5e25f	0.080998175
174	0xbd7df641	-0.062002424
175	0x3e944364	0.28957665
176	0x3d95d35e	0.07315706
177	0xbe14821f	-0.14502762
178	0xbe45883e	-0.19290254
179	0x3e13d5a9	0.14436974
180	0x3b600d89	0.0034187755
181	0x3dc7c88f	0.097550504
182	0x3d8bf54a	0.068338946
183	0x3ba0697e	0.004895388
184	0xbdc2e780	-0.09516811
185	0xbdffa006	-0.12481694
186	0xbcdf724a	-0.027276177
187	0xbe5e93cb	-0.21736066
188	0x3e9e03e8	0.30862355
189	0xbe7e6b8a	-0.2484571
190	0x3cd5ec95	0.026113788
191	0xbd75d536	-0.060017787
192	0x3c0b2b3a	0.008494193
193	0xbda2a541	-0.07941676
194	0xbd3df85a	-0.046379425
195	0x3e104a86	0.14090928
196	0x3de1ebda	0.11031313
197	0x3caf3bbe	0.021390792
198	0xbd7d21ff	-0.0618
199	0x3d1a27ed	0.037635732
200	0xbdb3a8bd	-0.08772419
201	0x3d982eb2	0.074307814
202	0xbd021948	-0.03176239
203	0x3dc493dc	0.095985144
204	0x3e057993	0.13034658
205	0x3dc14061	0.094361074
206	0xbc225d67	-0.009909964
207	0xbc862926	-0.016377043
208	0xbba82484	-0.005131306
209	0xbd11a797	-0.035560217
210	0x3e36f075	0.17865165
211	0xbe702a5e	-0.23453662
212	0x3e4c9d1c	0.19981807
213	0x3b77592f	0.0037742367
214	0xbd44ab9c	-0.048015222
215	0xbe66c171	-0.2253473
216	0x3da59b11	0.08086217
217	0xbe16827c	-0.14698213
218	0x3d213017	0.039352503
219	0x3cd59d27	0.026075913
220	0xbe03c408	-0.12867749
221	0xbe9a6f47	-0.30163023
222	0x3e372ec1	0.17888929
223	0x3e8dfaee	0.27730507
224	0xbe0cdf20	-0.1375699
225	0x3ea91a46	0.33027858
226	0xbd67a4b5	-0.05655356
227	0x3d4bf741	0.049796347
228	0xbe6f6917	-0.23379932
229	0xbdf99e6e	-0.12188421
230	0x3dc73c44	0.09728292
231	0xbe044b8a	-0.12919441
232	0x3cc8a2ad	0.024491632
233	0x3e6a5840	0.22885227
234	0x3dd0fca3	0.10204437
235	0xbe7d003c	-0.2470712
236	0xbdac6346	-0.084173724
237	0x3de65888	0.11247355
238	0x3dfd0dfa	0.123561814
239	0xbe931f8c	-0.28735006
240	0xbe522e00	-0.2052536
241	0x3ca0df5f	0.019637762
242	0xbde1d151	-0.11026252
243	0xbe499992	-0.19687489
244	0xbe2dfbe6	-0.16990623
245	0x3e061d3e	0.13097093
246	0x3e1824f4	0.14857846
247	0xbba44ff0	-0.005014412
248	0xbdc22b03	-0.0948086
249	0x3d2e87e4	0.042610064
250	0x3e09b43e	0.13447663
251	0xbd4c72b6	-0.049914084
252	0x3e267cf1	0.16258599
253	0x3e205d22	0.15660527
254	0xbdb4132d	-0.0879272
255	0xbded02eb	-0.11572822

rnn.weights_lin_z f4 [50, 70]
0	0xbda20623	-0.07911327
1	0xbcb39619	-0.021922158
2	0xbcbd3d7e	-0.02310061
3	0x3d9469fa	0.07246776
4	0x3dad7b70	0.084708095
5	0x3e1de7df	0.15420483
6	0x3e26d795	0.16293176
7	0x3b945e52	0.0045278454
8	0xbd9ac611	-0.075573094
9	0xbe2a3e4f	-0.16625331
10	0x3da028ad	0.07820258
11	0xbe3efb10	-0.1865046
12	0x3e291521	0.16511966
13	0xbddbb4ce	-0.10727845
14	0x3d8b3ddf	0.0679891
15	0x3e106b90	0.14103532
16	0x3d24a233	0.040193748
17	0x3c74ec31	0.014948891
18	0x3c426cdb	0.0118667735
19	0x3dc105ff	0.09424972
20	0xbd69c315	-0.05707081
21	0x3d939afc	0.07207295
22	0xbe13cf99	-0.14434661
23	0xbe3eef5f	-0.18646
24	0x3e27910f	0.16363929
25	0x3d97d60f	0.07413875
26	0xbd3c9eb9	-0.046049807
27	0xbd975bb9	-0.073905416
28	0xbe426109	-0.18982328
29	0xbc8ace0b	-0.016943952
30	0x3ddd13de	0.10794805
31	0xbc3b8b46	-0.01144678
32	0xbc7ecba2	-0.0155514795
33	0x3d7395c1	0.05946899
34	0x3d5d29a7	0.0539948
35	0x3c991408	0.01868631
36	0xbe2a38da	-0.1662325
37	0xbd0fa62e	-0.03507059
38	0x3cfab2bb	0.030602803
39	0x3c3be472	0.01146804
40	0xbaae4596	-0.0013295885
41	0xbc0c22eb	-0.008553247
42	0xbd502418	-0.05081567
43	0xbd137a9c	-0.0360056
44	0xbe3f626c	-0.18689889
45	0xbdb2b63c	-0.08726165
46	0xbe52f8b1	-0.2060268
47	0xbd664e1c	-0.056226835
48	0xbdf63dbb	-0.12023493
49	0x3e0ea662	0.13930658
50	0x3cca5982	0.024700884
51	0x3ca146b1	0.019687029
52	0xbdd2efae	-0.102996215
53	0xbdd00a46	-0.101582095
54	0x3ce6f1aa	0.028191406
55	0x3c5579af	0.0130295
56	0x3cf66ea6	0.030082058
57	0xbd6b7a5e	-0.057489745
58	0xbd05dabc	-0.032679304
59	0xbc6d6bb7	-0.014491013
60	0xbce93abf	-0.028470395
61	0xbe00c4f1	-0.12575127
62	0xbe5bfeaa	-0.21483865
63	0x3db36768	0.087599576
64	0x3e250e95	0.16118844
65	0x3d79896a	0.060922064
66	0xbe056df2	-0.13030222
67	0x3e41291a	0.18863335
68	0xbdac7ac2	-0.08421852
69	0xbd19d9db	-0.03756128
70	0x3cc0fd29	0.023558216
71	0x3deb35a8	0.114848435
72	0xbe1eb28a	-0.15497795
73	0x3db018ff	0.085985176
74	0x3e36f160	0.17865515
75	0x3d72626c	0.059175894
76	0x3c6c226d	0.014412505
77	0x3d1e1b47	0.038600232
78	0xbd23bbb2	-0.039973922
79	0x3def35f6	0.11680214
80	0x3e3ce154	0.18445331
81	0x3e2d9a7c	0.16953462
82	0xbdb834d3	-0.089944504
83	0xbe20fe72	-0.15722063
84	0x3d0c09fc	0.03418921
85	0x3dee5ab5	0.11638395
86	0xbd7b7965	-0.061395068
87	0xbb957e5e	-0.0045621833
88	0x3d96f550	0.073710084
89	0x3d89fc7c	0.06737611
90	0x3d910f8d	0.07083044
91	0x3e13765e	0.14400622
92	0x3a2cd657	0.00065932184
93	0xbdbb4832	-0.091446295
94	0xbe23bc53	-0.15989809
95	0x3ccf79de	0.025326665
96	0xbdfac680	-0.12244892
97	0xbd76093f	-0.06006741
98	0xbd8d60fa	-0.069032624
99	0xbe0fc39c	-0.14039463
100	0x3d857618	0.06516665
101	0xbd5f5332	-0.0545227
102	0xbd19afc3	-0.037521135
103	0xbb4f2f48	-0.0031613875
104	0xbd628d87	-0.055310752
105	0xbde67cee	-0.11254297
106	0xbe33a4a6	-0.17543277
107	0xbe70c240	-0.235116
108	0xbdf07659	-0.11741323
109	0xbdeb32af	-0.114842765
110	0xbdb1e9c3	-0.08687165
111	0x3e339482	0.1753712
112	0x3dbb690e	0.09150897
113	0xbdc588ab	-0.09645208
114	0xbce7e078	-0.028305277
115	0xbd7358e3	-0.05941094
116	0xbe4e144f	-0.20124935
117	0xbdb1df45	-0.086851634
118	0xbc5b83fe	-0.013398169
119	0xbcf5c4ec	-0.030001126
120	0x3d00645c	0.03134571
121	0x3c6e5d18	0.0145485625
122	0x3df0c56c	0.11756405
123	0xbe3aa039	-0.18225183
124	0xbe0f2605	-0.13979347
125	0x3c535c1a	0.012900377
126	0x3d9273b6	0.07150976
127	0x3e14e54e	0.14540598
128	0xbc4bd788	-0.012441523
129	0x3c8e8aeb	0.017400226
130	0xbd4d3bee	-0.05010598
131	0x3d1071ad	0.03526466
132	0xbd6fde61	-0.058561686
133	0x3d48aaa4	0.04899086
134	0xbd0015e8	-0.03127089
135	0xbd844089	-0.064576216
136	0xbd9cfe8b	-0.07665738
137	0x3c41121c	0.011784103
138	0xbcc69c91	-0.024244579
139	0x3dabb365	0.08383826
140	0xbb4e587d	-0.0031485849
141	0xbdeaf60f	-0.11472713
142	0xbc46668a	-0.012109408
143	0x3da1e3de	0.0790479
144	0x3d2eb7f3	0.042655896
145	0xbd05ff6f	-0.032714304
146	0x3d75c2b5	0.06000014
147	0x3e1cd84e	0.15316889
148	0x3d4d4169	0.050111208
149	0x3d2bf79d	0.04198419
150	0x3c04039f	0.008057504
151	0xbe13818f	-0.14404891
152	0x3dd245ca	0.102672175
153	0x3ddd978e	0.108199224
154	0xbc94ec4c	-0.018179081
155	0x3caf7404	0.021417625
156	0xbe1866ee	-0.14883015
157	0x3e2790bb	0.16363804
158	0xbe35d2d7	-0.1775621
159	0xbe0d7061	-0.138124
160	0xbe5f0c22	-0.21781972
161	0x3c7dae1e	0.015483407
162	0x3e1fa09b	0.1558861
163	0xbe3e10fe	-0.1856117
164	0xbcf0b764	-0.029384322
165	0xbd9aac87	-0.07552438
166	0x3b2c335f	0.0026275737
167	0x3df63320	0.1202147
168	0xbd296c0d	-0.04136281
169	0x3dfc935d	0.12332795
170	0xbe4c206b	-0.19934241
171	0x3ba3ebe1	0.005002484
172	0x3e31f27b	0.17377655
173	0xbd9a7505	-0.07541851
174	0x3d16bb13	0.0367995
175	0x3e260bdf	0.16215466
176	0x3e0939d8	0.13400972
177	0xbdcacdba	-0.099025205
178	0x3e11f696	0.14254221
179	0x3d274ab1	0.040842716
180	0xbd9d2b5b	-0.07674285
181	0xbdbf7302	-0.09348108
182	0x3da34b30	0.07973325
183	0xbe280d94	-0.1641143
184	0xbbf065f1	-0.007336371
185	0xbdeffb78	-0.11717886
186	0xbc228181	-0.009918571
187	0x3db3746a	0.087624386
188	0xbdc932e3	-0.09824159
189	0x3e158514	0.14601547
190	0x3d49f83c	0.049309
191	0x3d3a7915	0.04552563
192	0xbcff4012	-0.03115848
193	0xbd78f952	-0.060784645
194	0xbe469fa5	-0.19396837
195	0x3d90b048	0.07064873
196	0xbbb1a1b9	-0.00542089
197	0xbd91cd26	-0.07119207
198	0xbdc878ef	-0.09788691
199	0xbe0e35a0	-0.13887644
200	0xbd76c745	-0.060248632
201	0xbe1e34ad	-0.15449782
202	0xbd70d54e	-0.058797173
203	0xbdcac2c5	-0.099004306
204	0x3d18c507	0.037297275
205	0xbd25f23a	-0.04051421
206	0x3d35fd77	0.044431176
207	0xbd44664f	-0.04794913
208	0xbc0592c6	-0.008152669
209	0xbc33e5bf	-0.010980069
210	0x3e3fd4cb	0.18733518
211	0xbe5015ec	-0.20320863
212	0x3d0ef684	0.034903064
213	0x3dcc8330	0.099859595
214	0xbdf0a950	-0.11751044
215	0xbcfb7096	-0.030693334
216	0xbd832b87	-0.064047866
217	0xbe12559f	-0.14290474
218	0x3e63148d	0.22175808
219	0x3dc89bbd	0.0979533
220	0x3e07b569	0.13252796
221	0x3d359993	0.044335913
222	0x3de57548	0.1120401
223	0xbca70e1b	-0.020392468
224	0x3d8a5da5	0.067561425
225	0x3d79045b	0.06079517
226	0x3c5e5daf	0.013572141
227	0xbca91573	-0.02064011
228	0xbe4d1b2f	-0.20029901
229	0xbb890ecc	-0.004182672
230	0xbdc1e8e1	-0.09468246
231	0x3d13bd4d	0.036069203
232	0xbdba35c0	-0.09092283
233	0xbd9ea7ad	-0.07746825
234	0x3e586cab	0.21135204
235	0xbd664701	-0.05622006
236	0xbd3c81f8	-0.046022385
237	0x3e2d5d9d	0.16930242
238	0xbde34291	-0.11096681
239	0x3d8a2236	0.067448065
240	0x3d12695a	0.035745002
241	0x3d862a2a	0.06551011
242	0x3d4f072a	0.05054394
243	0x3dc7fbd3	0.097648285
244	0x3d8f8d37	0.070093565
245	0x3e01b041	0.12664892
246	0x3e2789a8	0.16361105
247	0x3cbcf091	0.02306393
248	0x3c8680b3	0.01641879
249	0x3ce17bc0	0.027524829
250	0xbc477e7b	-0.012176151
251	0x3c1a8d85	0.009433155
252	0xbd14d783	-0.03633834
253	0x3cf1323b	0.029442897
254	0x3af650c7	0.0018792384
255	0x3e1046ef	0.14089559

rnn.bias f4 [150]
0	0x3dd646ee	0.104627475
1	0x3e283d3b	0.16429608
2	0x3de1a97a	0.11018653
3	0x3e97306c	0.2952913
4	0x3ec4fd39	0.38474444
5	0x3e7386b3	0.23781852
6	0x3e05b391	0.1305678
7	0x3dfcee17	0.123500995
8	0x3e9c9a41	0.30586436
9	0x3e8f870a	0.28032714
10	0x3eb8ee2a	0.36119205
11	0x3dffdcc2	0.12493278
12	0x3e27cb29	0.16386093
13	0x3eb0e862	0.34552294
14	0x3e76a3d7	0.24085937
15	0x3e37170f	0.1787989
16	0x3ebfc2b8	0.37453246
17	0x3e8cc194	0.27491438
18	0x3ddbdeac	0.10735831
19	0x3e438615	0.19094117
20	0x3e41bad6	0.18918929
21	0x3e8769bb	0.26447853
22	0x3e9b1f88	0.30297494
23	0x3e5b12be	0.21393868
24	0x3e806a66	0.25081176
25	0x3e37c6aa	0.17946878
26	0x3ebd1f85	0.3693811
27	0x3e71a419	0.23597755
28	0x3eb369d9	0.35041693
29	0x3ec374e5	0.3817512
30	0x3e87f122	0.26551157
31	0x3dc71228	0.0972026
32	0x3e5aa8a7	0.21353398
33	0x3ebd93e4	0.37026894
34	0x3e9fae23	0.31187543
35	0x3e87b63f	0.2650623
36	0x3e37c35b	0.17945616
37	0x3e9e0845	0.30865684
38	0x3e70fbce	0.23533556
39	0x3e1fb74c	0.15597266
40	0x3eb02462	0.34402758
41	0x3eb9f9df	0.3632345
42	0x3e229082	0.15875438
43	0x3e7e5728	0.24837935
44	0x3dc80363	0.09766271
45	0x3ea1c6a2	0.31596857
46	0x3e0a8ff6	0.13531479
47	0x3e1abcb2	0.15111044
48	0x3eb7a5fa	0.35868818
49	0x3ec56abc	0.38557994
50	0xbd7d506f	-0.061844286
51	0xbda05682	-0.07829
52	0x3dc474d6	0.09592597
53	0x3cc2029a	0.023682881
54	0xbc31591c	-0.010824468
55	0x3df08fe0	0.11746192
56	0x3df9a114	0.12188926
57	0x3d3dc206	0.046327613
58	0xbd3eafcf	-0.046554383
59	0xbdd5ed2c	-0.104456276
60	0xbdc02179	-0.093813844
61	0xbe238f8e	-0.1597273
62	0xbda02966	-0.07820396
63	0x3b36d115	0.0027895619
64	0xbacaf271	-0.001548363
65	0x3e0cbb3d	0.137433
66	0x3c07241e	0.008248357
67	0x3d795d60	0.060880065
68	0xbdee663e	-0.11640595
69	0xbd9c34c6	-0.07627253
70	0xbd935f0b	-0.071958624
71	0xbe1232b9	-0.14277162
72	0xbd1b24a7	-0.03787675
73	0xbd8580ab	-0.06518682
74	0x3d27aa93	0.040934157
75	0x3da836a1	0.08213545
76	0x3d9f807f	0.077881806
77	0x3da33509	0.079691
78	0xbcc52c23	-0.024068898
79	0xbd4f6998	-0.05063781
80	0x3c536359	0.012902104
81	0xbc96272d	-0.018329227
82	0xbdc86d0e	-0.097864255
83	0x3e15299a	0.14566651
84	0xbe4ecf13	-0.2019618
85	0xbb52546c	-0.0032093776
86	0x3de2f36f	0.110815875
87	0xbb3a98ba	-0.002847238
88	0xbdca1c66	-0.09868698
89	0x3ddd3cb1	0.108025916
90	0xbd38e833	-0.045143317
91	0xbd2d312e	-0.04228323
92	0xbd518960	-0.0511564
93	0xbe07629a	-0.13221207
94	0xbdcf96d8	-0.10136193
95	0xbb51da50	-0.0032020994
96	0xbdc70f09	-0.097196646
97	0x3d687e24	0.056760922
98	0xbca03e97	-0.019561095
99	0x3d98ee6e	0.07467352
100	0x3e0349a8	0.12821066
101	0x3e0726af	0.1319835
102	0x3e235291	0.15949465
103	0x3e370d47	0.17876159
104	0x3eccf786	0.40032595
105	0x3ea09f1c	0.3137139
106	0x3ea68710	0.3252492
107	0x3e713a7c	0.23557466
108	0x3eb49bc9	0.35275105
109	0x3eca84b0	0.39554358
110	0x3e61e51f	0.22060059
111	0x3e113b78	0.14182842
112	0x3e6d7634	0.23189622
113	0x3e9252e1	0.28578857
114	0x3e739e06	0.2379075
115	0x3e8b6020	0.27221775
116	0x3e220380	0.15821648
117	0x3e29e6e3	0.16591983
118	0x3e2021a9	0.1563784
119	0x3ed0bb7e	0.40768045
120	0x3e5f4a1f	0.21805619
121	0x3ea8153f	0.3282871
122	0x3e9846ad	0.2974142
123	0x3e3155fb	0.17317955
124	0x3deba176	0.115054056
125	0x3e054880	0.13015938
126	0x3e89d6c0	0.26921654
127	0x3e7eeea2	0.24895719
128	0x3ea6eb17	0.32601234
129	0x3ea8185e	0.3283109
130	0x3de7b007	0.113128714
131	0x3e027a15	0.12741883
132	0x3e8ac52e	0.2710356
133	0x3e8ee25d	0.27907076
134	0x3e8ecfb2	0.27892834
135	0x3ea2dfaf	0.31811282
136	0x3e74cebc	0.23906988
137	0x3e7610e7	0.24029885
138	0x3e0ddbcf	0.13853382
139	0x3e8ef1cb	0.27918848
140	0x3ecb7d8e	0.39744228
141	0x3e88b376	0.26699418
142	0x3e9aa253	0.3020197
143	0x3e907a85	0.28218475
144	0x3e163c83	0.14671521
145	0x3ea7cae0	0.3277197
146	0x3ec2f0ba	0.38074285
147	0x3ebecad9	0.37264135
148	0x3e9a11ac	0.30091608
149	0x3e878044	0.26465046

rnn.bias_lin_z f4 [50]
0	0x3d94132a	0.07230218
1	0xbe39c6be	-0.1814222
2	0x3ddac4e9	0.10682089
3	0xbbd9d4cf	-0.006647683
4	0x3c881242	0.016610269
5	0xbdd19edd	-0.10235379
6	0x3e28a36e	0.16468593
7	0xbdf09a9f	-0.11748242
8	0x3ce7c6d1	0.028293045
9	0x3d9e4194	0.07727352
10	0xbdeb08c1	-0.11476279
11	0xbe80594a	-0.25068122
12	0x3db7fba9	0.08983547
13	0x3e3ce89d	0.1844811
14	0x3d01e102	0.031708725
15	0x3e1c92a5	0.15290315
16	0xbdbb23f8	-0.0913772
17	0xbd9ad3ad	-0.07559905
18	0x3cbcdf87	0.023055805
19	0xbcf7e22a	-0.03025921
20	0x3dc0179d	0.09379504
21	0xbcf05dec	-0.02934166
22	0x3d8f6bf6	0.07003014
23	0x3e00f20d	0.12592335
24	0x3d854471	0.06507195
25	0xbdff586c	-0.12468037
26	0xbdf39dd9	-0.118953414
27	0x3e1a4ecf	0.15069126
28	0xbc4462c7	-0.011986441
29	0xbe497750	-0.1967442
30	0xbc7c3c27	-0.015395201
31	0x3db9952f	0.09061658
32	0xbd78248c	-0.06058173
33	0xbd300330	-0.04297179
34	0xbe3868e3	-0.18008761
35	0x3de18c16	0.110130474
36	0x3dc73960	0.0972774
37	0xbd4bb4ba	-0.0497329
38	0xbe007e32	-0.1254814
39	0x3e14e484	0.14540297
40	0x3dbcafb0	0.09213197
41	0x3d3bb10f	0.045823153
42	0x3dcaeb73	0.099081896
43	0x3d0d72a8	0.034533173
44	0x3b8661f6	0.0041010333
45	0xbdd78a21	-0.10524393
46	0xbcb408fb	-0.021976938
47	0xbe20c03e	-0.15698335
48	0x3e392e0a	0.18083969
49	0xbe1102ba	-0.14161196

classifier.weight f4 [20, 50]
0	0x3eb3de90	0.3513074
1	0x3e44986d	0.19198771
2	0x3e6b7b25	0.22996195
3	0x3dd9c96e	0.10634123
4	0x3d86de13	0.06585326
5	0xbd035639	-0.03206465
6	0x3da9bc1b	0.082878314
7	0x3e833b47	0.25631163
8	0x3d927624	0.0715144
9	0xbe91a851	-0.28448728
10	0x3c578478	0.013154142
11	0xbe219e42	-0.15783027
12	0xbd70a337	-0.058749404
13	0xbe726ef1	-0.23675133
14	0x3c2471a2	0.010036858
15	0x3d9a26d2	0.07526936
16	0xbeb55edf	-0.35423943
17	0x3edafeb2	0.42772442
18	0xbe0febf9	-0.1405486
19	0x3ee85d7f	0.45383832
20	0xbed0cbda	-0.40780526
21	0x3e19ff17	0.15038715
22	0x3eadc373	0.33938178
23	0xbd0f9373	-0.035052728
24	0xbe9b8183	-0.30372247
25	0x3da15eb3	0.078793906
26	0x3e248380	0.16065788
27	0x3d0f4785	0.034980316
28	0xbed970bd	-0.42468825
29	0x3ee60763	0.4492751
30	0x3ed810e8	0.42200398
31	0x3e2b8aac	0.16752118
32	0x3ecff7bc	0.40618694
33	0xbeacf83c	-0.33783138
34	0xbe08a191	-0.13342883
35	0xbca09df3	-0.019606566
36	0x3ee1b4a5	0.44083133
37	0xbe149c18	-0.1451267
38	0xbdbfea71	-0.09370888
39	0x3ec74d60	0.3892622
40	0xbe6cec92	-0.2313712
41	0xbe27163c	-0.16317075
42	0x3b332f4f	0.002734143
43	0x3d54a087	0.051910903
44	0x3e9c14cf	0.30484626
45	0x3e085a0d	0.13315602
46	0x3e1c5dc6	0.15270147
47	0xbc2dbfa4	-0.010604773
48	0x3e9dfbcc	0.30856168
49	0x3ea11b9b	0.31466374
50	0x3d404b3f	0.04694676
51	0xbca97eca	-0.02069034
52	0xbcca54ff	-0.024698732
53	0xbe8a4c98	-0.2701156
54	0x3ec866b5	0.3914086
55	0xbe1583dc	-0.14601082
56	0xbe105b14	-0.14097244
57	0xbda8f489	-0.082497664
58	0xbdac41fc	-0.08411023
59	0xbcb36a3f	-0.021901248
60	0xbed359d6	-0.41279477
61	0xbecf2ce9	-0.4046395
62	0xbeaac1dc	-0.33351028
63	0x3e21cf86	0.1580182
64	0xbdac2fb8	-0.08407539
65	0xbe1354a5	-0.14387758
66	0x3e186c11	0.14884974
67	0x3e6707b2	0.2256153
68	0xbd4089ec	-0.047006533
69	0x3d72299b	0.05912171
70	0x3d86e4e6	0.06586628
71	0x3e9a17d9	0.3009632
72	0x3f00b873	0.5028145
73	0x3e8c3469	0.27383736
74	0x3d0e921b	0.034807306
75	0xbd507071	-0.050888482
76	0x3dfc32ae	0.12314354
77	0xbe8dd791	-0.27703527
78	0x3e266e30	0.1625297
79	0xbe31f0a7	-0.17376958
80	0xbe4f33fc	-0.20234674
81	0x3e2e8188	0.170416
82	0x3e45b453	0.1930707
83	0xbdab92f3	-0.08377638
84	0xbe8347f9	-0.25640848
85	0xbee3912c	-0.44446695
86	0xbd9066b3	-0.07050838
87	0x3eee3020	0.4652109
88	0x3e44f848	0.19235337
89	0xbee9ea84	-0.45686734
90	0xbe77cd31	-0.24199368
91	0x3e3343b0	0.1750629
92	0xbeea65a0	-0.4578066
93	0x3cf784a4	0.030214615
94	0x3e53a519	0.20668449
95	0x3d359a2a	0.044336475
96	0xbefd8cd2	-0.495215
97	0x3e417a78	0.18894374
98	0x3e193389	0.14961065
99	0xbe1715dc	-0.14754432
100	0xbe005c09	-0.12535109
101	0x3e9cad0a	0.30600768
102	0xbbb6aff9	-0.005575177
103	0xbeb21d03	-0.3478776
104	0x3d3a1a62	0.045435317
105	0x3ec56542	0.38553816
106	0x3ea9d1f5	0.33167997
107	0xbec0efec	-0.37683046
108	0x3cccdbfb	0.025007239
109	0x3f055859	0.5208793
110	0xbe77cb37	-0.24198614
111	0x3dbb4f94	0.09146038
112	0xbeadc1a7	-0.33936808
113	0xbe2ec2e8	-0.17066538
114	0xbe0b443a	-0.13600245
115	0x3e03a680	0.12856483
116	0xbd2a542f	-0.04158419
117	0x3d565bdb	0.052333694
118	0x3e597a9e	0.21238181
119	0xbcbdd1bb	-0.023171296
120	0x3e5b5f19	0.21422996
121	0xbe354e37	-0.17705618
122	0x3f087546	0.53303945
123	0x3ea58ba8	0.32333112
124	0xbef3c880	-0.47613907
125	0xbe836a9a	-0.25667268
126	0xbe9d7357	-0.3075206
127	0x3e7f5a8b	0.24936883
128	0x3d62dfcb	0.055389207
129	0x3d8edf4f	0.069761865
130	0xbcd35c24	-0.025800772
131	0x3dfe8d42	0.124292865
132	0xbdbdd03f	-0.092682354
133	0x3e84353a	0.2582186
134	0x3de79bde	0.11309026
135	0x3e1a35dc	0.15059608
136	0x3db2241f	0.08698296
137	0xbd64a2fa	-0.05581949
138	0xbf1b99a0	-0.6078129
139	0xbb69a172	-0.0035649207
140	0xbd246a1d	-0.04014026
141	0x3e0ed52b	0.13948505
142	0xbbb33889	-0.005469386
143	0xbe7c68b8	-0.24649322
144	0x3e0a0606	0.1347886
145	0x3e20e765	0.1571327
146	0x3d0ac5ad	0.033879925
147	0xbd0988db	-0.03357778
148	0xbd9ec9dd	-0.07753346
149	0xbe868718	-0.26274943
150	0xbec40cb0	-0.3829093
151	0xbeda05fe	-0.42582697
152	0x3d2f1456	0.042744003
153	0x3ed56a84	0.41682827
154	0x3d43580f	0.0476914
155	0x3d9cd1b5	0.07657186
156	0xbe06e4ff	-0.13173293
157	0x3e588c37	0.21147238
158	0x3e10bbf1	0.14134194
159	0x3ec63c63	0.38717946
160	0x3ed511ea	0.4161523
161	0xbb64e044	-0.0034923712
162	0xbdf345e9	-0.11878569
163	0xbce87618	-0.028376624
164	0x3e6012cb	0.21882169
165	0xbf069ff9	-0.5258785
166	0xbe2ac110	-0.1667521
167	0xbd6f5a3a	-0.058435656
168	0xbe23fe7f	-0.16015051
169	0x3d8ef1ae	0.069796905
170	0xbd2e630e	-0.042574935
171	0xbcaca7ba	-0.021076072
172	0x3ef7f405	0.4842836
173	0xbe240a71	-0.16019608
174	0x3ec2cd35	0.38047186
175	0xbea45b6b	-0.32100996
176	0xbe45c10f	-0.19311927
177	0x3d8a5995	0.06755368
178	0x3ecb290e	0.3967976
179	0x3b9adb39	0.0047258404
180	0xbe91f7c5	-0.28509346
181	0x3e45047b	0.1923999
182	0x3e20cf75	0.15704139
183	0xbed19c66	-0.40939635
184	0x3d89ec24	0.067344934
185	0xbeb85ebf	-0.36009786
186	0x3e31410f	0.17309974
187	0x3e83d804	0.25750744
188	0xbebf028a	-0.37306625
189	0x3e250424	0.16114861
190	0x3df2c6ea	0.11854346
191	0x3c5efcd2	0.013610082
192	0x3e06d02a	0.13165346
193	0xbed6c5a9	-0.41947678
194	0xbe5446af	-0.20730089
195	0x3b7a6f82	0.0038213436
196	0x3e763ce7	0.2404667
197	0xbdf22ba8	-0.11824733
198	0x3ec37ae9	0.3817971
199	0xbdea5555	-0.11442057
200	0xbe3b5ddf	-0.18297528
201	0x3d033f26	0.032042645
202	0xbe90c0bb	-0.28272042
203	0x3e850f48	0.2598822
204	0x3e58ff0d	0.21191044
205	0xbe58616b	-0.21130912
206	0x3d73dd77	0.059537377
207	0xbe0080e7	-0.12549172
208	0x3e5cd149	0.21564211
209	0xbe6f3017	-0.23358189
210	0xbedcca59	-0.4312313
211	0x3e2c44e3	0.16823153
212	0xbe6e9c95	-0.23301919
213	0x3e2623f4	0.16224653
214	0xbd915f31	-0.070982344
215	0x3f14285d	0.5787409
216	0xbd54a154	-0.051911667
217	0xbe5f3baa	-0.21800104
218	0x3be2f93b	0.0069266832
219	0xbe3e311b	-0.1857342
220	0xbe0b1f90	-0.13586259
221	0x3eab80d2	0.3349672
222	0x3e6487c6	0.22317418
223	0xbea1692e	-0.31525558
224	0x3d51e2ff	0.05124187
225	0x3e21b90b	0.15793245
226	0xbea7f90b	-0.32807192
227	0xbdb46482	-0.08808233
228	0x3e3802a2	0.17969754
229	0x3e4ffbbc	0.20310873
230	0xbb812044	-0.003940614
231	0x3e03826c	0.12842721
232	0xbdd156e7	-0.102216534
233	0xbd893bb5	-0.06700841
234	0x3ebf9aab	0.3742269
235	0xbd345759	-0.044028614
236	0xbd761d31	-0.060086433
237	0x3ebc9d8f	0.36838958
238	0xbe542b35	-0.20719607
239	0x3ea2f96e	0.31830925
240	0xbe8fd369	-0.2809098
241	0x3e8c552a	0.27408725
242	0xbe0e5e32	-0.1390312
243	0xbe233496	-0.15938029
244	0xbda3ed0a	-0.08004196
245	0xbe0d745f	-0.13813923
246	0x3ec8ab99	0.3919342
247	0xbcdeb927	-0.027187897
248	0x3e9d17fc	0.3068236
249	0x3e8bd14f	0.27308127
250	0x3c80bd5e	0.015715297
251	0xbebb44d2	-0.36575943
252	0x3f248a46	0.6427349
253	0x3ed0e982	0.40803152
254	0xbe8da46e	-0.27664512
255	0x3e8c1754	0.27361548

classifier.bias f4 [20]
0	0xbd997a3b	-0.07494017
1	0x3c061a47	0.008184976
2	0xbdd6b844	-0.10484365
3	0xbdb42fe1	-0.08798195
4	0xbd587135	-0.052842338
5	0xbde7a994	-0.11311641
6	0xbe17c4a2	-0.14821103
7	0x3d730ada	0.05933652
8	0xbd1fe9c4	-0.039041296
9	0xbd47416e	-0.048646383
10	0xbda2001b	-0.07910176
11	0xbd970850	-0.07374632
12	0xbd685f68	-0.05673161
13	0xbd05e63c	-0.03269027
14	0xbdfa237a	-0.12213798
15	0xbd85352f	-0.065042846
16	0xbd8b70be	-0.06808613
17	0x3d57cd76	0.052686177
18	0xbde3114c	-0.110872835
19	0x3d356c0b	0.04429249
