Final Project/LEM-main/models/lorenz96/4/model.pt (torch, 203607 bytes, 6 tensors)

rnn.weights f4 [300, 120]
000000 2d 59 5b be 57 8d 99 3d 27 a2 c6 bc b7 19 58 bd
       -0.21420737 0.074976616 -0.024247242 -0.0527589
000010 39 1a 88 3b 34 cb c8 3c 88 9b cc bc c0 25 99 3d
       0.0041535166 0.024510957 -0.024976507 0.07477903
000020 7a cd 0a 3e 91 ca 4a 3d 2c be a4 3d dc 96 8a bb
       0.13554946 0.04950959 0.08044085 -0.0042294096
000030 d4 2e da 3d 15 b1 07 3e f3 2f d2 3c 73 c6 96 bc
       0.10653463 0.13251145 0.02565763 -0.018405175
000040 f4 70 ef bd 87 d3 c8 3d 14 29 18 bd c2 11 a9 3d
       -0.11691466 0.09805971 -0.03714855 0.0825534
000050 7f a9 9f bd 77 1f 09 3d b8 88 db bd ce ee 14 bd
       -0.07796001 0.033477273 -0.107194364 -0.036360554
000060 6a ae 90 3b c1 fc dd 3d 7a ae da bc 15 0b f7 3b
       0.004415323 0.108392246 -0.026694525 0.007539163
000070 40 82 0b 3e f2 a6 91 3c ae 61 e8 3d 03 be b4 bd
       0.13623905 0.017779801 0.11346756 -0.08825304
000080 57 c3 a9 bc 3f fb cb 3c 25 ae 5c 3d 91 8e 8c bd
       -0.020723028 0.024900077 0.053877015 -0.0686313
000090 e8 da cd bc b5 b1 eb 3c af 9a fd 3d 96 d3 1d be
       -0.025128797 0.02877126 0.12383019 -0.15412745
0000a0 2f 1b c5 bd 1f ef 14 be f0 88 cc 3c 2a cf b7 bc
       -0.096243255 -0.14544342 0.02496764 -0.02243765
0000b0 76 8c ad bd 10 c5 d7 3c e0 3a b2 bb c8 d8 de bd
       -0.084740564 0.026339084 -0.0054391474 -0.108811915
0000c0 3f 4e 10 3e 5e cb c7 bc 9f c2 09 3e 2c 68 bb bc
       0.14092349 -0.024388965 0.13453148 -0.022876821
0000d0 54 9c 12 3e 31 50 d5 3d 72 e2 55 3e 8b 00 4f 3c
       0.14317447 0.10415686 0.20887163 0.012634407
0000e0 9d a6 c0 bd 38 d8 15 3c e2 f3 ce bd af f9 31 3d
       -0.09406779 0.009145789 -0.10105111 0.043451007
0000f0 6c bf 15 bd 88 66 ef 3d 73 64 51 3d e9 fe 41 be
       -0.036559507 0.11689478 0.051121186 -0.18944897
000100 4d 21 8e 3d 27 45 71 3d bc f5 b9 bc 41 93 36 3d
       0.06939945 0.05890384 -0.022700183 0.044574026
000110 bc 2a 54 3d d7 27 23 3d 37 bd d9 b9 c4 ea cd 3c
       0.051798567 0.039832916 -0.0004153044 0.025136359
000120 c7 42 0b bc 2b 04 c0 3d db 37 05 bd 5a 95 ee bd
       -0.008499808 0.09375795 -0.03252397 -0.1164958
000130 77 40 13 3c 0e da 9c 3d 95 82 fe bc c5 3f 25 be
       0.008987538 0.07658778 -0.031068126 -0.16137607
000140 d9 4a b5 bd 5b 21 12 3e 62 49 1a bc 8a f8 a7 3d
       -0.08852167 0.14270537 -0.00941691 0.08201702
000150 8b f8 88 bc 64 5a 30 3e 6d fd 33 bc 1c f9 88 3b
       -0.016720077 0.17221981 -0.010985714 0.004180087
000160 1d 93 bd 3b 33 6e 00 3e 6f 70 36 3d 50 43 d7 3c
       0.0057853595 0.12542038 0.04454082 0.026277214
000170 fe d9 8a bd 43 4d a8 3b aa b9 98 3c bf 8b d9 bd
       -0.0677986 0.0051361634 0.018643219 -0.106223576
000180 37 05 6c bd 4e 44 1b 3d 38 0a 9b 3c b4 67 a0 bd
       -0.05762216 0.037906937 0.018925771 -0.0783228
000190 41 03 d2 3d 12 8a 75 bb b3 ca 73 bc 05 e5 11 bd
       0.10254527 -0.003746633 -0.01487987 -0.0356188
0001a0 df 2b 5b 3d e9 d7 30 3d 54 56 7f 3c 50 42 b8 bd
       0.053508636 0.043174658 0.015584547 -0.08997023
0001b0 9d 78 92 bd db 5e 92 bc 01 9d a0 bc 30 83 74 bc
       -0.071519114 -0.017867496 -0.019606115 -0.014923856
0001c0 fd ec f0 bc d8 ef 3d 3d 13 06 c9 3d 25 4b 87 3c
       -0.02940988 0.04637131 0.09815612 0.016515324
0001d0 64 5a 41 3c 6f 1d 48 3c 33 05 18 bd d2 32 c4 bb
       0.011801336 0.012214049 -0.037114333 -0.0059875036
0001e0 02 20 da bd 35 5d 81 bc 36 f9 44 3e 99 3e 7a bd
       -0.10650636 -0.015791515 0.19235691 -0.061094854
0001f0 f2 b3 ed 3d 36 72 d1 3c e6 f4 03 bd 0b 30 4d bc
       0.116065875 0.025567155 -0.032215975 -0.012523661
000200 bb 82 d2 bb a7 a1 a2 3c ea 34 5d bd 71 18 c5 3c
       -0.0064242757 0.019852472 -0.05400554 0.024059506
000210 b0 e4 42 3c f8 5f 10 be d9 b9 8e bd 33 42 42 3d
       0.011895344 -0.14099109 -0.069690414 0.047426414
000220 6b 42 76 3d 02 3f fb bc 5b fd 82 3d 87 ed 94 3d
       0.060121935 -0.030669693 0.0639598 0.07271867
000230 d3 af bf bd 1d 49 57 3d 41 98 70 3d 63 2c 77 bb
       -0.09359708 0.05255996 0.05873895 -0.0037715666
000240 8f c1 d1 3b 47 99 b2 bd 94 15 33 ba 40 fe 34 3d
       0.006401248 -0.087206416 -0.00068315235 0.044187784
000250 f3 4c ca 3d e5 91 e4 bd 92 b8 79 3d 47 a8 31 3e
       0.09877958 -0.1116064 0.060967036 0.17349349
000260 9d d7 cd 3d 5d b4 c5 3d 02 81 c5 bc b2 9d 8b bd
       0.100508906 0.09653542 -0.024109367 -0.06817187
000270 3b 80 a1 bd 61 b4 11 bd b3 4c af 3d cf be c9 bc
       -0.07885786 -0.035572413 0.08559551 -0.024627117
000280 85 ed c6 3d f4 bc a4 3d 7b 66 b3 bd ff 9f 6b 3d
       0.09713272 0.080438524 -0.08759781 0.05752563
000290 fc ce 76 3b 91 8d 4d bd 1f 93 81 bd c3 72 8b 3c
       0.0037659993 -0.050183836 -0.06326889 0.017022496
0002a0 85 af fa 3d e9 82 c2 3c 86 d1 34 bc b3 f4 4b bd
       0.12240509 0.023744063 -0.011036282 -0.04979391
0002b0 35 28 d8 3d ca 6e 1a 3e 3a 30 69 bd 0d 85 99 3d
       0.10554544 0.15081325 -0.056930758 0.074960805
0002c0 ac 1f 9d 3d fd f9 5e bd b5 ad db bd 1b d7 80 bd
       0.076720566 -0.054437626 -0.10726491 -0.06291028
0002d0 71 26 20 bd c0 47 5a 3d 6f 11 f9 bc 2d 67 98 3d
       -0.03909916 0.053291082 -0.03040382 0.07441554
0002e0 c2 01 42 bc 4c 36 4c 3d 48 7e 07 3d 5c 61 88 bd
       -0.011841239 0.04985647 0.033079416 -0.06659195
0002f0 c6 8a a3 3b e2 04 0c 3c cf d8 44 bd 61 19 b8 bd
       0.0049909083 0.008546086 -0.048058327 -0.08989216
000300 9e ef 7f bc 67 0f 0d 3b 58 c5 8b bc c3 f1 c8 3d
       -0.015621094 0.0021524073 -0.017061874 0.098117374
000310 86 6a 0f bd be cd c3 bd cd aa 6c bd fa 0e 1a 3e
       -0.035013698 -0.095607266 -0.057780076 0.15044776
000320 e3 b2 e6 bb 43 85 c4 3d 3f 6a 37 be 63 82 e0 3d
       -0.007040368 0.0959573 -0.17911623 0.10962369
000330 f3 ed d3 3d 7f 71 16 3e f2 e4 40 3d 39 04 1f 3d
       0.103481196 0.14691733 0.04709334 0.038822386
000340 85 94 00 3d bc 8b a7 bc 81 3f 0f 3e c9 34 0d be
       0.03139164 -0.020452373 0.13989069 -0.13789667
000350 c3 30 78 3d 0e d8 d1 3d 81 d3 1b be 81 ab e7 3c
       0.060593378 0.10246287 -0.15217401 0.028280022
000360 0c 65 d4 bd 5e 26 b7 bc fb 26 2e bd 7d 03 f3 3d
       -0.10370836 -0.022357162 -0.042517643 0.118659
000370 2e 3e ad bd a9 63 b2 bd 61 2b 8d 3b 31 a7 b2 3d
       -0.084591255 -0.08710415 0.0043081497 0.087232955
000380 b9 28 2e bd b7 27 32 3e 4f 34 12 3d b9 d5 b0 bd
       -0.042519305 0.17397963 0.035694417 -0.08634514
000390 44 6d 88 be b3 90 5b bd 0f 90 3a 3e 64 54 db 3a
       -0.26645863 -0.053604793 0.18219016 0.0016733524
0003a0 19 be 0d be c7 00 52 3d f0 24 a4 bc e1 d5 9e bd
       -0.13842048 0.051270273 -0.020037144 -0.07755638
0003b0 f7 c6 bc 3c e3 61 a5 38 53 3c 2c 3d a9 25 41 3c
       0.023044093 7.886046e-05 0.042049717 0.011788764
0003c0 e5 60 28 be 29 a0 4f ba 8c 21 96 3d 87 a2 44 be
       -0.16443212 -0.0007920289 0.07330617 -0.19202624
0003d0 e6 2a 58 3d e1 c1 86 bd 79 58 ab 3d b8 1e c3 3d
       0.052775286 -0.06579948 0.08366484 0.095273435
0003e0 bb 23 e0 3d c6 b1 2e bd 9c 24 01 3e 5a fb 13 be
       0.10944315 -0.042650007 0.12611622 -0.14451352
0003f0 63 55 1d 3e d5 0b dc 3d d9 f8 1d bb 31 9c d1 bc
       0.15364604 0.10744444 -0.0024104624 -0.025587173

rnn.weights_lin_z f4 [100, 120]
000000 26 37 1f 3d 9a 3f 83 bd 93 ae aa bc 9e 6e 16 3d
       0.038870953 -0.064086154 -0.020835197 0.036726587
000010 06 57 e0 3d 9c 37 ea bd 00 2c 9e bd 0a e0 e6 3c
       0.109540984 -0.11436388 -0.07723236 0.028183002
000020 30 af 3e bd 62 1a 0b 3d 83 7f 9d 3d 07 f5 64 bd
       -0.04655379 0.033960707 0.076903366 -0.05589774
000030 22 d9 12 bd 84 47 9e 3c f0 79 2f bc 78 c3 bf 3d
       -0.035851605 0.01932121 -0.0107102245 0.093634546
000040 57 39 30 bd 83 bf c0 3b ba ba ce 3d 32 43 c4 3d
       -0.043023434 0.005882205 0.10094209 0.09583129
000050 9c 9d 9b bd ce 5d b9 bd 4a 18 94 3d 4b b6 5e 3d
       -0.07598421 -0.09051095 0.07231195 0.054373067
000060 93 e2 a6 bc 32 a6 e3 3d 95 4b 60 bd 7e 1f c2 bd
       -0.02037171 0.111156836 -0.05475958 -0.09478663
000070 0c 4d a9 3d 2d 3f f5 3d 3b 56 38 3d 75 64 2a 3d
       0.08266649 0.119749404 0.04500411 0.04159971
000080 62 92 cd bd 2f 91 11 3e 10 a1 7f 3c ca 7e a6 bd
       -0.10037686 0.1421554 0.015602365 -0.08129652
000090 78 55 7e 3c 7d b8 01 3e 91 b8 18 bd bb 6c a3 ba
       0.015523307 0.12668033 -0.03728539 -0.0012468317
0000a0 ca 10 97 3d 43 9e bc 3d 2a 48 38 bd 87 2d f1 3d
       0.07376249 0.092098735 -0.044990696 0.11776262
0000b0 5a ba d7 bd cb ab 8e bd e0 94 f8 3c 3e af 7e 3c
       -0.105335906 -0.06966361 0.030344427 0.015544711
0000c0 ad a7 db bc 38 a5 95 ba 89 fc 4e 3d 4c b2 b0 3c
       -0.026813352 -0.0011417037 0.050533805 0.021569394
0000d0 02 a3 aa 3d b9 f2 2e 3d 93 bd b0 3d 2c a3 aa bd
       0.083318725 0.042711947 0.086299084 -0.08331904
0000e0 d0 1c fe bd ac ff 13 3d 21 7b af 3d 49 56 a9 bd
       -0.12407839 0.0361325 0.08568407 -0.08268411
0000f0 fb 95 4a 3d 49 32 03 be 14 86 21 3d 97 3b d9 ba
       0.04945944 -0.12812151 0.039434507 -0.0016573545
000100 46 d1 11 bd a6 21 c2 3d aa e2 91 bd 1d 85 07 3d
       -0.03559997 0.09479074 -0.07123311 0.03308593
000110 89 f7 42 3d 1b 76 f0 3b 5c d3 b5 bd 57 60 12 3d
       0.04759935 0.007338298 -0.08878204 0.035736408
000120 86 2f fc 3d 97 f8 eb bd 7c 74 06 3d a3 74 cd 3c
       0.12313752 -0.11522024 0.032825932 0.02508003
000130 1c 04 fb 3a 0e a2 70 bd f0 e1 0d be 96 87 91 bb
       0.0019151005 -0.058748297 -0.1385572 -0.004441212
000140 47 ca e7 3b 0b 7d 76 3d f2 13 46 3d 8a 4e eb 3c
       0.007073674 0.060177844 0.048358865 0.028723974
000150 56 62 89 bd 88 63 9b 3d 45 27 ab 3d 64 51 ab 3c
       -0.06708209 0.075873435 0.083570994 0.020912834
000160 b6 28 c2 3d d8 67 8e 3c fe 12 6d bd 70 50 24 bd
       0.09480421 0.017383501 -0.05787944 -0.040115774
000170 8e 80 ac 3d aa b6 52 3c 9a 6c 07 3d 16 6d a9 3d
       0.08422957 0.012860933 0.033062555 0.082727596
000180 0d 4c b4 3d ff d9 ba 3d c3 14 a8 bd 8b 7d b3 3d
       0.08803568 0.09123611 -0.08207085 0.0876418
000190 c7 86 4e bd f0 79 9e bd be df f2 bd f7 4b 18 3d
       -0.050421502 -0.077381015 -0.11859082 0.03718182
0001a0 e2 a4 0c 3d 01 34 06 be fc 3b a5 bd 68 ef 08 bd
       0.034336932 -0.13105775 -0.08068082 -0.03343144
0001b0 b3 a5 5a bd 4b 29 a5 3d a1 fc d5 3c 98 b3 1a 3b
       -0.05338068 0.08064517 0.02612144 0.0023605581
0001c0 cd 84 11 be 9b be 04 3d 5b cd 8a bd 5d a5 05 3d
       -0.14210816 0.032408338 -0.0677745 0.032628406
0001d0 12 43 33 3c 4a 1d 35 3a fe 45 28 bd 87 ad f6 bc
       0.010941284 0.00069089665 -0.041082375 -0.030112041
0001e0 83 4d ab bd fb cd d2 bd eb 36 25 3d 32 74 95 3d
       -0.083643936 -0.10293194 0.040335577 0.07297553
0001f0 33 2a 0b 3d 58 6c bc 3d 5c 8b 1f bd 51 1a 24 bd
       0.03397579 0.092003524 -0.038951263 -0.04006416
000200 77 01 b8 bd 6a cf b8 3d 55 79 74 3d d5 79 40 3d
       -0.089846544 0.09023936 0.059686024 0.046991188
000210 a4 ca 1d 3d 32 1b 14 3c 34 59 40 bd 96 2f 97 bd
       0.03852333 0.009039687 -0.04696007 -0.07382123
000220 73 fb 77 bd 59 b3 4b 3d 5e ed b2 3d b3 f5 41 bd
       -0.060542535 0.049731586 0.087366804 -0.047353458
000230 19 4c b9 bd 56 f9 b4 bd 7d e1 a1 3d 50 b3 b0 3d
       -0.090477176 -0.088366196 0.079043366 0.08627951
000240 61 8b e8 39 60 3b 1b bd 57 e0 0f 3e d0 e0 5a bd
       0.00044354334 -0.03789842 0.14050423 -0.053437054
000250 fe f2 dc bc 90 ee a2 3d 0b 95 2e 3c 6b e0 84 bb
       -0.026971336 0.079556584 0.010655652 -0.004055073
000260 81 d7 85 bd 3b 71 0e bc 61 e1 59 3d e7 91 8a bd
       -0.06535245 -0.008693988 0.053193454 -0.0676611
000270 6e 1e 93 bd 88 c2 fb 3c 76 28 bd bb 92 13 64 3d
       -0.071835384 0.030732408 -0.0057726456 0.055682726
000280 f8 38 ab 3d b4 af 78 ba df c6 ed 3d 1d 52 ba bd
       0.08360475 -0.0009486631 0.11610197 -0.09097693
000290 8c c4 a8 bc fa 87 74 3b 62 d4 ba 3a 55 18 d8 bc
       -0.020601533 0.0037312494 0.0014253969 -0.02637879
0002a0 6a 32 b0 bd 08 d0 b7 3d 3d 88 6c bd 73 50 bd bc
       -0.08603366 0.08975226 -0.057747114 -0.02310965
0002b0 90 74 a7 bd 27 2b c1 bd 68 fe 3e 3d cd 41 48 3d
       -0.081765294 -0.09432059 0.04662934 0.048890878
0002c0 58 ac 06 3e 5e d6 08 bd e3 01 c2 bd 05 56 5a bc
       0.13151681 -0.03340756 -0.09473016 -0.013326173
0002d0 d5 46 8a bc cc 0e 62 3d 1a ec 7f bd 78 8d 28 3d
       -0.016879478 0.055189893 -0.062481023 0.04115054
0002e0 46 92 cb bd fd 84 18 3d 0c dd 74 3d a0 d6 79 bd
       -0.09940009 0.037236203 0.05978112 -0.060995698
0002f0 8b 1a ea bd 02 72 cd 3d 75 01 81 3d ac 1e 99 bd
       -0.11430844 0.10031511 0.06299106 -0.07476553
000300 2b 64 32 bd 50 50 62 bd eb 0c 06 bd ed 5a 5b 3c
       -0.04355256 -0.055252373 -0.032727163 0.013388378
000310 6d 58 99 3d 42 3d d6 3d 35 42 c7 bd 7f 20 4e ba
       0.07487569 0.10460903 -0.09729425 -0.00078631187
000320 13 ce d9 bc 47 81 90 3c 64 9e 83 3c 7b c3 e3 3d
       -0.026587522 0.01763977 0.016066737 0.11121269
000330 6f 4f f4 bc 43 65 44 bc 08 89 ea 3d 8b d0 00 be
       -0.029823033 -0.011987033 0.11451918 -0.12579553
000340 63 00 e2 bd 9a 6a 43 3d b2 91 a0 bc 91 b2 63 bd
       -0.1103523 0.047709085 -0.019600723 -0.055590216
000350 9f 08 09 be 10 d1 06 3d 94 79 06 3e 85 7e 4b 3d
       -0.13382195 0.03291422 0.13132316 0.049681205
000360 1a 55 96 3d e6 ef b6 3d 01 3b ea 3d f0 1f 16 bd
       0.073404506 0.08932476 0.11437035 -0.03665155
000370 00 39 0e bb b4 91 e1 3d fb 15 e7 bd bb 2f c7 bb
       -0.0021701455 0.11014119 -0.11283489 -0.006078688
000380 a7 df df 3c 5a fb 98 bd 44 ff 1a 3d 55 38 16 3d
       0.027328325 -0.074698165 0.037841097 0.036674816
000390 0b 5d 80 3d 1e 4a cf 3d b2 f7 f6 bd 9f d7 bf 3d
       0.062677465 0.101215586 -0.12058963 0.09367298
0003a0 d9 4c 25 bd c1 e1 bb bc c6 b9 98 3d 09 bd 05 be
       -0.04035649 -0.022934796 0.074573085 -0.13060392
0003b0 94 52 82 3d d7 08 0f bd 44 ca 8b 3d 58 ec f1 3d
       0.06363407 -0.03492054 0.068256885 0.11812657
0003c0 26 5a c3 bd 67 71 36 bd c7 aa a7 3c 64 5a ff bb
       -0.09538679 -0.044541743 0.020467175 -0.007792758
0003d0 c0 28 36 bd 81 45 b6 bb fe 84 aa bc a6 56 3c 3d
       -0.044472456 -0.0055624847 -0.020815369 0.045981072
0003e0 28 9d b5 3d db 5e 86 bd e4 e8 82 3d ed fe 32 3d
       0.08867866 -0.06561061 0.063920766 0.043700147
0003f0 64 46 80 3d 20 68 50 bd 78 8f 5b 3d 23 40 c8 bc
       0.06263426 -0.05088055 0.05360362 -0.024444645

rnn.bias f4 [300]
000000 e2 ee 99 3d ce 94 b7 3d fa 67 5f 3e d7 08 86 3e
       0.075162664 0.08963929 0.21817008 0.2617862
000010 b7 80 a3 3d 96 e3 81 3e 39 65 91 3d 94 0b 0d 3e
       0.07983535 0.25368947 0.07099385 0.13773948
000020 ea da 39 3e 08 30 0c 3e 71 7a 18 3e f5 6e 72 3e
       0.18149915 0.13690197 0.14890458 0.23675139
000030 75 f5 1a 3e 23 be 50 3e f7 7a 27 3e 58 48 5a 3e
       0.15132697 0.20385031 0.16355501 0.2131666
000040 59 4b c9 3d 68 23 b3 3d ca ee 49 3e bb 30 20 3e
       0.098288245 0.087469876 0.19719997 0.15643589
000050 23 3e 51 3e 06 4a 71 3e cb 82 a2 3d cf ae 14 3e
       0.2043386 0.23563394 0.07935103 0.14519809
000060 39 bc 7e 3e f0 dc 07 3e f9 77 5e 3e 14 53 7b 3e
       0.24876489 0.13267875 0.21725453 0.2454341
000070 58 ba 76 3e 9d 23 6c 3e 35 c0 0b 3e f4 e5 72 3e
       0.24094522 0.2306046 0.1364754 0.23720533
000080 5a cd 47 3e ed 0b 49 3e c7 b2 9f 3d ca 4f 56 3e
       0.19511929 0.19633456 0.07797771 0.20928875
000090 1f 34 c2 3d ac 6a fc 3d 78 38 12 3e d8 ef c8 3d
       0.094825976 0.123250335 0.14279354 0.098113716
0000a0 04 4f f4 3d d7 88 80 3e 91 40 6d 3e db ff 85 3d
       0.119291335 0.251044 0.23169161 0.06542941
0000b0 dd 3c 4d 3e 96 ef 2e 3e 9d 27 4a 3e f3 99 45 3e
       0.20042749 0.17083582 0.19741674 0.19297008
0000c0 9f e8 3c 3e e9 fe 70 3e 3f 5e b7 3d 85 4b 16 3e
       0.18448113 0.2353474 0.08953523 0.14677246
0000d0 e9 fc 80 3e 66 9a 66 3e 11 63 30 3e 82 9a b2 3d
       0.25192955 0.22519836 0.17225291 0.08720876
0000e0 4d 21 b5 3d fc ed 60 3e 70 14 6e 3e ff f7 c0 3d
       0.08844242 0.21965784 0.23249984 0.094223015
0000f0 fb be 73 3e 3b e8 70 3e 10 ef 31 3e 0f 01 f9 3d
       0.23803322 0.23526089 0.17376351 0.12158405
000100 e9 df d4 3d 81 ff 6e 3e 8e 16 5b 3e 2c f3 29 3e
       0.1039427 0.23339655 0.21395323 0.16596669
000110 d6 d9 fb 3d 40 6f 1d 3e 6e f0 72 3e 59 e5 1d 3e
       0.12297408 0.1537447 0.23724529 0.1541952
000120 3a 73 16 3e 35 07 f8 3d 5e 6b 9e 3d 74 84 16 3e
       0.14692393 0.1211075 0.077353224 0.14698964
000130 a4 e7 cf 3c d0 ad 62 3e e8 e7 51 3e 74 fe 5b 3e
       0.02537901 0.22136617 0.20498621 0.21483785
000140 21 d4 37 3e 3c dc 59 3d c3 3f 90 3e b7 bb 54 3e
       0.17952015 0.053188547 0.28173646 0.20774733
000150 7b 12 ca 3d e9 23 2a 3e d3 cf d2 3d 92 67 62 3e
       0.09866806 0.16615261 0.102935456 0.22109821
000160 92 50 25 3e 45 af 56 3e fa cb f8 3d 6a bb b2 3d
       0.16144016 0.20965298 0.121482804 0.08727153
000170 c8 35 3f 3a e2 0b 90 3e 5d d1 32 3d 0a 21 65 3e
       0.0007294086 0.28134066 0.043656696 0.22375885
000180 d3 26 09 3e 86 e9 0c 3e c9 97 d6 3d 26 da f3 3d
       0.13393717 0.13760957 0.104781695 0.11906843
000190 f4 92 9a bc 21 12 08 3d 66 4a 63 bd 3b 19 81 bd
       -0.0188689 0.033220414 -0.055490874 -0.063036405
0001a0 33 24 b4 bc f4 a3 9f 3d 54 26 d4 3d 16 ed 81 bd
       -0.021989917 0.077949435 0.10358873 -0.06344049
0001b0 82 5d 28 bd 89 bf c0 bc 2d ea d3 bc 61 9b aa 3d
       -0.0411048 -0.023528831 -0.0258685 0.083304174
0001c0 ce 71 ea bd 9a b5 86 bc a1 59 6e bd ea 8b 4c 3d
       -0.11447488 -0.016444016 -0.058190946 0.04993812
0001d0 50 8a 87 bd 3b 10 cc 3d e9 f0 cc bd d5 29 17 be
       -0.06618178 0.09964033 -0.100068875 -0.14762051
0001e0 57 11 a9 3d 47 7a 32 3d 2b c4 bf bd 14 23 bc bd
       0.082552604 0.043573644 -0.09363588 -0.09186378
0001f0 11 4d 90 3d 10 96 fb 3c 99 cf dd bc 63 60 81 3c
       0.07045949 0.030711204 -0.02707653 0.015793031
000200 31 6e 20 bd b6 a6 1a be 94 f1 94 3d e7 12 6a 3d
       -0.039167587 -0.15102658 0.0727264 0.057146933
000210 6b 4c aa bc 33 38 fd bc da aa ab 3d e9 79 db 3b
       -0.020788392 -0.030910587 0.08382197 0.0066978824
000220 94 7d 60 3d cd b1 77 3c 90 0a c6 bd 6e b1 aa bc
       0.05480726 0.015118075 -0.096699834 -0.020836558
000230 fd 0c 14 3d c0 90 1a be 6c 08 05 3d 0f f4 12 bd
       0.0361452 -0.1509428 0.032478735 -0.035877284
000240 1f 9e d7 bd cd 17 95 bd 34 82 27 3d a4 7c 01 be
       -0.10528206 -0.0727993 0.040895656 -0.12645203
000250 c2 3d 4f 3d 5f 3f dd bd db 40 9a bc 29 95 4a bd
       0.050596006 -0.10803103 -0.018829754 -0.049458656
000260 31 c0 9d bd 19 5a d0 bd 9d 08 1f 3d b9 bd 51 3c
       -0.07702673 -0.10173435 0.038826574 0.012801581
000270 e8 e7 5e 3d 97 3e 94 bd 4d aa 0e bd 95 7c 52 3d
       0.05442038 -0.072385006 -0.03483038 0.051388342
000280 57 82 ee bd ba bc e1 3c 94 e2 56 3c 81 05 a7 bd
       -0.11645954 0.027555812 0.013115544 -0.08155347
000290 45 33 cd bd c3 3c c8 bb ec cd 94 3d 8c 53 d9 3d
       -0.100195445 -0.006110759 0.07265839 0.106116384
0002a0 48 df e2 bc 8f 76 8d 3d 63 6f d3 3c a3 71 1a 3e
       -0.02769436 0.06907379 0.02580995 0.15082411
0002b0 bf 57 b2 3c 18 79 0f be 7c 5f fd 3d f0 66 ab bd
       0.021770356 -0.14011037 0.12371728 -0.08369243
0002c0 98 1c 12 3e 29 4f b0 3d e0 10 aa 3d 49 b0 e4 bc
       0.1426872 0.086088486 0.08304 -0.02791609
0002d0 5b bd d2 3d dc d9 03 3e 98 48 0b 3d c5 d8 93 bd
       0.10290023 0.12876076 0.034004778 -0.0721908
0002e0 d3 4a 89 bd 65 6d a6 3d 7d e0 ab 3d 4a 76 e8 3c
       -0.06703725 0.08126334 0.08392427 0.028376717
0002f0 ea b5 03 be 8f 3c 15 be b3 51 a6 3d 5a ca 88 bd
       -0.12862363 -0.14573883 0.08121052 -0.066792205
000300 37 e9 15 be 45 03 15 bc c7 25 34 3d 5a cd ff bd
       -0.14639746 -0.009095018 0.04398134 -0.124903396
000310 23 e0 c3 bd 57 cb bf bc e2 53 ee 3d 65 04 a5 bd
       -0.09564235 -0.02341239 0.11637093 -0.08057479
000320 59 18 12 3e 79 26 72 3e c5 d2 75 3e 2d 0d 03 3e
       0.142671 0.23647489 0.24006183 0.12797995
000330 06 b7 00 3e 8b d4 7b 3e 66 83 65 3e c2 cf 4f 3e
       0.12569818 0.24592797 0.22413406 0.20294097
000340 9e ca 6c 3e 32 89 a4 3e 38 ea 42 3e 6c 7a 6d 3e
       0.23124167 0.32135922 0.1903466 0.23191231
000350 09 93 14 3e 77 36 cb 3d e9 3c f9 3d c1 ca 9e 3e
       0.14509214 0.09922498 0.12169821 0.31014064
000360 e3 d1 42 3e 3a c4 13 3e 89 ef 7d 3e f7 95 f6 3d
       0.19025378 0.14430323 0.24798407 0.12040322
000370 6a 17 9a 3e b2 32 0e 3e 48 8c 93 3e b5 4d 89 3e
       0.3009599 0.13886526 0.28817964 0.26817098
000380 30 4a 19 3e 23 f0 0f 3e ad 4b f6 3d de c7 42 3e
       0.14969707 0.14056449 0.12026153 0.19021556
000390 1a d7 98 3e 2f aa 5e 3e 3b e2 22 3e 4c 74 99 3e
       0.2985161 0.21744607 0.15906613 0.2997154
0003a0 38 fc 4c 3e 7c a2 c0 3d 9c b3 47 3e 9c 96 88 3e
       0.20018089 0.094059914 0.1950211 0.26677406
0003b0 4e dc ea 3d ea a2 80 3e d6 43 1e 3e 5a 6e f3 3d
       0.11467801 0.25124294 0.15455565 0.11886282
0003c0 1a c6 e9 3d df 4b 21 3e 28 2c 87 3e 75 93 ff 3d
       0.11414738 0.15751599 0.26400876 0.12479297
0003d0 52 4e 69 3e 03 0f 33 3e 5e a4 23 3e 6d 95 39 3e
       0.22783783 0.17486195 0.1598067 0.18123408
0003e0 aa 80 36 3e 55 f9 8b 3e a8 02 85 3e 8b 22 88 3e
       0.17822519 0.27338663 0.2597859 0.26588854
0003f0 e5 75 29 3e 19 78 70 3e 38 b1 78 3e 98 e1 17 3e
       0.1654888 0.23483314 0.24286354 0.14832151

rnn.bias_lin_z f4 [100]
000000 bb 9f 02 bd aa 17 fe 3d 94 b9 07 bd a5 ed 79 bd
       -0.031890612 0.12406857 -0.033135965 -0.06101765
000010 79 fe 4e 3c 0f 41 7c bd 8e 40 c7 3d d5 02 bc 3d
       0.012633913 -0.061585482 0.0972911 0.09180228
000020 83 9a 18 3e 4c fb 68 3d d2 de c6 bc 05 9f a7 bd
       0.14902692 0.05688028 -0.02427617 -0.081846274
000030 61 3d e7 3d 30 5a ae 3c f5 d8 df 3d e7 bb 89 bd
       0.11291004 0.02128324 0.10930053 -0.06725293
000040 47 e9 84 bd ba a2 c9 3d 3d 43 8c 3d 3c 5b 9d bc
       -0.064898066 0.09845491 0.06848762 -0.019208543
000050 d4 02 8d bd 2b 93 81 bd 99 e6 87 bd af 31 38 bd
       -0.06885305 -0.06326898 -0.0663578 -0.044969257
000060 84 bf fd bd 54 4e fb 3c b7 52 14 bc fe 5d 8d 3d
       -0.12390044 0.030676998 -0.009052924 0.06902693
000070 3f 6b 18 3e 3e 99 f1 3d 3b 6a 0c 3e 81 31 f0 3c
       0.14884661 0.11796807 0.13712399 0.02932048
000080 9f 7f e4 bd 6a 04 8f 3a 42 b3 c0 3a 8b 84 ac bd
       -0.11157154 0.001091135 0.001470186 -0.08423718
000090 54 5b 51 bd 7d 21 d3 3c ca 0f 1e bd 35 97 3c bd
       -0.051112488 0.025772804 -0.038589276 -0.04604264
0000a0 de 0c f2 bd eb 8e 63 bd dd 32 82 3d ed b4 b0 bd
       -0.118188605 -0.05555622 0.06357358 -0.08628259
0000b0 c6 fd 63 3c 71 8f b4 bd 0c 86 ac 3d 99 0f 82 bd
       0.013915485 -0.08816422 0.08424005 -0.06350631
0000c0 f6 34 8d 3d db 00 ef bd e8 61 b2 3d 74 ab d9 bd
       0.06894867 -0.11670085 0.087100804 -0.10628405
0000d0 ba 33 c4 3d 8d 2c 0f 3b ef 82 cf 3d f4 b9 87 3d
       0.095801786 0.0021846623 0.101323955 0.066272646
0000e0 1f 31 08 3c e8 66 bd 3d ce 46 09 bd 63 1b d0 3d
       0.008312493 0.092481434 -0.03351479 0.101614736
0000f0 20 84 68 bd b9 1b 4b 3d 7e 74 97 bc 4f df 12 be
       -0.05676663 0.049586985 -0.018488165 -0.14342998
000100 3a 12 eb 3d 45 30 39 3d c9 b4 dd bd d4 4e a9 3d
       0.11478086 0.04521205 -0.10825498 0.082669884
000110 e9 bd 2b 3e f6 8d 61 bb f2 38 cf 3d 49 3b a7 3c
       0.16771664 -0.003441689 0.10118283 0.020414012
000120 dd cd 07 3e a2 01 68 bc 86 b0 8a bd 9a d7 f9 bd
       0.13262124 -0.014160546 -0.067719504 -0.12199326
000130 fd dc 09 3d 3a eb b4 3d 49 56 04 be 31 28 e7 bd
       0.033658016 0.088339284 -0.1292354 -0.11286963
000140 96 01 ac bd e1 0b 0b 3d d1 3e 90 3d 83 df 17 3e
       -0.0839874 0.033946875 0.07043231 0.14831357
000150 7f 68 80 3d 92 61 9f 3d 55 72 8d bd 5c 0e e8 3d
       0.06269931 0.07782282 -0.06906573 0.11330864
000160 f0 8b 18 3d d2 d6 c5 3d 91 f8 b0 bd 44 87 d3 3d
       0.03724283 0.09660114 -0.0864116 0.10328534
000170 8a 16 0c 3d 4d 3e 05 3e d5 cb ca bc 45 30 85 3c
       0.034201182 0.13012047 -0.024755398 0.016258368
000180 24 a8 8f bd fd dd 9a bd 8c 7f e5 bc 35 81 88 bc
       -0.07014492 -0.07561872 -0.02801492 -0.016663173

classifier.weight f4 [20, 100]
000000 b3 38 81 bd 74 6e fb 3b a1 ba a7 be aa 3a 9e bd
       -0.06309643 0.007673079 -0.32759574 -0.07726033
000010 cc 10 c5 3d 2a cb 8d 3d 71 12 20 be 05 f2 0e be
       0.096223444 0.06923516 -0.15632035 -0.1395951
000020 93 e2 db 3c a1 9e e4 bd 1c a9 21 3e 17 73 bc 3e
       0.026841437 -0.111630686 0.15787166 0.36806557
000030 0d 3d 66 be f8 aa 86 3d b4 c4 b5 3d f6 dd 48 bd
       -0.22484227 0.065755785 0.08875409 -0.049039803
000040 64 2c a7 3c 0a c5 cc 3d 55 4c 94 3e 9f 01 3a 3e
       0.02040691 0.0999852 0.28964487 0.18164681
000050 9f 14 0d 3d 5d 2e 36 3e 27 ca 7e bd b2 a0 21 be
       0.034443494 0.17791124 -0.062204506 -0.15783957
000060 20 73 26 be cc e5 cb 3c 50 92 57 be d8 b4 b8 be
       -0.16254854 0.02488985 -0.21051908 -0.36075473
000070 18 c0 1a 3d c6 ae 73 3e 36 4d 97 be b3 cb 02 3c
       0.03778085 0.2379714 -0.29551095 0.007983136
000080 1a 67 b8 3c a0 22 19 3e 40 ac 83 bd 2f a5 00 3e
       0.0225101 0.14954615 -0.064293385 0.12563013
000090 ee 5e 5d 3c 4a 17 99 3e f5 65 e1 3e ed f9 c2 be
       0.0135114025 0.2990058 0.440231 -0.38081303
0000a0 11 c6 10 3e 79 dd 6e 3e e0 ec 8b 3e 95 71 42 bd
       0.14138056 0.23326673 0.2732916 -0.0474716
0000b0 68 b3 46 3a 30 fa 76 3e f5 ac 25 be 65 5c 35 be
       0.0007579834 0.24118876 -0.16179259 -0.17711027
0000c0 5d 10 28 3e 0e e4 a9 bd 81 d3 a2 3e 13 1c 16 3e
       0.16412492 -0.08295451 0.3180199 0.14659147
0000d0 e8 9c 89 bc ed b7 2c bd 89 30 20 3e 84 6d 86 be
       -0.016798452 -0.042167593 0.15643515 -0.2625543
0000e0 9c 78 ac be 70 62 00 3e f0 d0 87 bd f9 fa 1e bc
       -0.33685768 0.12537551 -0.066316485 -0.009703391
0000f0 c4 85 8f bd 2b e6 63 3e e3 46 e8 bd 46 61 02 be
       -0.07007936 0.22255771 -0.113416456 -0.1273242
000100 92 5d 2d 3e 00 a3 80 be 28 5d 0f be 84 7e 1b bd
       0.16930225 -0.2512436 -0.1400038 -0.03796245
000110 c1 d2 08 be 1c c7 30 3e 77 86 20 3d b2 fc ae 3c
       -0.13361646 0.17263454 0.039190736 0.021360729
000120 e0 5c 62 3e d5 37 21 3e 40 49 11 be 33 6f 06 3e
       0.22105742 0.15743954 -0.14188099 0.13128357
000130 6a ff 0b bd 4d ba 44 3e 30 b7 d6 3b 6f d5 c6 bd
       -0.03417913 0.19211693 0.0065525994 -0.09708678
000140 b9 3e 0d be ee 13 57 3d 35 b9 ec 3c c8 f1 05 3d
       -0.13793458 0.05250924 0.028896907 0.032701284
000150 73 a6 96 3d 46 bd a2 bc 01 68 6b be 1c 20 d0 bc
       0.073559664 -0.019865643 -0.22988893 -0.025405936
000160 79 66 aa be 20 a3 35 be 91 f8 14 3e 9e ea 38 3e
       -0.33281305 -0.17738008 0.14547946 0.1805825
000170 47 8a 3b be bc 0e a0 3b 42 83 e8 3d d8 e3 5a 3e
       -0.18314467 0.004884569 0.113531604 0.21375978
000180 57 a1 69 be 34 13 fc bd 01 a7 94 be de c5 db 3d
       -0.22815453 -0.1230835 -0.29033664 0.107310995
000190 17 dc 29 be f8 b1 df 3d 1d d7 7f be fa e6 21 3e
       -0.16587864 0.10922617 -0.24984403 0.15810767
0001a0 f8 ef b0 be 84 81 30 be 82 58 34 3c 6a 32 a8 3d
       -0.34558082 -0.17236906 0.01100743 0.08212741
0001b0 45 1c 91 3e c9 e3 ee 3c 5e 25 31 3d 36 50 84 bc
       0.2834188 0.02916135 0.043248527 -0.016151529
0001c0 bf 9a 88 3b 7f 19 3e be a0 f3 58 bd b1 ad 9a 3d
       0.004168838 -0.18564413 -0.052966714 0.0755266
0001d0 0e c8 dd 3e e8 10 ea 3d 28 43 65 be 82 db 61 3b
       0.43316692 0.11429006 -0.223889 0.0034463112
0001e0 96 f4 3d be 2b 66 13 3e dd b7 ff 3d 49 85 61 3d
       -0.18550333 0.14394443 0.12486241 0.05505875
0001f0 3d 55 c1 bc 44 fb 31 be 50 d9 ba be 7e 9c 63 be
       -0.023600215 -0.17381006 -0.3649392 -0.22227666
000200 7c d7 cd bd 1c a7 e5 3d 75 88 59 3e d2 2f d7 3d
       -0.10050866 0.11213514 0.2124346 0.10507168
000210 38 70 34 3d 06 7a 76 be 1a a6 02 3d 81 25 3b 3d
       0.044052333 -0.24069986 0.031896688 0.045690063
000220 41 ba 01 3e c7 83 d1 bc fa 6b 34 3e 8b ec 22 3e
       0.12668706 -0.025575532 0.17619315 0.15910546
000230 b5 25 d6 3d 5b 6c 25 bd 71 02 72 bb b3 cc b6 be
       0.10456411 -0.04038654 -0.0036927725 -0.35703048
000240 e5 3d 80 3e 24 bd 48 be 16 28 54 be d6 0b 0a be
       0.25047222 -0.19603401 -0.20718417 -0.13481078
000250 fa dd 03 be d8 2c 19 be 81 3e e3 bb 33 43 80 bd
       -0.12877646 -0.14958513 -0.0069349413 -0.06262817
000260 5c e5 38 3c 6d 91 08 3e 7b 06 b1 bd 6c 1b 87 3d
       0.011285152 0.13336726 -0.08643814 0.06597027
000270 83 39 63 bd 83 f2 37 bd 8b 57 73 bc 09 f2 e9 3c
       -0.05547477 -0.04490901 -0.014852415 0.028557794
000280 06 22 ef 3d ff d2 ae bd ab 20 80 be 27 82 65 3d
       0.11676411 -0.08536338 -0.25024924 0.056032326
000290 15 3f c9 bd 00 d8 27 be da 31 d3 3c 53 19 ca bd
       -0.09826485 -0.16390991 0.025780607 -0.098681115
0002a0 75 5d 67 bc 81 e1 30 bc 0f b0 9c be bc 6b 65 3d
       -0.014121403 -0.010795952 -0.30603072 0.056010947
0002b0 a9 33 49 3d 8d ee a1 bd 15 c4 93 bc 7c 4b 6a 3d
       0.049121533 -0.07906828 -0.018037835 0.057200894
0002c0 39 50 e6 3d f3 94 c9 bd e8 e4 95 bb 7a c7 c5 bd
       0.1124577 -0.09842863 -0.004574407 -0.09657188
0002d0 9b 47 03 be 88 5f f3 bc bd 10 cc 3c 96 f0 6f 3e
       -0.12820284 -0.029708639 0.024910325 0.2343162
0002e0 19 41 d1 be d5 ee a6 bc 08 ce 6a 3e 68 ed 41 bd
       -0.40869978 -0.020377556 0.22930157 -0.04734555
0002f0 11 00 b9 bd 36 99 a8 bd a5 98 9e bd c5 b8 cf 3d
       -0.09033216 -0.08232348 -0.077439584 0.10142664
000300 ab 33 51 3d 4f b1 da bb 2c f7 10 3e a7 2a fc 3d
       0.051074665 -0.006673969 0.14156789 0.12312823
000310 d9 a1 02 be 40 d5 b3 be e3 1d 82 be f0 86 86 3e
       -0.12757052 -0.35123634 -0.25413427 0.26274824
000320 a0 63 85 be 81 38 02 be ad 43 7f 3e b8 03 cd 3d
       -0.2605257 -0.12716867 0.2492816 0.10010475
000330 09 d3 1c be 07 15 f5 3c 11 85 6a 3c a3 aa 70 bd
       -0.15314879 0.029917253 0.014313952 -0.05875648
000340 3a d0 0d be ab cf 47 3e 96 c2 88 3b d3 9f 0a 3d
       -0.13848963 0.19512813 0.004173587 0.033843827
000350 17 aa 7d 3d c1 39 2f be be f2 77 3e 8b 30 8b bd
       0.06192979 -0.17111875 0.24213693 -0.06796368
000360 87 81 24 be 9d 53 76 be 11 ad f5 3d 5b f8 0b bd
       -0.16065036 -0.24055333 0.119959004 -0.034172397
000370 22 13 fe 3c 66 1c 75 bc 43 17 9b 3d 60 30 60 bd
       0.031014983 -0.014960384 0.07572796 -0.054733634
000380 4e 73 93 be fd 84 eb bc b8 db 24 be 1f 66 6d be
       -0.28798908 -0.028749937 -0.16099441 -0.23183487
000390 c4 ee 22 3e 07 4b 58 3e a1 77 03 3d 40 a9 69 3d
       0.15911394 0.2112237 0.03209651 0.057046175
0003a0 77 19 17 be 11 6a f0 bd 54 ca 5c be 78 a1 80 bd
       -0.14755808 -0.117389806 -0.21561557 -0.06280798
0003b0 7d ec 47 3e 01 8f c4 3e 23 63 3b 3d 25 aa a2 bd
       0.19523807 0.38390353 0.04574884 -0.07942609
0003c0 24 13 44 3e 9b 9a a2 3d cc a4 99 be 44 a2 90 3c
       0.19147927 0.07939645 -0.30008543 0.0176555
0003d0 bd 08 bc 3d ae c6 89 bd c9 72 bc be dd 25 a3 3e
       0.09181354 -0.06727348 -0.36806324 0.31864825
0003e0 f4 de 1a be 8b 49 d9 bd c6 40 1c be 71 1e 44 3e
       -0.15124112 -0.1060973 -0.15259084 0.19152237
0003f0 2d a1 15 be 7c b7 28 be d4 5f af 3d 2e ac e0 bd
       -0.14612265 -0.16476244 0.085632 -0.10970341

classifier.bias f4 [20]
000000 1a c6 53 bd 58 20 0b 3d 54 ab 51 3b ed b2 c6 bd
       -0.051702596 0.033966392 0.0031992989 -0.09702096
000010 1f e7 16 3d 12 20 94 3b 72 d2 74 3d 5f b1 5e 3d
       0.036841508 0.0045204246 0.05977101 0.054368373
000020 8e cd d7 bd 52 65 8f bd b0 ec 5a bb 96 db 8a 3d
       -0.10537253 -0.07001747 -0.0033405237 0.06780164
000030 e0 d2 2f bd 1a 69 7f 3d 55 26 ac 3d 4d f8 57 3b
       -0.042925715 0.062356092 0.08405749 0.0032954395
000040 0d 80 47 bb 4f 4b 65 3d 77 40 cd bc 5f 1e b6 3d
       -0.0030441314 0.055980023 -0.025055153 0.088925116
