Final Project/LEM-main/models/lorenz96/0/model.pt (torch, 12695 bytes, 6 tensors)

rnn.weights f4 [48, 36]
0	0xbe90a8c4	-0.28253758
1	0xbda024ec	-0.07819542
2	0xbdf1b36c	-0.118018
3	0x3d54a78a	0.05191759
4	0xbe2aa492	-0.16664341
5	0x3d599525	0.05312075
6	0x3d51bb3b	0.051203948
7	0xbd9bbf3d	-0.07604835
8	0x3e055b89	0.13023199
9	0x3df7bba0	0.120963335
10	0x3e3128fb	0.17300789
11	0xbd917f2c	-0.07104334
12	0x3e1029c3	0.14078431
13	0xbcc310fc	-0.02381181
14	0x3b74f277	0.0037375966
15	0x3ec5ab35	0.38607183
16	0x3b091ba4	0.0020921016
17	0xbb821b09	-0.003970508
18	0xbcf44a57	-0.029820604
19	0xbc89156f	-0.016733853
20	0xbd9a8928	-0.07545692
21	0xbccf7d9e	-0.025328454
22	0xbd7846eb	-0.060614508
23	0x3de75c95	0.112969555
24	0x3b8ff26d	0.004392913
25	0xbdbdda80	-0.09270191
26	0xbd0096cd	-0.031393815
27	0xbc827070	-0.015922755
28	0x3cf93898	0.030422494
29	0xbd0b7dfb	-0.03405569
30	0x3b84a00c	0.0040473994
31	0x3da9dfd8	0.08294648
32	0xbcaf370d	-0.021388555
33	0xbd10a9d0	-0.035318196
34	0xbd6467b9	-0.05576298
35	0x3da4fa80	0.080555916
36	0x3c907bd4	0.01763717
37	0x3c3af873	0.011411774
38	0xbe4c7032	-0.19964674
39	0xbdec0dce	-0.115260705
40	0xbe9d51d0	-0.3072648
41	0xbe05055e	-0.12990329
42	0xbd352158	-0.044221252
43	0x3d526914	0.05136974
44	0xbe0a2eb7	-0.13494383
45	0x3e782275	0.24231894
46	0xbc888647	-0.01666559
47	0xbbeeb556	-0.0072848005
48	0x3dc43924	0.09581211
49	0xbe54fcf3	-0.20799617
50	0xbccf3bc5	-0.025297055
51	0x3e8f27e9	0.27960137
52	0xbdcec3c1	-0.10095931
53	0xbc49d8e0	-0.012319773
54	0x3d50bd17	0.05096158
55	0x3d093e41	0.033506636
56	0x3d603df8	0.054746598
57	0xbd92f103	-0.071748756
58	0xbd7accf5	-0.06123062
59	0x3dc43f62	0.09582402
60	0xbccb83d8	-0.024843141
61	0xbd0fcaed	-0.035105634
62	0xbde42fc5	-0.11141924
63	0x3cf1dae9	0.02952333
64	0xbd7381a7	-0.059449818
65	0xba88ba19	-0.0010431438
66	0x3d7e6a43	0.062113058
67	0xbbcf3e66	-0.006324577
68	0xbda0f0b8	-0.078584135
69	0xbab9de29	-0.0014180589
70	0xbca997b6	-0.020702224
71	0x3df64f7e	0.12026881
72	0xbe14f639	-0.14547051
73	0xbe168e4c	-0.1470272
74	0x3e9281d3	0.28614673
75	0xbe11e758	-0.14248407
76	0x3d7b479e	0.061347596
77	0xbdda5654	-0.10660997
78	0x3e15d8e3	0.14633517
79	0xbdab8b9e	-0.08376239
80	0xbda14f3b	-0.0787644
81	0x3f170912	0.58998215
82	0x3cdd51a7	0.027016474
83	0x3ea8f95a	0.3300274
84	0xbdc599a5	-0.09648446
85	0xbda2ab4b	-0.07942828
86	0x3e0d3124	0.13788277
87	0xbcba5756	-0.022746723
88	0x3d2a3359	0.041552875
89	0x3d1e3587	0.038625266
90	0x3df581d7	0.119876556
91	0x3c299db4	0.010352541
92	0xbd9a6cbd	-0.075402714
93	0xbb9d6c5f	-0.0048041786
94	0xbd8b7221	-0.06808878
95	0xbcef0f1f	-0.029182015
96	0x3d4fdb26	0.050746106
97	0xbd59c310	-0.05316454
98	0xbd3510f2	-0.044205613
99	0xbd333691	-0.04375321
100	0xbb99c78c	-0.0046929773
101	0xb8341302	-4.2933047e-05
102	0xbe05f885	-0.13083084
103	0xbdaa5ffd	-0.083190896
104	0x3d89f4d2	0.06736149
105	0x3a58383e	0.0008248127
106	0x3ccd5c83	0.025068527
107	0x3d38a9f6	0.045083962
108	0xbe9092fa	-0.28237134
109	0xbe834832	-0.25641018
110	0xbe33a4f1	-0.17543389
111	0x3d13a9c7	0.036050584
112	0xbbfe5250	-0.0077612773
113	0x3e42ed2c	0.19035786
114	0xbcd5fd7f	-0.026121853
115	0xbb8479f0	-0.0040428564
116	0x3e1a0018	0.15039098
117	0xbe977669	-0.29582527
118	0xbc5756a4	-0.013143215
119	0xbe2091c7	-0.1568061
120	0x3ca7fa8d	0.020505214
121	0x3d64c358	0.055850357
122	0xbcdca241	-0.026932837
123	0xbd769d3c	-0.060208544
124	0x3d9ee2ed	0.077581264
125	0xbc362ee8	-0.011119582
126	0xbd880b3c	-0.06642768
127	0xbb7d3aa3	-0.0038639687
128	0xbc11462e	-0.00886683
129	0x3cdfc2fb	0.027314654
130	0xbc771b8d	-0.015082252
131	0x3db202c9	0.086919375
132	0x3d71a26c	0.05899279
133	0xbcacf610	-0.021113425
134	0x3d5b3a39	0.053522322
135	0xbd8f93f9	-0.070106454
136	0xbd15bfa1	-0.036559705
137	0xbdb9bd7d	-0.09069345
138	0xbc32a4b8	-0.01090353
139	0xbd0aa350	-0.033847153
140	0xbd9d1527	-0.0767005
141	0x3d1153e2	0.035480388
142	0x3d378edf	0.044813987
143	0xbb9ab9fb	-0.0047218776
144	0xbe6a2980	-0.22867393
145	0xbe1fb8f8	-0.15597904
146	0x3e984365	0.29738918
147	0xbdffde6f	-0.12493598
148	0x3d457d92	0.048215456
149	0x3c7ddb89	0.015494236
150	0x3e34bf05	0.17650993
151	0xbc4ded23	-0.012568745
152	0xbd764fd8	-0.06013474
153	0x3e65da8a	0.22446647
154	0xbd8a8f6f	-0.06765639
155	0xbd71d0a1	-0.059036855
156	0xbe11eff1	-0.14251687
157	0x3df8d47c	0.12149903
158	0x3ded5996	0.11589353
159	0x3da95bc0	0.08269453
160	0x3bd112cd	0.006380415
161	0xbdbf120e	-0.093296155
162	0x3d5dc58f	0.054143485
163	0x3ae41347	0.0017400765
164	0xbcd44bfb	-0.025915137
165	0xbcbf69ae	-0.023365822
166	0x3d18ca7d	0.037302483
167	0xb99f820f	-0.00030423744
168	0x3d1aaca6	0.037762307
169	0xbcdc9971	-0.026928635
170	0xbd44c745	-0.0480416
171	0xbdbe7dcc	-0.093013376
172	0xbceb7c18	-0.028745696
173	0x3c8fc1d7	0.017548485
174	0xbda57314	-0.0807859
175	0xbba3ec81	-0.0050025587
176	0xbd3473ad	-0.04405563
177	0xbdeff321	-0.11716295
178	0xbce930ce	-0.028465655
179	0x3ae18e2d	0.0017208509
180	0xbe4e22ba	-0.20130435
181	0x3e7ddc18	0.2479099
182	0xbe369057	-0.17828499
183	0x3cef9ac5	0.029248605
184	0xbde4f799	-0.11180038
185	0x3ce3d837	0.02781306
186	0x3dd4aa60	0.10384059
187	0xbd203538	-0.039113253
188	0x3d542523	0.05179323
189	0x3d1985a0	0.03748095
190	0x3e3c7afd	0.18406291
191	0xbe7348dd	-0.23758264
192	0x3e2b75c1	0.16744138
193	0x3caa9a42	0.020825509
194	0xbd2811c9	-0.041032586
195	0x3d8ddd74	0.069270045
196	0xbc761a28	-0.015020885
197	0x3cd40f0d	0.025886083
198	0x3cbe8e8f	0.023261337
199	0xbd3a400f	-0.045471247
200	0x3c9ea595	0.019366065
201	0x3ccb14e7	0.02479024
202	0xbd915b11	-0.07097448
203	0xbcefdd91	-0.029280456
204	0x3d632390	0.055453837
205	0xbe00bef9	-0.1257285
206	0x3d527dd1	0.05138952
207	0xbdb34245	-0.08752874
208	0x3d075f60	0.03304994
209	0xbd2aef78	-0.04173228
210	0x3d41cac6	0.04731252
211	0xbc6379a7	-0.013883985
212	0x3d64cd7f	0.05586004
213	0xbb7bd65b	-0.0038427326
214	0xbc6bd5cc	-0.014394235
215	0xbdf54f4b	-0.119780146
216	0xbe8b088c	-0.27154958
217	0x3d0364e6	0.032078646
218	0x3dc1a58b	0.09455403
219	0xbd461b3a	-0.04836581
220	0xbe81eb02	-0.2537461
221	0xbe103c89	-0.14085592
222	0xbe111d15	-0.1417125
223	0x3e43649d	0.1908135
224	0x3a1f12e0	0.0006068181
225	0x3e443df9	0.19164266
226	0x3dd600cd	0.104493715
227	0xbcfec09e	-0.031097706
228	0xbd6e0d56	-0.058118187
229	0xbdb7372b	-0.08946069
230	0xbd68f27f	-0.056871887
231	0xbde90e28	-0.11379653
232	0x3cc4174d	0.023936892
233	0x3dcc1baa	0.09966214
234	0x3d1fd7d4	0.03902419
235	0x3d8638a0	0.06553769
236	0xbd94f152	-0.07272591
237	0xbd95f674	-0.07322398
238	0xbccc5708	-0.024943843
239	0xbdaa90e6	-0.083284184
240	0x3e162982	0.14664271
241	0xbce9207f	-0.028457878
242	0x3c36ff64	0.011169288
243	0x3db11b72	0.08647813
244	0xbdb01cfb	-0.085992776
245	0x3ca8953b	0.020578971
246	0xbd111f5e	-0.035430305
247	0xbd8829f1	-0.06648625
248	0x3b391128	0.0028238986
249	0xbd7168f1	-0.05893797
250	0x3a20f57a	0.00061400945
251	0xbc11a337	-0.008889011
252	0x3e0287ab	0.12747066
253	0xbd038905	-0.032113094
254	0xbd8a2164	-0.0674465
255	0xbd8b6379	-0.06806082

rnn.weights_lin_z f4 [16, 36]
0	0x3e0509c2	0.12992004
1	0x3da05e2d	0.078304626
2	0xbe964eac	-0.29356897
3	0xbd5adb36	-0.053431712
4	0x3dcfd750	0.101484895
5	0xbe663d54	-0.22484332
6	0xbe76eb16	-0.24113116
7	0xbeeaa4c0	-0.4582882
8	0x3c0344d1	0.008012013
9	0x3f0ccc38	0.54999113
10	0x3d07c587	0.03314736
11	0x3e54e8fd	0.20792003
12	0xbdf0847d	-0.1174402
13	0xbda349ad	-0.07973037
14	0xbe124b57	-0.14286552
15	0xbdccf265	-0.100071706
16	0x3e0e155d	0.13875337
17	0x3d9f55c9	0.07780034
18	0x3e2a6d8d	0.16643353
19	0x3de284c0	0.11060476
20	0xbd87b853	-0.06626954
21	0x3d8045d6	0.0626332
22	0x3d566de3	0.05235089
23	0x3e49328a	0.19648185
24	0x3de2c20e	0.11072169
25	0xbdabd6e6	-0.08390598
26	0x3dd6f90e	0.10496722
27	0xbd761daa	-0.060086884
28	0x3d8cf854	0.06883302
29	0x3d224c4c	0.039623544
30	0xbd9df5ae	-0.07712875
31	0x3e215c62	0.15757897
32	0xbe5b78b8	-0.2143277
33	0xbdb92bd3	-0.09041562
34	0xbd00d5d8	-0.031453937
35	0xbe1d4a5d	-0.15360399
36	0xbe40bf47	-0.18822967
37	0xbebff5b6	-0.3749215
38	0xbe685038	-0.22686851
39	0xbea26070	-0.317142
40	0xbe59105b	-0.21197645
41	0x3d2ed230	0.04268092
42	0xbe342381	-0.17591669
43	0x3e917819	0.2841194
44	0xbeb9eafb	-0.36312088
45	0xbd368aa2	-0.044565804
46	0xbe052a9b	-0.13004534
47	0xbe409937	-0.18808447
48	0xbe839704	-0.25701153
49	0xbbbc6be5	-0.0057501667
50	0xbd73f0ec	-0.059555933
51	0xbe8c661e	-0.2742166
52	0x3e05b999	0.13059081
53	0xbd9665b5	-0.07343618
54	0x3cf92545	0.03041328
55	0x3d7d76e1	0.06188095
56	0x3d78dff9	0.060760472
57	0x3c7bd182	0.015369775
58	0x3e4251e5	0.18976553
59	0x3e556135	0.20837863
60	0x3db7af18	0.08968943
61	0x3c008168	0.007843353
62	0xbdd029d8	-0.10164231
63	0xbd3236d6	-0.043509327
64	0x3c706ff3	0.014675128
65	0xbe07ddbc	-0.13268179
66	0xbdb6aaf3	-0.08919325
67	0xbd9998d6	-0.07499854
68	0xbdb33a16	-0.087513134
69	0x3d3af864	0.04564704
70	0x3e014d4e	0.12627146
71	0x3e7fd727	0.24984418
72	0xbe22149f	-0.15828179
73	0x3cf36d84	0.029715307
74	0x3eb4c5cb	0.35307154
75	0x3ebddd94	0.37083113
76	0x3e38de30	0.18053508
77	0x3e022626	0.12709865
78	0xbef25731	-0.47332147
79	0x3e2d38f7	0.16916262
80	0x3e232e1b	0.15935557
81	0x3c4dbf56	0.012557825
82	0x3da155e1	0.07877708
83	0xbe93d3e9	-0.28872612
84	0xbe6ad6d2	-0.2293351
85	0xbecd51fb	-0.4010161
86	0xbe01a239	-0.1265954
87	0xbe21993c	-0.1578111
88	0x3d8c3abc	0.0684714
89	0xb9a4859a	-0.00031380058
90	0xbd1501cc	-0.036378667
91	0xbb124fba	-0.0022325353
92	0x3d6050ff	0.054764744
93	0x3ca9fe42	0.020751122
94	0xbd19ca44	-0.03754641
95	0x3dbb94b6	0.09159224
96	0x3e742830	0.23843455
97	0x3cc302d4	0.02380506
98	0xbd1ca3ff	-0.038242336
99	0x3e8e20b4	0.27759326
100	0x3d17e808	0.037086517
101	0x3dd2f00e	0.10299693
102	0x3e733802	0.23751834
103	0xbdfd326f	-0.12363135
104	0xbdfea84d	-0.124344446
105	0x3d0d1476	0.03444334
106	0xbe147ab9	-0.1449994
107	0xbdc338e8	-0.095323384
108	0x3e3b3f69	0.18285908
109	0x3d00e410	0.031467497
110	0xbdcb1237	-0.099155836
111	0xbe228a93	-0.15873174
112	0xbeb0f612	-0.34562737
113	0x3f0476ce	0.5174378
114	0xbdd9f41e	-0.10642265
115	0x3e0bc441	0.13649084
116	0x3e9738c4	0.29535496
117	0x3dd8d56c	0.10587582
118	0x3e46aa1a	0.19400826
119	0xbd5a5545	-0.053303976
120	0x3ec0181a	0.37518388
121	0x3d9420c5	0.07232813
122	0xbf2524b7	-0.6450915
123	0x3e608f4a	0.2192966
124	0xbd5a1759	-0.053244922
125	0x3d914c0e	0.070945844
126	0x3ddbd533	0.10734024
127	0x3df25ff3	0.11834707
128	0x3eaaba60	0.33345318
129	0x3dc79fce	0.09747277
130	0xbd28dc30	-0.041225612
131	0x3d1c9401	0.038227085
132	0x3c9febb3	0.01952157
133	0x3e178479	0.14796628
134	0x3d34dd90	0.04415661
135	0xbe1a802d	-0.15087958
136	0xbd74ade1	-0.059736136
137	0x3cdc76eb	0.026912173
138	0xbd521b9a	-0.051295854
139	0xbdc83d22	-0.09777285
140	0xbde3e5f7	-0.11127847
141	0x3d3dda83	0.046350967
142	0x3d346b2a	0.044047512
143	0xbcbc1fd8	-0.022964403
144	0xbd5966c1	-0.05307651
145	0x3e330552	0.17482498
146	0x3e325c4f	0.17418025
147	0xbdba1fc1	-0.09088088
148	0xbf0bc08d	-0.54590684
149	0xbe814b70	-0.25252867
150	0xbebae010	-0.3649907
151	0x3d86deb7	0.06585448
152	0x3d9ba5d1	0.07599986
153	0x3eaad135	0.33362737
154	0x3dd496f0	0.103803515
155	0x3d24179a	0.04006157
156	0x3e056c8b	0.13029687
157	0xbe51543c	-0.20442289
158	0x3e9c1b23	0.30489454
159	0x3e5032c8	0.20331872
160	0xbd84fd76	-0.06493656
161	0x3de484ca	0.1115814
162	0x3da6de66	0.08147888
163	0x3c3b8052	0.011444168
164	0xbccce196	-0.025009912
165	0xbd34c28a	-0.04413084
166	0xbdd707a1	-0.10499502
167	0xbe1d578e	-0.1536543
168	0x3d90276d	0.0703877
169	0xbe3cb5c9	-0.1842872
170	0xbca6a3b2	-0.020341728
171	0x3df84642	0.121227756
172	0xbe5986a9	-0.21242775
173	0xbddd4c1e	-0.10805534
174	0x3d8b34d2	0.06797184
175	0x3c1d31e2	0.0095944125
176	0xbd5ad9c2	-0.053430326
177	0xbda57d16	-0.08080499
178	0x3e5537ce	0.20822069
179	0x3dbcb298	0.092137516
180	0xbea7f15f	-0.3280134
181	0xbdceeacc	-0.10103378
182	0x3f036c54	0.5133717
183	0x3dbcb1e0	0.092136145
184	0xbe0fa869	-0.14029087
185	0xbecaa580	-0.3957939
186	0xbdaa289c	-0.08308527
187	0xbe52eb28	-0.20597517
188	0xbbdb0994	-0.0066844914
189	0xbdf30382	-0.118659034
190	0xbe978d89	-0.2960017
191	0xbcd05e37	-0.02543555
192	0xbe1239d3	-0.1427987
193	0x3f1bc048	0.6084027
194	0xbe80baaf	-0.25142428
195	0x3eac8400	0.33694458
196	0x3c9622f4	0.018327214
197	0x3cc9dfdd	0.02464288
198	0x3d2c6a0d	0.042093325
199	0x3e5ea2fd	0.21741863
200	0x3dd3bf9d	0.10339282
201	0x3e1bf85d	0.15231462
202	0x3e6dcca6	0.23222598
203	0xbe10609a	-0.1409935
204	0x3ccbd149	0.024880068
205	0xbd493e12	-0.04913146
206	0xbea30153	-0.31836948
207	0xbcc33f0d	-0.023833776
208	0xbcb0b677	-0.021571381
209	0xbcbb292c	-0.02284678
210	0x3dc86684	0.09785178
211	0x3db156e7	0.086591534
212	0x3d5dfb5b	0.05419479
213	0xbdc436c1	-0.09580756
214	0xbdc7a767	-0.09748726
215	0xbcedc0a7	-0.029022528
216	0x3db8f6bd	0.090314366
217	0xbe83dd88	-0.25754952
218	0x3ea14dc3	0.3150464
219	0x3e682ee5	0.22674139
220	0x3c89f806	0.0168419
221	0x3e5cc0c4	0.21557909
222	0x3c70a042	0.014686646
223	0xbcec5377	-0.028848393
224	0xbf1bc156	-0.6084188
225	0x3e0b4ea5	0.1360422
226	0x3eaec24d	0.34132615
227	0x3eaf357c	0.34220493
228	0x3c4de8a7	0.012567676
229	0x3d95e8da	0.073198035
230	0xbc4f5192	-0.012653725
231	0xbd82beaf	-0.06384026
232	0xbde28b8e	-0.11061774
233	0x3de80edc	0.11330959
234	0xbe1f3a48	-0.15549576
235	0x3d812f73	0.06307878
236	0x3dc188fe	0.09449957
237	0xbd5df7d4	-0.054191425
238	0x3df00eae	0.1172155
239	0x3d0f4b20	0.034983754
240	0xbcc8acce	-0.024496462
241	0xbc70d390	-0.014698878
242	0xb92f382a	-0.00016710223
243	0xbd4e3606	-0.05034449
244	0xbdf2f4b4	-0.1186308
245	0x3e68f4c9	0.22749628
246	0x3d84e75d	0.064894415
247	0x3c99a9ac	0.018757664
248	0x3be2f4b0	0.0069261417
249	0xbe887ef3	-0.26659355
250	0x3df903c5	0.12158922
251	0x3d0922d8	0.033480495
252	0x3f01ff46	0.5078014
253	0xbc820740	-0.015872598
254	0x3e456bb3	0.19279365
255	0xbe9aa968	-0.30207372

rnn.bias f4 [48]
0	0xbf4632df	-0.77421373
1	0xbf21b663	-0.63168925
2	0xbf377206	-0.7165836
3	0xbf20136f	-0.62529653
4	0xbf3a4071	-0.7275458
5	0xbf40f50b	-0.75373906
6	0xbe32b4eb	-0.17451827
7	0xbf79d5ab	-0.97591656
8	0xbf46a848	-0.77600527
9	0xbf31d135	-0.6945985
10	0xbec18617	-0.37797615
11	0xbf13438b	-0.5752494
12	0xbf5041ba	-0.8135029
13	0xbf4dc50c	-0.80378795
14	0xbf3a1eef	-0.7270345
15	0xbf1fb09d	-0.62378865
16	0x3cc18dc7	0.023627175
17	0xbb2b73db	-0.0026161585
18	0xbd5334b9	-0.051563952
19	0xbc5a7e52	-0.013335781
20	0x3ba11521	0.004915849
21	0xbd6fd818	-0.058555692
22	0x3ce8c238	0.028412923
23	0x3d40eeb2	0.047102638
24	0xbd5b6152	-0.05355961
25	0x3c047f6b	0.008087019
26	0x3d2e2a3b	0.042520743
27	0x3c61c31e	0.01377943
28	0xbc4cd427	-0.012501753
29	0xbcd0785d	-0.025448019
30	0x3d529b66	0.05141773
31	0xbd02f362	-0.03197039
32	0x3f7823fa	0.96929896
33	0x3f581242	0.8440286
34	0x3f4dcd71	0.80391604
35	0x3f29f7b7	0.6639361
36	0x3f5dd215	0.86648685
37	0x3f01fa4a	0.50772536
38	0x3f5a71e5	0.8533004
39	0x3f6362e9	0.888228
40	0x3f3a5731	0.72789294
41	0x3f69a453	0.91266364
42	0x3f2fc0d9	0.6865364
43	0x3f3d8a2b	0.7403895
44	0x3f2e3030	0.6804228
45	0x3f194d59	0.5988365
46	0x3f1fdbf5	0.62445
47	0x3f5e1aaf	0.86759466

rnn.bias_lin_z f4 [16]
0	0xbca10b9c	-0.019658856
1	0x3ccdda57	0.025128527
2	0x3d86947a	0.065712884
3	0x3c992ed0	0.01869908
4	0xbc0c5fd2	-0.008567767
5	0x3dbfa8e7	0.093583874
6	0x3d79a627	0.06094947
7	0x3d1f3653	0.038870167
8	0xbb3984b1	-0.002830785
9	0x3c9f9927	0.019482208
10	0xbd42343d	-0.0474131
11	0xbd552bd7	-0.052043762
12	0xbada24a2	-0.0016642998
13	0xbc953693	-0.0182145
14	0x3db27ea8	0.08715564
15	0x3c0de4e6	0.008660531

classifier.weight f4 [20, 16]
0	0x3f2c5ec9	0.6733213
1	0x3e9bbb45	0.30416313
2	0x3e4ce1a3	0.20007949
3	0xbe792d78	-0.24333751
4	0xbed16529	-0.40897492
5	0x3df0e1aa	0.11761792
6	0xbed7b8fa	-0.42133313
7	0x3ebf7669	0.37395027
8	0xbf8d3d64	-1.103436
9	0x3eccea18	0.4002235
10	0x3f2fee15	0.6872266
11	0xbf17a1f2	-0.59231484
12	0x3fb8341d	1.4390904
13	0xbf25100b	-0.64477605
14	0x3f7a0bec	0.9767444
15	0x3c38e56a	0.011285165
16	0x3f05ac91	0.5221644
17	0xbf3b11f5	-0.73074275
18	0x3cbff48d	0.02343204
19	0x3ee2077e	0.4414634
20	0x3efdd758	0.49578357
21	0x3cc87ba9	0.024473028
22	0x3e76d24b	0.24103658
23	0x3f453bdd	0.7704447
24	0xbf08715d	-0.5329798
25	0xbf03c2b2	-0.51468956
26	0xbf42c6cb	-0.76084584
27	0xbf845bfc	-1.0340571
28	0xbf42f80e	-0.7615975
29	0xbf914534	-1.1349244
30	0x3f6674a0	0.90021706
31	0x3e5665e8	0.20937312
32	0x3f501a35	0.8128999
33	0xbe05628d	-0.13025875
34	0xbed78645	-0.42094627
35	0x3f048082	0.5175859
36	0x3f2d56c9	0.6771055
37	0x3e31e7f8	0.17373645
38	0xbf938328	-1.1524401
39	0xbe4c33f0	-0.19941688
40	0x3fcf7402	1.6207278
41	0xbf63be39	-0.8896213
42	0xbeac182c	-0.33612192
43	0xbe75f1d7	-0.24018036
44	0xbe9d1bb3	-0.30685195
45	0x3d6e891a	0.05823622
46	0x3d34f43c	0.044178233
47	0xbeeeb715	-0.46624056
48	0x3f0de6d2	0.5543033
49	0x3e8b267f	0.27177808
50	0xbaca037e	-0.0015412418
51	0x3f6c1e36	0.922336
52	0x3e665b21	0.224957
53	0x3f8844b8	1.0645971
54	0x3d03fe06	0.032224678
55	0xbf751aad	-0.9574383
56	0xbd4046e9	-0.046942625
57	0xbea16f82	-0.31530386
58	0x3f6e4697	0.9307646
59	0xbf4541a1	-0.77053267
60	0x3eeb5dde	0.45970052
61	0x3fac80e7	1.3476838
62	0xbf036a0a	-0.5133368
63	0x3f07582a	0.528689
64	0xbf2cd9f0	-0.67520046
65	0x3e7905ff	0.24318694
66	0x3ea7927d	0.3272895
67	0x3fe32371	1.7745191
68	0xbe3c3a3d	-0.18381591
69	0x3ea25405	0.31704727
70	0x3f0f98e7	0.56092685
71	0x3d7f0287	0.06225827
72	0xbf45887a	-0.7716137
73	0x3f8a30e8	1.0796175
74	0xbf143649	-0.5789533
75	0x3d10c212	0.03534133
76	0xbe831f61	-0.25609878
77	0x3f30421d	0.6885088
78	0x3ef78a0b	0.48347506
79	0xbeff58dd	-0.49872485
80	0xbd8d252a	-0.06891854
81	0xbe66f993	-0.22556143
82	0xbd2dad42	-0.04240156
83	0x3e563225	0.20917566
84	0xbe797af1	-0.24363305
85	0x3f76a112	0.96339524
86	0xbeb5a140	-0.35474586
87	0x3f757de3	0.9589521
88	0x3f32ca02	0.6983949
89	0x3f944511	1.1583577
90	0xbf884e48	-1.064889
91	0x3f93f9ba	1.1560585
92	0x3f354501	0.70808417
93	0xbf11bed2	-0.56931794
94	0xbe443a84	-0.19162947
95	0x3eb5494b	0.3540748
96	0x3ea234ec	0.31681
97	0x3f6e5cf4	0.93110585
98	0xbeafd379	-0.34341028
99	0xbf58da87	-0.84708446
100	0xbf5c0829	-0.8594995
101	0x3f6af759	0.9178367
102	0x3f17bcf1	0.59272677
103	0xbea69b42	-0.32540327
104	0x3f0d6886	0.55237615
105	0xbd758d6d	-0.059949327
106	0xbec7114f	-0.38880393
107	0xbdf79966	-0.12089805
108	0xbe8b2827	-0.2717907
109	0xbf0fb612	-0.5613719
110	0x3ed426e1	0.41435912
111	0x3fc04714	1.5021691
112	0x3f93a1de	1.1533773
113	0x3fb2151d	1.3912693
114	0x3f2c609e	0.67334926
115	0xbe410d3d	-0.18852706
116	0xbf2f87fb	-0.68566865
117	0xbf7bd883	-0.98377246
118	0x3ed345e2	0.41264254
119	0xbeb2cd0c	-0.34922063
120	0xbee06c19	-0.43832472
121	0xbf0e478c	-0.5557792
122	0xbf523bc6	-0.8212246
123	0x3eee14f0	0.4650035
124	0xbf3fc5c6	-0.74911153
125	0x3f179397	0.5920958
126	0x3e9110eb	0.2833322
127	0xbe742b24	-0.23844582
128	0x3e89575b	0.2682446
129	0x3ee472df	0.4461889
130	0x3fa6c023	1.3027385
131	0x3dbc55d6	0.091960594
132	0x3ec7784e	0.38958973
133	0x3def0538	0.11670917
134	0xbe86bd34	-0.26316226
135	0x3fe8eb71	1.8196851
136	0xbe932f0d	-0.28746834
137	0xbf78ac1c	-0.9713762
138	0x3ec70439	0.3887041
139	0x3eed514a	0.4635108
140	0xbcdde304	-0.027085789
141	0x3eea2cd0	0.45737314
142	0xbf574168	-0.84084177
143	0xbc44bc95	-0.012007852
144	0xbf378bc5	-0.71697646
145	0xbe9af5bb	-0.30265602
146	0xbdf21f1c	-0.1182234
147	0x3f4fc1f6	0.81155336
148	0xbf804205	-1.0020148
149	0xbe2f8e7b	-0.17144196
150	0xbb735fc8	-0.0037135947
151	0x3f6d4d40	0.92696
152	0x3f4f7895	0.8104337
153	0xbe900792	-0.28130776
154	0x3fc719bd	1.555473
155	0x3dfbfce5	0.12304095
156	0xbf3180b7	-0.6933703
157	0xbdb9d58b	-0.09073933
158	0x3f1fb24c	0.62381434
159	0x3f08f7eb	0.5350329
160	0x3ed2a8b6	0.4114434
161	0xbf39b33a	-0.72539103
162	0xbecdb5fb	-0.40177903
163	0x3e3ed248	0.18634903
164	0xbdbaaa1e	-0.091144785
165	0xbfce7a14	-1.6131005
166	0x3e88adac	0.26695
167	0x3ce43b2f	0.027860252
168	0x3f2d79ef	0.6776418
169	0x3f415710	0.7552347
170	0xbbaf029d	-0.0053408877
171	0x3e0ad0de	0.13556239
172	0x3f1b45c7	0.60653347
173	0x3f57d5b8	0.84310484
174	0x3f46a9f0	0.77603054
175	0x3f89d6fc	1.0768733
176	0xbee44f2e	-0.4459166
177	0xbd9a055b	-0.07520553
178	0x3fb1d2f9	1.3892509
179	0xbf73dd47	-0.9525952
180	0x3f363f2a	0.7119013
181	0x3d265714	0.040610388
182	0xbef82178	-0.48463035
183	0x3e0eed7f	0.13957785
184	0x3e84214a	0.25806648
185	0x3f8fbea7	1.1230057
186	0xbefd2460	-0.49441814
187	0xbf8186e8	-1.0119295
188	0xbef65e7f	-0.4811897
189	0x3f52d69e	0.8235873
190	0x3c60aa0f	0.01371242
191	0x3f36d5f8	0.7142024
192	0x3d8f19f2	0.069873706
193	0x3e1bc1c0	0.15210629
194	0x3d36661f	0.044530984
195	0xbea649be	-0.32478136
196	0xbfb726d1	-1.4308721
197	0x3d1ac773	0.037787866
198	0xbec76c60	-0.3894987
199	0x3d0c58fa	0.034264542
200	0x3e4504a4	0.19240052
201	0x3f737bce	0.95110786
202	0x3d4415ae	0.047872238
203	0xbf8d9c95	-1.106341
204	0xbf507cce	-0.81440437
205	0xbebe9bc0	-0.37228203
206	0xbf89a571	-1.0753614
207	0xbf79c21c	-0.9756181
208	0xbd7d6f36	-0.061873637
209	0xbf425e6b	-0.7592532
210	0x3ee3424c	0.44386518
211	0x3e78025e	0.24219653
212	0xbf856138	-1.0420294
213	0xbe3048ef	-0.17215322
214	0x3fb31383	1.399033
215	0x3db97b38	0.09056705
216	0x3f063019	0.5241714
217	0xbf5bf4db	-0.85920495
218	0xbed2ebcb	-0.4119552
219	0xbe7b089b	-0.24515001
220	0x3f9b107b	1.2114404
221	0xbedb6af5	-0.4285504
222	0xbf8014aa	-1.0006306
223	0xbe012f56	-0.12615713
224	0xbe82e216	-0.25563115
225	0xbefbbed9	-0.49169043
226	0x3fa9d2f2	1.32675
227	0xbe9bca24	-0.3042766
228	0x3f1cf55c	0.6131189
229	0x3ef0eea5	0.4705707
230	0x3f53d972	0.8275367
231	0xbf8b4217	-1.0879544
232	0x3ee06792	0.43829018
233	0xbe4ffed6	-0.20312056
234	0x3f2da3e3	0.67828196
235	0x3f84f1cb	1.0386289
236	0xbe74531d	-0.2385983
237	0xbedf82bb	-0.43654427
238	0x3f5d46ff	0.86436456
239	0xbeb9bedb	-0.36278424
240	0x3f7f4a24	0.99722505
241	0xbf09c999	-0.5382324
242	0xbf55d757	-0.8353171
243	0xbf69e4be	-0.9136466
244	0x3e884bbb	0.26620278
245	0x3f1868c6	0.5953487
246	0x3eb4aa51	0.3528619
247	0x3eec735e	0.46181768
248	0xbef8a26b	-0.48561415
249	0x3f0e9c45	0.557072
250	0x3f0d3ff2	0.551757
251	0x3f818a0f	1.0120257
252	0xbf580849	-0.8438764
253	0x3f513523	0.81721705
254	0x3e31a49f	0.17347954
255	0xbe9cf927	-0.30658838

classifier.bias f4 [20]
0	0xbd2e97d9	-0.042625282
1	0xbdb96275	-0.09051982
2	0x3d169ecd	0.036772538
3	0x3d68a21a	0.056795217
4	0xbd4a0670	-0.049322546
5	0xbb710bd9	-0.0036780743
6	0xbd487084	-0.04893543
7	0xbd965172	-0.07339753
8	0xbce7b335	-0.028283695
9	0x3c37168d	0.01117481
10	0x3d440c57	0.04786333
11	0xbcf34d8a	-0.02970006
12	0x3ce18b6b	0.0275323
13	0x3bd05c37	0.006358649
14	0xbc759092	-0.0149880815
15	0x3c71e19a	0.01476326
16	0xbbaa86be	-0.005204051
17	0x3e148c8a	0.14506736
18	0x3d73447a	0.059391476
19	0xbdab2cfb	-0.08358189
