Final Project/LEM-main/models/1/model.pt (torch, 725207 bytes, 6 tensors)

rnn.weights f4 [600, 220]
0	0xbe2715e6	-0.16316947
1	0xbe56367f	-0.20919226
2	0xbd4abc77	-0.04949614
3	0x3d873157	0.06601208
4	0x3d253000	0.04032898
5	0x3dde12c0	0.1084342
6	0xbe27b803	-0.16378789
7	0x3b7bd06d	0.0038423792
8	0x3e70046c	0.23439187
9	0xbdf6ceea	-0.120511845
10	0xbe585e86	-0.21129808
11	0xbe235b39	-0.15952767
12	0x3b45aae3	0.003016167
13	0x3dc3e7d4	0.09565702
14	0xbd44d19d	-0.048051465
15	0xbe47f1ac	-0.19525784
16	0xbe1c9b90	-0.15293717
17	0x3c8da72e	0.017291632
18	0x3df3294b	0.118731104
19	0x3d72a1f2	0.059236474
20	0xbd9d68d4	-0.0768601
21	0x3deace82	0.114651695
22	0x3e3c559b	0.18392031
23	0xbd7b6893	-0.061379027
24	0x3e8bea8c	0.27327383
25	0x3e9610ed	0.29309788
26	0xbd47fad7	-0.048823204
27	0x3e08a05c	0.13342422
28	0xbdd888cf	-0.10572969
29	0xbdcdacf8	-0.10042757
30	0x3e7fa96e	0.24966976
31	0xbe985624	-0.2975322
32	0xbdec7193	-0.115451
33	0xbe826a1a	-0.25471574
34	0xbde119af	-0.10991227
35	0xbd83eedb	-0.064420424
36	0xbc851ee0	-0.016250074
37	0x3d9850a2	0.074372545
38	0xbd6cbcac	-0.05779712
39	0xbe4537eb	-0.19259612
40	0xbe23723b	-0.15961544
41	0x3cad0eac	0.02112516
42	0xbd30a954	-0.043130234
43	0x3da196bb	0.07890078
44	0xbda2df1c	-0.07952711
45	0xbe1d7a90	-0.15378785
46	0x3de8b240	0.113621235
47	0x3c95ef05	0.01830245
48	0x3e76e586	0.24110994
49	0x3e29fee1	0.16601135
50	0x3d9fbed3	0.07800069
51	0x3e56b899	0.20968856
52	0x3d5773c7	0.05260065
53	0x3e295f42	0.16540244
54	0xbc39e7d5	-0.011346777
55	0x3cc807e1	0.02441782
56	0xbda7e733	-0.081983946
57	0x3c423b99	0.0118550295
58	0xbd5c52aa	-0.053789772
59	0x3e0080bd	0.1254911
60	0x3d4f07e8	0.05054465
61	0x3c45ac2b	0.012064974
62	0x3de024f4	0.10944548
63	0xbe795f37	-0.24352728
64	0x3d8c9a9e	0.068654284
65	0x3e3d687f	0.18496893
66	0xbd5a87ea	-0.053352274
67	0x3c81e6a8	0.015857056
68	0xbe902d7d	-0.28159705
69	0x3d933bf1	0.07189167
70	0x3e0e0f98	0.13873136
71	0x3e1ac3f1	0.15113808
72	0xbd9d07be	-0.07667492
73	0x3e62d707	0.22152339
74	0xbd41c756	-0.047309242
75	0x3c8b5faf	0.017013399
76	0x3cb17778	0.021663412
77	0xbd285f23	-0.041106354
78	0x3dd86ed2	0.10568012
79	0x3dddf303	0.108373664
80	0xbd09eddf	-0.033674117
81	0x3cbaff52	0.022826824
82	0xbe1c2bdc	-0.15251106
83	0x3d0af856	0.033928238
84	0xbcd68abf	-0.026189206
85	0x3ceed57b	0.02915453
86	0xbdcc06fd	-0.099622704
87	0xbb059719	-0.002038425
88	0xbe993c2e	-0.29928726
89	0x3e4990ea	0.19684187
90	0x3dc36dbe	0.09542416
91	0x3daeb03e	0.08529709
92	0xbe4fb840	-0.2028513
93	0x3c1bff77	0.009521357
94	0xbd2aca2d	-0.041696716
95	0xbea19915	-0.31562105
96	0xbd7d81ef	-0.061891492
97	0xbe938ab5	-0.28816763
98	0xbd6e699d	-0.05820619
99	0xbce69eed	-0.028151954
100	0xbc117516	-0.008878013
101	0x3e084788	0.13308537
102	0x3db85636	0.090008184
103	0x3e8f6fe8	0.28015065
104	0x3de274f1	0.11057461
105	0x3e0abbe3	0.13548236
106	0x3dd93b68	0.10607034
107	0xbd5a3cac	-0.053280517
108	0x3e65295d	0.2237906
109	0xbe2128fd	-0.15738292
110	0x3dfb3dff	0.12267684
111	0xbd090654	-0.0334533
112	0x3d712e55	0.058882076
113	0xba864118	-0.0010242788
114	0xbddf023c	-0.10889098
115	0x3e40f341	0.18842794
116	0x3df7ee8d	0.12106047
117	0xbd21657d	-0.039403427
118	0x3d67ced0	0.056593716
119	0x3dcbfe9e	0.09960674
120	0xbe1a5aad	-0.15073653
121	0xbe274df7	-0.16338335
122	0x3d6d9f75	0.0580134
123	0xbd4043ea	-0.046939768
124	0xbc82e370	-0.015977591
125	0x3e23a36c	0.15980309
126	0x3c9ff128	0.019524172
127	0x3d7692ea	0.060198702
128	0x3dfdfa53	0.12401261
129	0xbdc29bfb	-0.09502407
130	0xbd93d0db	-0.072175704
131	0x3ec6c663	0.38823232
132	0xbe3ade0c	-0.18248767
133	0xbd1dcda6	-0.0385262
134	0xbe0933ab	-0.13398616
135	0x3e1fe902	0.15616229
136	0xbda2b7f6	-0.07945244
137	0xbc0e1ffe	-0.00867462
138	0x3bda3991	0.0066596945
139	0x3c84a1f0	0.016190499
140	0x3c293ae2	0.01032898
141	0x3dd37d91	0.10326684
142	0xbe15b81e	-0.14621016
143	0x3e1bc912	0.15213421
144	0x3e5146c6	0.20437154
145	0x3db3dc8e	0.08782302
146	0x3d6a7dd5	0.05724891
147	0x3e826495	0.25467363
148	0xbd305092	-0.043045588
149	0xbe15ca09	-0.14627852
150	0xbab46359	-0.0013762518
151	0xbc9f8e0a	-0.01947691
152	0x3e13d3f4	0.14436322
153	0xbda70ca2	-0.081567064
154	0x3dc1594b	0.094408594
155	0xbd17d651	-0.037069622
156	0x3e29fbbe	0.16599938
157	0x3e9ba936	0.30402535
158	0x3ea158de	0.31513113
159	0xbdb69d22	-0.089166895
160	0xbd57d1cb	-0.05269031
161	0xbd15a948	-0.036538392
162	0x3e96b3b1	0.2943397
163	0xbc16084e	-0.009157253
164	0xbe7d37cb	-0.24728315
165	0x3bcc6eeb	0.0062388084
166	0xbe482832	-0.19546583
167	0xbebb2baf	-0.36556765
168	0xbdd6d0ad	-0.104890205
169	0x3e5cf5f7	0.21578203
170	0xbc513664	-0.012769315
171	0x3d1501cf	0.036378678
172	0xbd2be021	-0.041961793
173	0xbd21676b	-0.039405268
174	0x3dad2a23	0.084553026
175	0x3e7a41d6	0.24439177
176	0x3dd122f6	0.102117464
177	0xba7a6775	-0.00095521595
178	0xbdbc9d88	-0.09209734
179	0xbe2e9921	-0.17050602
180	0x3d7b53c8	0.061359197
181	0x3dc70a38	0.09718746
182	0xbd20d01c	-0.03926097
183	0xbe793dc0	-0.24339962
184	0x3d83f6d6	0.064435646
185	0xbe064e21	-0.13115741
186	0x3ea08383	0.31350335
187	0xbdbd039e	-0.092292055
188	0xbd581cbc	-0.05276178
189	0xbdbc3e6a	-0.09191592
190	0xbe51f22d	-0.20502539
191	0xbaaef4e4	-0.001334813
192	0xbe020623	-0.12697653
193	0x3bf42f33	0.0074519156
194	0x3d19cd66	0.0375494
195	0x3dd515ba	0.10404535
196	0xbe399f0a	-0.18127075
197	0x3e1c2ee1	0.15252258
198	0x3d04e57a	0.03244541
199	0x3e9d715d	0.30750552
200	0xbc729258	-0.014805399
201	0xbcd8ad26	-0.026449751
202	0xbdaa830f	-0.08325779
203	0x3da04a0a	0.07826622
204	0x3ccb9ccf	0.024855046
205	0x3c68a47b	0.014199371
206	0x3d3677fe	0.044548027
207	0xbdbb2194	-0.09137264
208	0x3d807587	0.062724166
209	0x3d8d160b	0.0688897
210	0x3ea43e4a	0.32078773
211	0x3ddd2d8f	0.10799705
212	0xbe407047	-0.1879283
213	0x3d50f33e	0.051013224
214	0xbe4b51de	-0.19855449
215	0xbcde3b51	-0.027127894
216	0xbba25683	-0.0049541607
217	0x3ac0280b	0.0014660371
218	0x3c1e34c0	0.009656131
219	0xbd10b7ce	-0.03533154
220	0xbd59ca7a	-0.053171612
221	0xbe01eadf	-0.12687252
222	0xbd0531af	-0.032518085
223	0x3d0be22c	0.03415124
224	0xbd4343d3	-0.047672104
225	0x3de094af	0.10965859
226	0x3d5012db	0.050799232
227	0x3e011304	0.1260491
228	0xbb5497ce	-0.0032439115
229	0xbd74ed68	-0.05979672
230	0xbdc6344b	-0.09677943
231	0xbd4001fc	-0.046876892
232	0xbe1aefcd	-0.15130539
233	0x3d8aec87	0.06783395
234	0xbd65ebed	-0.0561332
235	0xbd5d23a3	-0.053989064
236	0x3d87aab3	0.06624355
237	0xbd77b4e6	-0.060475253
238	0x3dcbaec4	0.09945443
239	0xbda0210a	-0.07818802
240	0x3db4c973	0.08827486
241	0x3cfb7b5b	0.030698469
242	0x3e86af0d	0.26305428
243	0x3d866cba	0.06563707
244	0xbcb40727	-0.021976067
245	0x3c80c276	0.015717726
246	0x3ca54059	0.020172285
247	0x3d3bfd90	0.045896113
248	0x3cd8f2a5	0.02648289
249	0xbd8cb27c	-0.06869981
250	0x3e43b62b	0.1911246
251	0xbdd1d1cb	-0.10245093
252	0xbdeba650	-0.11506331
253	0xbdb738d8	-0.08946389
254	0xbd8b37b1	-0.06797732
255	0xbdd7302e	-0.105072364

rnn.weights_lin_z f4 [200, 220]
0	0x3d0ae1db	0.0339068
1	0x3d7be9d7	0.061502304
2	0xbd563fc8	-0.05230692
3	0x3da26d8a	0.07931049
4	0xbd4e1b62	-0.050319083
5	0xbb832558	-0.0040022545
6	0x3d140ca0	0.036144853
7	0x3da9ae73	0.08285227
8	0xbccd5c72	-0.025068495
9	0x3d53432b	0.05157773
10	0xbdd81bf2	-0.10552205
11	0xbcb876a2	-0.022517506
12	0xbd4425dd	-0.04788767
13	0x3c879aeb	0.016553363
14	0x3d7ec37e	0.062198155
15	0x3d894254	0.06702104
16	0x3cb3a157	0.021927519
17	0x3d7aa03d	0.06118797
18	0xbd13cbbf	-0.03608298
19	0x3d5365f6	0.05161091
20	0xbd1b08cf	-0.037850197
21	0xbd993194	-0.074801594
22	0xbd901ebc	-0.07037112
23	0x3c1c7428	0.009549178
24	0xbd89daaa	-0.0673116
25	0x3ba92fef	0.005163185
26	0x3d87b44e	0.06626187
27	0x3ba1cc69	0.0049376977
28	0x3ca8e5e5	0.020617435
29	0xbdc13aa2	-0.094350114
30	0x3da73ae3	0.081655286
31	0x3d1e3493	0.038624357
32	0xbc99180d	-0.018688226
33	0x3a3fd0d7	0.00073171913
34	0xbcb4611e	-0.022018965
35	0xbc1a4bc5	-0.009417479
36	0xbd6870fb	-0.05674837
37	0x3d710ab8	0.058848113
38	0xbcba527f	-0.022744415
39	0x3d01f7dd	0.03173052
40	0x3cd50791	0.026004585
41	0xbd936457	-0.07196873
42	0xbd95ad44	-0.073084384
43	0xbddfe64c	-0.109325975
44	0xbd925d27	-0.07146674
45	0x3dd33d2d	0.10314403
46	0xbd2d9c48	-0.04238537
47	0x3db9f0e4	0.09079149
48	0xbc96231c	-0.018327288
49	0xbbfae86b	-0.007657101
50	0xbd893317	-0.06699198
51	0x3be80fb2	0.007081949
52	0x3cc23614	0.023707427
53	0x3cd1da3f	0.025616763
54	0x3d37c749	0.044867788
55	0x3d4b8f49	0.049697194
56	0xbc5bc3fa	-0.013413424
57	0x3c8a7837	0.016903026
58	0x3cca4e7d	0.02469563
59	0x3dd241af	0.102664344
60	0x3d701b18	0.05861959
61	0x3d472b03	0.048625004
62	0xbd7c751d	-0.061635125
63	0x3b70cce3	0.0036743216
64	0xbd6283af	-0.055301365
65	0x3d9e5ed3	0.0773293
66	0xbda2e37e	-0.07953547
67	0xbbf71ce1	-0.0075412844
68	0xbca5a2b8	-0.020219192
69	0x3dd87e06	0.10570912
70	0xbd3d4835	-0.04621144
71	0x3dfbce38	0.122951925
72	0x3cceb8bb	0.02523457
73	0xbdb409db	-0.08790942
74	0xbd8e3349	-0.069433756
75	0xbc907e08	-0.017638221
76	0x3b251867	0.0025191547
77	0xbaeb44b9	-0.0017949558
78	0xbc3f1e0a	-0.011664877
79	0x3bf1ea97	0.0073827016
80	0x3c0cde4b	0.008597921
81	0x3d065a16	0.032800756
82	0xbdbf064e	-0.093273744
83	0xbd81625e	-0.0631759
84	0xbc959919	-0.01826148
85	0x3baafe50	0.0052183047
86	0x3d9d5458	0.07682103
87	0xbd4faba6	-0.050700806
88	0x3d10a40f	0.03531271
89	0x3c003c11	0.007826821
90	0x3d868aef	0.06569468
91	0xbcd0f241	-0.02550614
92	0xbca08327	-0.019593788
93	0x3d9c9e55	0.07647387
94	0x3dc4b0e7	0.09604054
95	0xbd7650ee	-0.060135774
96	0xbc416f5d	-0.011806336
97	0xbd892508	-0.06696516
98	0xbda52d99	-0.08065338
99	0x3d3853c4	0.04500176
100	0x3c9a573a	0.018840421
101	0x3cceca7a	0.025243033
102	0xbce199c7	-0.027539147
103	0x3ab5c32f	0.0013867373
104	0xbc2bb58b	-0.010480295
105	0xbc8bb938	-0.017056093
106	0x3dc770fe	0.097383484
107	0xbd5f3a78	-0.05449912
108	0xbdd6d6c8	-0.10490185
109	0x3d84a293	0.06476321
110	0xbd9c1282	-0.076207176
111	0xbc0c17cd	-0.008550596
112	0xbd1f23d8	-0.038852543
113	0xbcbdb8d8	-0.02315943
114	0x3dba4f95	0.0909721
115	0xbce8b925	-0.028408596
116	0xbd854ae7	-0.06508427
117	0xbd1a062f	-0.037603553
118	0x3d5a6c26	0.053325795
119	0x3cb79344	0.022409089
120	0xbdc4ef00	-0.09615898
121	0xbd415b3c	-0.04720615
122	0x3d43a6bb	0.04776643
123	0xbc88d6f4	-0.01670406
124	0xbb0aaf6e	-0.0021161693
125	0x3d4c8dc8	0.0499399
126	0xbcf8f921	-0.030392231
127	0xbd029a0c	-0.03188519
128	0x3d19bab9	0.03753159
129	0xbd3ced0b	-0.0461245
130	0x3d806a6a	0.06270297
131	0x3d374bef	0.04475015
132	0x3d0a652a	0.033787884
133	0x3d1acbf8	0.037792176
134	0x3cf59921	0.029980244
135	0xbc5d7f59	-0.013519132
136	0x3cf237f4	0.029567696
137	0x3d8be74c	0.06831226
138	0xbd3271a3	-0.043565404
139	0xbde20507	-0.11036115
140	0x3da3c913	0.07997336
141	0x3d8dfd39	0.06933064
142	0x3cdba7b6	0.02681337
143	0x3d01ff13	0.0317374
144	0x3d898f28	0.06716758
145	0x3d116ab3	0.035502147
146	0xbc10c57e	-0.008836148
147	0x3d1b21dd	0.03787409
148	0xbd2731d3	-0.040819
149	0x3c821982	0.015881304
150	0xbd55507d	-0.052078713
151	0x3d3379f9	0.043817494
152	0xbdaae223	-0.083439134
153	0x3da0a9a2	0.07844855
154	0x3db5680c	0.08857736
155	0x3c7a0b66	0.015261507
156	0xbc203a1f	-0.009779482
157	0xbd897f7e	-0.0671377
158	0xbd8e649c	-0.069527835
159	0x3d9db887	0.077012114
160	0xbd925388	-0.071448386
161	0xbd694a84	-0.05695583
162	0xbbe4a5c2	-0.0069777677
163	0xbd6b312c	-0.05741994
164	0xbd8008ce	-0.06251679
165	0x3d757102	0.059922226
166	0x3c958af6	0.018254738
167	0x3cf8b759	0.030360864
168	0x3cd14140	0.025543809
169	0xbca7f862	-0.02050418
170	0xbcbbe8c1	-0.022938134
171	0xbd9a7fc8	-0.075439036
172	0xbdf28142	-0.1184106
173	0x3cf7969d	0.030223185
174	0x3ced0f0d	0.02893784
175	0x3d5f72cf	0.05455285
176	0x3ca2dc48	0.019880429
177	0x3d42f8f7	0.047600713
178	0x3b9cc9e0	0.0047848076
179	0x3d469ab3	0.048487376
180	0x3d3fabe6	0.046794794
181	0x3ce7c9f6	0.028294545
182	0x3bc5f251	0.0060408493
183	0x3d1a7e35	0.037718017
184	0x3c9e19ca	0.019299407
185	0xbd7d3130	-0.061814487
186	0x3c62658a	0.013818154
187	0xbd1c0ca2	-0.038097985
188	0x3c663485	0.014050608
189	0x3d735d7c	0.059415326
190	0xbc3f6b17	-0.011683247
191	0xbd2ebae5	-0.042658705
192	0x3add5dd9	0.0016888931
193	0x3b7e910d	0.0038843781
194	0xbd19a685	-0.03751232
195	0xbdc3bfc3	-0.0955806
196	0x3d0a5415	0.033771593
197	0x3c84614f	0.016159682
198	0xbdcd345a	-0.10019751
199	0x3dc0311e	0.09384368
200	0xbdbe07f5	-0.092788614
201	0x3c576068	0.013145544
202	0xbd0bd45a	-0.03413806
203	0x3cbe68d4	0.023243345
204	0xbbb9e3af	-0.005672894
205	0xbc1e7240	-0.009670794
206	0x3d22fa0e	0.039789252
207	0xbc195185	-0.009357815
208	0x3caaa779	0.02083181
209	0xbd9b2a52	-0.07576431
210	0xbdc24be7	-0.094871335
211	0x3b11c77e	0.002224415
212	0x3cfe7d5e	0.03106564
213	0xbaa92743	-0.0012905378
214	0xbd3307e0	-0.043708682
215	0x3d18151f	0.037129518
216	0xbd1b3e95	-0.03790148
217	0xbd3156d1	-0.043295685
218	0xbba3f735	-0.0050038346
219	0xbce11fcf	-0.027480988
220	0xbc0b3855	-0.008497317
221	0xbd29364e	-0.041311555
222	0x3c533069	0.01288996
223	0x3d164828	0.036689907
224	0xbca9d1fb	-0.02073001
225	0x3da7ae5b	0.081875525
226	0xbc3938c8	-0.011305042
227	0x3d88723e	0.06662415
228	0x3dd7c6d7	0.105359726
229	0x3ce8887d	0.028385395
230	0xbc408256	-0.0117498245
231	0xbd7e75c6	-0.062124036
232	0xb9a5f58a	-0.00031654193
233	0x3c264701	0.010148765
234	0xbddc622c	-0.10760912
235	0x3d0a1f87	0.033721473
236	0x3db9b536	0.09067766
237	0x3cccd942	0.02500594
238	0xbc75af55	-0.014995416
239	0xbdc40fa4	-0.09573296
240	0x3d7973d1	0.060901467
241	0xbd7ea290	-0.06216675
242	0x3d901cb5	0.070367254
243	0xbcce7426	-0.025201868
244	0xbc86fb46	-0.016477238
245	0x3e1181a4	0.1420961
246	0xbb4c4b07	-0.003117265
247	0x3dd08dd2	0.101833
248	0xbd9d03f2	-0.07666768
249	0x3c8e9d38	0.017408952
250	0x3b830630	0.0039985403
251	0x3ce2879e	0.027652558
252	0xbd5617ce	-0.052268796
253	0x3d17cc80	0.03706026
254	0x3ce83a95	0.028348247
255	0x3d852d6f	0.065028064

rnn.bias f4 [600]
0	0x3e7f83c3	0.24952607
1	0x3e7adb1b	0.24497645
2	0x3ead3a78	0.3383367
3	0x3e15d39f	0.14631508
4	0x3e3c90c0	0.18414593
5	0x3e562c9e	0.20915458
6	0x3e6d54a4	0.23176819
7	0x3e1b7648	0.1518184
8	0x3e97bb83	0.29635248
9	0x3eb236bb	0.3480738
10	0x3e8e5e0b	0.27806124
11	0x3e99e233	0.3005539
12	0x3e9a2cba	0.3011225
13	0x3e52d97b	0.20590775
14	0x3e43a031	0.19104077
15	0x3e4215e6	0.18953666
16	0x3e9cc3d9	0.3061817
17	0x3e5a67c2	0.21328643
18	0x3e5adcb8	0.2137326
19	0x3e527c09	0.20555128
20	0x3e33ad28	0.17546523
21	0x3e6cc60a	0.23122421
22	0x3e8c721f	0.27430817
23	0x3ea9aee5	0.33141246
24	0x3ea0c534	0.31400454
25	0x3e3e3254	0.18573886
26	0x3e512afc	0.20426553
27	0x3ebdbfe1	0.37060454
28	0x3e3dceb2	0.18535879
29	0x3ea90627	0.33012506
30	0x3ddf4bf6	0.1090316
31	0x3e8fa566	0.28055876
32	0x3e6f82b6	0.23389706
33	0x3e6f2677	0.23354517
34	0x3e976c29	0.29574707
35	0x3e9177b5	0.28411642
36	0x3ebe988a	0.37225753
37	0x3e501afc	0.20322794
38	0x3e432302	0.19056323
39	0x3e672127	0.2257124
40	0x3dbcdb58	0.09221524
41	0x3ea094c8	0.3136351
42	0x3e607cfc	0.21922678
43	0x3e84dea6	0.25951117
44	0x3ebd2ea4	0.36949646
45	0x3e10f1f4	0.14154798
46	0x3e8d15c9	0.27555683
47	0x3e91f824	0.2850963
48	0x3eb38474	0.3506199
49	0x3e1e32f0	0.15449119
50	0x3ea13b8c	0.31490743
51	0x3e91a03e	0.28442568
52	0x3e07c946	0.13260373
53	0x3eba070f	0.3633351
54	0x3e6d49b6	0.2317265
55	0x3e4c3cf1	0.19945122
56	0x3e03012d	0.12793417
57	0x3ec39f9c	0.3820771
58	0x3e417c7c	0.18895143
59	0x3e87bbee	0.26510566
60	0x3ebf9771	0.37420228
61	0x3e9d82ff	0.30764005
62	0x3e63e465	0.22255094
63	0x3e8521f8	0.2600248
64	0x3e40da7f	0.1883335
65	0x3ea8fa5b	0.33003506
66	0x3f1581f1	0.584014
67	0x3e37e5ca	0.17958751
68	0x3e8ee560	0.27909374
69	0x3e9620ab	0.293218
70	0x3e2e4e18	0.17021978
71	0x3ee3a8f3	0.44464836
72	0x3e80a181	0.25123218
73	0x3e6d8e26	0.23198757
74	0x3df589e0	0.11989188
75	0x3e829a43	0.25508317
76	0x3ee757fc	0.45184314
77	0x3e4ca4be	0.19984719
78	0x3e2b55bd	0.16731925
79	0x3e60aa43	0.2193995
80	0x3e79dd75	0.24400885
81	0x3e84e30b	0.2595447
82	0x3e28cf6d	0.16485377
83	0x3eb48f03	0.3526536
84	0x3e823dfd	0.25437918
85	0x3e719be3	0.23594622
86	0x3e77b1f8	0.24188983
87	0x3e780289	0.24219717
88	0x3ece724c	0.40321577
89	0x3e5bfc46	0.21482953
90	0x3e9e2e95	0.30894914
91	0x3ea92cef	0.33042094
92	0x3ee1237e	0.4397239
93	0x3ea851fe	0.32875055
94	0x3e36bf22	0.17846349
95	0x3e8d0b79	0.27547815
96	0x3e711e90	0.23546815
97	0x3e89c9c7	0.26911756
98	0x3eb615ce	0.3556351
99	0x3dc9b9f6	0.09849922
100	0x3ec45f32	0.38353878
101	0x3e3c5906	0.18393335
102	0x3e802b43	0.25033006
103	0x3e213516	0.15742907
104	0x3e4b2a60	0.19840384
105	0x3e9999fa	0.30000287
106	0x3e2a332f	0.16621087
107	0x3e9ac2a4	0.30226624
108	0x3e935928	0.28778958
109	0x3e339471	0.17537095
110	0x3e507f9b	0.20361178
111	0x3ecdb3e1	0.401763
112	0x3e8d0477	0.2754247
113	0x3e6a5fe4	0.22888142
114	0x3eb89a57	0.36055252
115	0x3ebcfbba	0.36910802
116	0x3e72b8ab	0.23703258
117	0x3eccbd66	0.3998825
118	0x3e8d91d1	0.27650312
119	0x3e9a6db8	0.30161834
120	0x3e7f1533	0.2491043
121	0x3e4dab72	0.20084932
122	0x3e2e01e9	0.16992916
123	0x3e8bdd82	0.27317435
124	0x3de19efa	0.110166505
125	0x3e6f666d	0.23378916
126	0x3e436b33	0.19083862
127	0x3e54643f	0.20741366
128	0x3e3a7ec8	0.18212426
129	0x3e63d828	0.22250426
130	0x3e793e85	0.24340256
131	0x3eb8252f	0.3596587
132	0x3ea2e60e	0.31816143
133	0x3e90f945	0.28315178
134	0x3e54fc83	0.2079945
135	0x3e750b06	0.23929986
136	0x3e0f91f3	0.14020519
137	0x3ea8fdb4	0.3300606
138	0x3e35fbaf	0.17771791
139	0x3ea73047	0.3265402
140	0x3e6fb074	0.23407155
141	0x3e8c6314	0.2741934
142	0x3e6faba2	0.23405316
143	0x3e2c0200	0.16797638
144	0x3e827fd5	0.25488153
145	0x3e5cee96	0.21575388
146	0x3e664221	0.22486164
147	0x3e955fb0	0.29174566
148	0x3e29a749	0.1656772
149	0x3e43b6fb	0.1911277
150	0x3e78347d	0.24238773
151	0x3e32808e	0.17431852
152	0x3e796b7a	0.24357405
153	0x3e3fa45b	0.1871504
154	0x3e453c8b	0.19261377
155	0x3eba3a92	0.3637281
156	0x3ed12a29	0.40852478
157	0x3e974f3d	0.29552642
158	0x3e725415	0.23664887
159	0x3e8d664f	0.27617118
160	0x3e5d63a0	0.21620035
161	0x3e322b4f	0.17399333
162	0x3e89514a	0.2681983
163	0x3e11113a	0.14166728
164	0x3e4a9a48	0.19785416
165	0x3ee98f11	0.45616964
166	0x3e617576	0.22017464
167	0x3e8b5668	0.2721436
168	0x3e6299bc	0.22128958
169	0x3e38edd9	0.18059482
170	0x3e7daec6	0.24773702
171	0x3e202bd8	0.15641725
172	0x3ec63913	0.3871542
173	0x3e8cb45a	0.27481347
174	0x3e7099cc	0.23496169
175	0x3e89d20f	0.26918074
176	0x3e86f87b	0.2636145
177	0x3ef05388	0.4693873
178	0x3e0fe8f0	0.14053702
179	0x3e75e75e	0.24014041
180	0x3e964595	0.29349962
181	0x3e937405	0.28799453
182	0x3e0738c5	0.1320525
183	0x3e807543	0.25089464
184	0x3efa5cf2	0.48899037
185	0x3e819914	0.25312102
186	0x3e2a0820	0.16604662
187	0x3e51b042	0.20477393
188	0x3e997955	0.29975381
189	0x3e8bcd2c	0.2730497
190	0x3e8d0cec	0.2754892
191	0x3ea994f5	0.33121458
192	0x3ec1245e	0.37723058
193	0x3e804825	0.25055042
194	0x3e150ef4	0.14556485
195	0x3e388bee	0.18022129
196	0x3e8a0422	0.26956278
197	0x3e8b3b28	0.2719357
198	0x3e3b47f6	0.1828917
199	0x3e8a94ed	0.27066746
200	0x3cf76b43	0.030202514
201	0xbde78605	-0.11304859
202	0xbe3441ac	-0.17603177
203	0xbdac06e1	-0.083997495
204	0x3cff3278	0.031151995
205	0xbda83f66	-0.08215217
206	0xbd1908dd	-0.03736197
207	0xbcf7df01	-0.030257704
208	0x3cff1bf3	0.031141257
209	0xbdab7e32	-0.08373679
210	0xbe1575ee	-0.14595768
211	0x3d19def8	0.037566155
212	0xbb642ba0	-0.0034816042
213	0x3bb37f60	0.005477831
214	0x3e0ed048	0.1394664
215	0x3d330249	0.04370335
216	0xbe3e6d2e	-0.18596336
217	0xbe038de1	-0.12847091
218	0xbe645efa	-0.22301856
219	0xbe0111f8	-0.12604511
220	0xbd8794dc	-0.066201895
221	0x3db9df70	0.090758204
222	0xbd7eec6f	-0.0622372
223	0xbe2a5feb	-0.16638152
224	0xbdd087f9	-0.10182185
225	0x3d69a2be	0.05703997
226	0xbbd920e5	-0.006626236
227	0xbdfdb6ce	-0.12388383
228	0x3e041b65	0.12901075
229	0xbe632980	-0.221838
230	0x3deef602	0.11668016
231	0xbd0a4f31	-0.03376693
232	0xbdcd1610	-0.10013974
233	0x3be8213f	0.0070840414
234	0xbe107633	-0.1410759
235	0x3e4a14ac	0.19734448
236	0xbe2d3e03	-0.16918187
237	0x3deea40b	0.116523825
238	0xbd25b7cd	-0.04045849
239	0x3e2fa8a3	0.17154174
240	0xbd132ac1	-0.035929445
241	0xbca154a4	-0.01969368
242	0x3d5f2de1	0.054487113
243	0xbe14f2a3	-0.14545684
244	0x3d1af440	0.03783059
245	0x3bd06616	0.006359826
246	0xbdadeb40	-0.08492136
247	0x3ded7878	0.11595243
248	0xbe41753b	-0.18892376
249	0xbd123b2a	-0.035700954
250	0xbd55006b	-0.05200235
251	0x3ddb7ae5	0.107168
252	0x3dc58f89	0.09646518
253	0xbdcc94d1	-0.09989322
254	0xbccf40f2	-0.025299523
255	0x3c057b7b	0.008147116

rnn.bias_lin_z f4 [200]
0	0x3d889597	0.06669157
1	0xbe384b39	-0.17997445
2	0xbe26f8fd	-0.16305919
3	0x3dfde00a	0.12396248
4	0x3d462bf8	0.048381776
5	0xbc114d04	-0.00886846
6	0xbdd03565	-0.10166434
7	0xbd9b392d	-0.07579265
8	0x3e244789	0.16042913
9	0xbdd6562a	-0.10465653
10	0xbdec2f30	-0.11532438
11	0xbda99b40	-0.08281565
12	0xbdba3553	-0.09092202
13	0xbd2a504d	-0.041580487
14	0x3a9c1d19	0.0011910527
15	0xbd53c6f3	-0.051703405
16	0xbdd108d2	-0.102067605
17	0xbc298493	-0.01034655
18	0x3dfe7ae4	0.12425783
19	0x3de52954	0.11189523
20	0xbc310606	-0.010804659
21	0x3dfe2cd9	0.12410898
22	0x3dce048b	0.1005946
23	0xbdf52a12	-0.11970915
24	0x3db40796	0.087905094
25	0x3dc344d3	0.095346116
26	0xbdc24e46	-0.09487586
27	0x3e4ad80e	0.19808981
28	0xbb4b506e	-0.0031023282
29	0xbce03a01	-0.027371408
30	0x3d9246c9	0.071424074
31	0xbd46f001	-0.04856873
32	0x3c76590f	0.015035882
33	0xbe222e4b	-0.15837972
34	0x3c4cd50f	0.012501969
35	0xbdfa7b70	-0.12230575
36	0xbdd80d9e	-0.10549472
37	0x3de6d257	0.11270588
38	0xbdf5f6b6	-0.12009947
39	0x3dce717f	0.100802414
40	0xbcc46fc9	-0.023979085
41	0x3d9dfda6	0.07714395
42	0xbdc751f0	-0.09732425
43	0x3da3358e	0.07969199
44	0xbe439b4e	-0.19102213
45	0xbe480317	-0.19532429
46	0x3d2377ac	0.03990905
47	0xbd6d4d82	-0.057935245
48	0x3d5a0758	0.05322966
49	0x3df493bc	0.119422406
50	0x3da3f847	0.080063395
51	0x3e25b034	0.16180497
52	0x3e2fdb2a	0.17173448
53	0x3e1087db	0.14114325
54	0x3de2e257	0.11078327
55	0x3dbd5632	0.09244956
56	0x3d3d720d	0.046251345
57	0x3c1d2b35	0.009592821
58	0xbe0317ef	-0.12802099
59	0x3e18d70c	0.14925784
60	0x3e08540c	0.13313311
61	0xbd9f29fa	-0.07771678
62	0x3c452194	0.012031931
63	0xbd62bf09	-0.055357967
64	0xbba265a6	-0.004955965
65	0x3e10fc87	0.14158832
66	0xbe03f3de	-0.12885997
67	0xbd8ecd0b	-0.069727026
68	0xbdf0cc4e	-0.11757718
69	0x3db29974	0.08720675
70	0x3db6cf9c	0.08926317
71	0x3de9395a	0.11387892
72	0xbe3b1c10	-0.18272424
73	0x3d27bb57	0.040950146
74	0x3d829586	0.063761756
75	0x3e107e52	0.14110687
76	0x3e1c5d01	0.15269853
77	0x3d5f46f6	0.054511033
78	0x3c984d9c	0.018591695
79	0x3dd941e6	0.10608272
80	0xbd05f9fd	-0.03270911
81	0xbde8981f	-0.1135714
82	0xbdfba5bd	-0.122874714
83	0x3e1f35f8	0.15547931
84	0xbd8144e5	-0.06311969
85	0x3c34373a	0.010999495
86	0x3d5c9ea0	0.053862214
87	0xbd0033fa	-0.03129957
88	0x3d196041	0.03744531
89	0x3d450e04	0.04810907
90	0x3e0ec297	0.13941418
91	0x3a4811d8	0.00076320535
92	0xbadb9877	-0.0016753812
93	0x3d96613e	0.07342766
94	0x3c39648e	0.011315478
95	0xbd61ce4a	-0.055128373
96	0xbcee9f1f	-0.02912861
97	0xbdb18d3f	-0.08669519
98	0x3d1faa83	0.038980972
99	0xbe09e49a	-0.13466111
100	0x3c1b8921	0.009493143
101	0x3d0edf28	0.034880787
102	0x3cf30f98	0.029670522
103	0x3dcc825d	0.09985802
104	0xbd66f62b	-0.056387108
105	0x3e00e767	0.12588273
106	0x3d8556f7	0.06510728
107	0xbc12c616	-0.00895836
108	0x3db30f1d	0.08743117
109	0xbe13d905	-0.14438255
110	0x3d617bb1	0.055049602
111	0xbd66b617	-0.056326
112	0x3c6484ac	0.013947647
113	0xbd8546fa	-0.06507678
114	0x3da04bf3	0.07826986
115	0x3e3dbd15	0.1852916
116	0x3e04cd53	0.1296895
117	0xbd25752b	-0.040394943
118	0x3dff6772	0.124709025
119	0x3d8cb79d	0.06870959
120	0xbdc2eb8b	-0.095175825
121	0xbd782301	-0.060580257
122	0x3d642617	0.055700388
123	0xbcae15fb	-0.021250715
124	0x3cc8a4d5	0.02449266
125	0x3cf8a3cf	0.030351548
126	0xbd8871b8	-0.06662315
127	0x3e03cb39	0.12870492
128	0x3e143686	0.14473924
129	0xbe08b663	-0.13350825
130	0xbcfbd3e8	-0.030740693
131	0x3d8a7102	0.06759836
132	0x3d88b842	0.066757694
133	0x3cd31404	0.02576638
134	0x3e293fc8	0.16528237
135	0x3dd01e35	0.101620115
136	0xbe169373	-0.14704685
137	0xbd1cb753	-0.03826077
138	0xbe21428d	-0.15748043
139	0xbd49f22b	-0.049303215
140	0x3dda05ba	0.106456235
141	0x3dbd0e6d	0.09231267
142	0x3dd4db4f	0.10393392
143	0x3df2e1dc	0.118594855
144	0x3d83a543	0.064280055
145	0xbcced236	-0.02524672
146	0x3d1f4a70	0.03888935
147	0x3da3e292	0.08002199
148	0x3e27d1fd	0.16388698
149	0xbd199966	-0.037499808
150	0xbc8839df	-0.016629158
151	0xbddf9d42	-0.109186664
152	0xbc8a4bf2	-0.016881917
153	0xbe09ce6a	-0.13457647
154	0xbd883731	-0.06651152
155	0xbdb79ef8	-0.08965868
156	0x3dad15b2	0.08451404
157	0x3de783c7	0.113044314
158	0x3db73a51	0.0894667
159	0xbe243415	-0.16035493
160	0xbd8cd470	-0.06876457
161	0xbe004a7e	-0.12528417
162	0xbdf290d2	-0.118440285
163	0xbd025cd6	-0.031826816
164	0xbe14657c	-0.14491838
165	0xbd8155c6	-0.06315188
166	0xbd9b1952	-0.07573189
167	0xbd4be9a7	-0.049783375
168	0xbe01fe62	-0.12694696
169	0x3d6a272c	0.057166263
170	0x3df2fcd9	0.11864633
171	0x3e01ca6e	0.12674877
172	0xbe02f3b3	-0.12788276
173	0x3cff4172	0.031159136
174	0xbdc28df9	-0.094997354
175	0x3defe783	0.11714079
176	0x3e382df7	0.17986284
177	0x3db38853	0.08766236
178	0xbcb754fa	-0.022379387
179	0xbd2876ac	-0.0411288
180	0xbd91e678	-0.071240366
181	0xbda4434e	-0.0802065
182	0xbdf3ac17	-0.11898058
183	0xbd368708	-0.04456237
184	0x3dfc7077	0.123261385
185	0xbe046d11	-0.1293223
186	0x3e2471ed	0.16059084
187	0xbdc088e2	-0.09401108
188	0xbe2b3f29	-0.16723312
189	0xbe0dd306	-0.1385003
190	0xbd8bfdeb	-0.068355404
191	0x3db25126	0.08706884
192	0xbe3b1e1d	-0.18273206
193	0x3dabc253	0.08386674
194	0x3d389ff9	0.045074437
195	0xbd879ade	-0.066213354
196	0xbd4ed2fa	-0.05049417
197	0x3e0de399	0.13856353
198	0xbc584ac1	-0.0132014165
199	0x3e0a5d82	0.13512233

classifier.weight f4 [20, 200]
0	0xbe513633	-0.20430832
1	0x3e95c0fa	0.29248792
2	0xbe3ba862	-0.18325952
3	0xbe809abd	-0.25118056
4	0x3e13e2ea	0.1444203
5	0x3d7ba880	0.06143999
6	0xbd2711d8	-0.0407885
7	0xbe0167cc	-0.12637252
8	0xbd2d109a	-0.04225216
9	0x3dbd53f4	0.092445284
10	0xbdb6f430	-0.08933294
11	0xbdf8e15d	-0.1215236
12	0x3db44d8f	0.08803856
13	0xbcad53e0	-0.021158159
14	0x3e90a657	0.28251907
15	0x3d5e3ce4	0.05425729
16	0xbdc969fa	-0.098346666
17	0xbd58743f	-0.052845236
18	0x3e9e14fa	0.3087538
19	0x3d498f26	0.049208783
20	0x3bc422a1	0.0059855734
21	0x3d8017f1	0.062545665
22	0x3e3f22fd	0.1866569
23	0x3de5236d	0.111883976
24	0x3d39d96b	0.04537336
25	0x3e13de2f	0.14440225
26	0xbe0b447c	-0.13600343
27	0xbe9c9c34	-0.30587924
28	0x3e295f43	0.16540246
29	0xbe02bc49	-0.12767138
30	0xbd1fac36	-0.038982593
31	0xbd2e6cc1	-0.042584185
32	0xbe22b27d	-0.158884
33	0x3e082ddb	0.13298742
34	0xbe5ba930	-0.21451259
35	0xbe9a8e00	-0.30186462
36	0xbe7947c8	-0.24343789
37	0x3e1c1e0e	0.1524584
38	0xbc8f1a11	-0.017468484
39	0xbc280b79	-0.010256642
40	0xbe48fd5a	-0.19627896
41	0x3db35744	0.08756879
42	0xbd6dbdc6	-0.05804231
43	0xbdb1a6eb	-0.08674415
44	0x3dafd002	0.08584596
45	0xbd90f998	-0.07078856
46	0xbdecde46	-0.11565833
47	0xbc61c61b	-0.013780142
48	0xbd9cc6d8	-0.07655114
49	0x3e46bafc	0.19407266
50	0x3db0b59e	0.08628391
51	0x3d0b8463	0.0340618
52	0x3df69bc9	0.120414324
53	0xbd08a8b5	-0.033364017
54	0x3cac1014	0.02100376
55	0xbcc1b8d8	-0.02364771
56	0x3dcd86cf	0.10035478
57	0x3dc3b840	0.09556627
58	0x3e2ae2d2	0.16688088
59	0xbe0f2b50	-0.13981366
60	0x3e1f237d	0.15540881
61	0x3e0e3d86	0.13890657
62	0xbe536b5e	-0.20646426
63	0xbbc3edfa	-0.0059792968
64	0xbcbf3d0e	-0.023344543
65	0xbe606104	-0.21912009
66	0xbc37f221	-0.011227162
67	0x3e53b604	0.20674902
68	0xbe1feab3	-0.15616874
69	0xbe023b9a	-0.12718049
70	0x3ca86921	0.020557942
71	0xbbf9d3a1	-0.007624105
72	0xbd980e0a	-0.07424553
73	0xbe057875	-0.13034232
74	0xbd0d2fd3	-0.034469437
75	0xbdcaf334	-0.099096686
76	0x3c69c915	0.014269133
77	0xbe0c3fea	-0.13696256
78	0x3d98cd97	0.07461088
79	0x3c7c451d	0.015397337
80	0xbdc7167c	-0.097210854
81	0x3d9a84a1	0.07544828
82	0xbc489ddb	-0.012244667
83	0xbe831daa	-0.2560857
84	0x3e2c524a	0.16828266
85	0xbe39cab0	-0.18143725
86	0x3dade927	0.08491736
87	0x3db3d6b4	0.08781186
88	0x3de9a48a	0.114083365
89	0xbe2a4685	-0.16628464
90	0x3d073693	0.03301103
91	0x3ddb9ad6	0.10722892
92	0xbd103e2d	-0.035215545
93	0xbe18a4b9	-0.14906587
94	0xbc3f7432	-0.011685418
95	0xbd9a666a	-0.07539065
96	0xbcdff744	-0.027339585
97	0xbe169211	-0.14704157
98	0x3dd32e36	0.103115484
99	0x3bb14c6d	0.005410722
100	0x3c7888e6	0.015169358
101	0x3eb63d55	0.35593668
102	0xbd05b9c6	-0.03264787
103	0xbdfb378f	-0.12266456
104	0x3de90127	0.11377173
105	0x3d977f40	0.07397318
106	0x3d0dd21b	0.0346242
107	0xbd261de8	-0.040555865
108	0xbd91234a	-0.07086809
109	0xbcc4063e	-0.023928758
110	0xbe57c14e	-0.21069834
111	0xbdfab5d0	-0.12241709
112	0x3d9d9ff9	0.07696528
113	0x3e573ab0	0.21018481
114	0xbe7b843a	-0.24562159
115	0x3e1083d3	0.14112787
116	0xbd184139	-0.037171576
117	0x3db4a4dc	0.08820507
118	0xbca5c41a	-0.02023511
119	0x3e393869	0.18087925
120	0xbe8bc96e	-0.27302116
121	0x3e12430a	0.14283386
122	0xbd4a54ca	-0.049397267
123	0xbd88af18	-0.066740215
124	0xbe07277a	-0.13198653
125	0xbdf1bf30	-0.11804044
126	0x3da0c1f0	0.07849491
127	0x3d650818	0.055915922
128	0x3dabb4c6	0.08384089
129	0x3e8ddf8c	0.27709615
130	0x3e3b2f49	0.18279757
131	0xbe7a7a7d	-0.24460788
132	0xbd40d67b	-0.047079545
133	0x3e7d0e4c	0.24712485
134	0x3dff3dfd	0.12462995
135	0x3d45a7fe	0.048255913
136	0x3de156f4	0.11002913
137	0x3c768fb1	0.015048907
138	0xbda921dd	-0.08258412
139	0xbe12c34a	-0.1433231
140	0xbd31365a	-0.043264724
141	0x3d338863	0.04383124
142	0x3e04ca2b	0.12967746
143	0x3d3b66c1	0.04575229
144	0xbdfa13f4	-0.12210837
145	0xbe6d84da	-0.2319521
146	0x3e18803d	0.14892669
147	0x3e16d90f	0.14731239
148	0x3c79cb4f	0.015246226
149	0x3b001e97	0.0019549483
150	0xbe2a28a8	-0.16617072
151	0xbd9c9b74	-0.07646838
152	0xbdb49b3d	-0.08818672
153	0x3e2e8ce7	0.17045937
154	0xbc7ce28c	-0.015434872
155	0x3e07c718	0.13259542
156	0x3d2f38a6	0.042778634
157	0x3e809a99	0.2511795
158	0x3d9bb9ee	0.07603823
159	0x3db9d1d8	0.09073228
160	0x3d1fb495	0.038990576
161	0xbd9d9763	-0.0769489
162	0xbbc4b4b9	-0.006002989
163	0xbe5a35ba	-0.21309558
164	0x3cc0d6f9	0.023540007
165	0x3d2f6b59	0.042826984
166	0x3dbb343a	0.09140821
167	0x3dc4f741	0.096174724
168	0xba42dfee	-0.0007433881
169	0xbd889a07	-0.066700034
170	0x3da31c49	0.07964379
171	0xbe5de0e0	-0.21667814
172	0x3e18e1a8	0.14929831
173	0x3c7e5869	0.015524008
174	0xbdb485d3	-0.088145874
175	0xbe16d120	-0.14728212
176	0x3d901ae2	0.070363775
177	0x3dd59c0a	0.10430153
178	0x3e2de08d	0.1698019
179	0x3e24efcf	0.16107105
180	0x3d25bcfb	0.04046343
181	0x3e1cd884	0.15316969
182	0xbe0dfc75	-0.13865836
183	0xbdf6bd75	-0.12047855
184	0xbc68c5a3	-0.0142072765
185	0x3e8175c0	0.2528515
186	0xbd5998cd	-0.053124238
187	0x3e20ae59	0.15691508
188	0x3e705050	0.23468137
189	0x3e1b79e3	0.15183215
190	0xbe5a4c91	-0.2131827
191	0x3e2b87c7	0.16751014
192	0x3bdb0ae9	0.00668465
193	0x3d4732a1	0.048632268
194	0x3d8e8f3b	0.06960913
195	0x3e805a4f	0.250689
196	0xbe72abee	-0.23698398
197	0xbc8ffbea	-0.017576177
198	0xbc3fef7c	-0.011714812
199	0x3d02f287	0.031969573
200	0xba715aff	-0.000920698
201	0xbd17c05d	-0.037048686
202	0x3e223aa7	0.15842687
203	0x3d067a75	0.032831628
204	0xbd83cc4e	-0.064354524
205	0xbea7f3e6	-0.32803267
206	0xbe9a9c59	-0.3019741
207	0xbcbfa662	-0.023394767
208	0xbe16235b	-0.14661925
209	0x3d68f6fa	0.05687616
210	0xbe9d84a6	-0.30765265
211	0x3e35be57	0.1774839
212	0x3dbf617d	0.09344766
213	0x3d93321d	0.07187293
214	0xbcf61d96	-0.030043405
215	0x3e179242	0.14801887
216	0xbd30977c	-0.043113217
217	0x3dde7e4f	0.10863935
218	0x3c9c00b8	0.019043311
219	0xbd9d74ab	-0.07688268
220	0x3e43752d	0.19087668
221	0xbe4a9307	-0.19782649
222	0xbd86c15d	-0.0657985
223	0x3d8a8ffe	0.067657456
224	0xbd7ee513	-0.06223018
225	0x3e3ece01	0.18633272
226	0x3d782cf0	0.06058973
227	0xbd38b3c8	-0.045093328
228	0x3e2edfd0	0.17077565
229	0x3dbe61f1	0.092960246
230	0x3d0ecf68	0.034865767
231	0x3c8cf90f	0.017208604
232	0x3db85708	0.09000975
233	0xbe04a20c	-0.12952441
234	0x3de451a8	0.11148387
235	0xbaba690e	-0.0014221983
236	0x3d962eea	0.07333167
237	0x3c98d64b	0.01865687
238	0xbe315015	-0.17315705
239	0xbd5b6f84	-0.053573146
240	0xbe224527	-0.15846692
241	0x3cbe993f	0.023266433
242	0x3ceee9c4	0.029164203
243	0x3d9b9d62	0.07598378
244	0xbe29cf6e	-0.16583034
245	0xbb4e0d53	-0.0031441047
246	0xbd67cd7e	-0.056592457
247	0x3e76db1a	0.24107018
248	0x3e5ae4ef	0.21376394
249	0xbd7458c6	-0.059654973
250	0x3dc9dc2b	0.09856447
251	0x3cf140af	0.029449789
252	0xbce9a1e6	-0.028519582
253	0xbe6f14a3	-0.23347716
254	0x3e70f072	0.23529223
255	0x3db1c6bd	0.086804844

classifier.bias f4 [20]
0	0x3d457726	0.048209332
1	0x3ce62296	0.028092664
2	0xbcb8db25	-0.022565434
3	0xbd807df4	-0.06274024
4	0xbb3a8d81	-0.002846569
5	0xbd50cbe2	-0.050975688
6	0xbb4832e3	-0.003054791
7	0xbcfe506b	-0.031044206
8	0x3d2e0ada	0.042490818
9	0x3d71a0e6	0.058991335
10	0xbd7babaa	-0.06144301
11	0x3c8384d9	0.016054558
12	0x3d19a3a7	0.037509587
13	0x3d33ccef	0.04389661
14	0x3b4eb181	0.0031538906
15	0xbd5ae91a	-0.05344496
16	0xbc333124	-0.010937009
17	0xbd7b713d	-0.06138729
18	0x3c823f78	0.015899405
19	0xbd2faac3	-0.04288746
