Final Project/LEM-main/models/lorenz63/9/model.pt (torch, 45847 bytes, 6 tensors)

rnn.weights f4 [150, 53]
0	0xbe086c15	-0.1332248
1	0xbce34e42	-0.027747277
2	0xbd8b1cf5	-0.067926325
3	0xbd1a7fca	-0.037719525
4	0xbdffdc0c	-0.124931425
5	0x3d6873a2	0.0567509
6	0xbe01d038	-0.12677085
7	0xbc13a556	-0.009011587
8	0x3d495bc9	0.0491598
9	0xbd43415d	-0.047669757
10	0x3da4575d	0.08024476
11	0x3c921ed6	0.01783697
12	0x3d9f35de	0.07773946
13	0x3db9d426	0.09073667
14	0xbd7fb69f	-0.06243002
15	0x3d528440	0.051395655
16	0xbd7a9e22	-0.061185963
17	0x3d35936f	0.044330057
18	0xbd97542c	-0.073891014
19	0x3d85f96c	0.06541714
20	0x3cea89a4	0.028630085
21	0xbd62b0ae	-0.055344276
22	0xbd8e100f	-0.06936657
23	0x3d15de6a	0.036589064
24	0x3e071db5	0.13194926
25	0x3d8afe52	0.06786789
26	0xbc5fbe69	-0.013656237
27	0xbbe0ee65	-0.0068643563
28	0x3da49f7a	0.0803823
29	0xbdc94bb3	-0.098288916
30	0x3d409330	0.04701537
31	0xbd3ff0d1	-0.04686052
32	0x3da7932e	0.08182369
33	0xbd4ea277	-0.050447907
34	0x3be52504	0.006992938
35	0x3d439b21	0.047755364
36	0x3dc70afc	0.09718892
37	0xbcaa48a4	-0.02078659
38	0x3e041d2d	0.12901755
39	0xbdf50a88	-0.11964899
40	0xbccea7ca	-0.025226492
41	0xbe106810	-0.14102197
42	0x3c3ff1b3	0.01171534
43	0x3d246211	0.040132586
44	0xbd6a7d37	-0.05724832
45	0x3d7094b8	0.05873558
46	0xbcbbcea2	-0.022925679
47	0xbdfbaf8e	-0.12289344
48	0x3dde5bf7	0.10857385
49	0x3db29369	0.087195225
50	0xbec9c2a6	-0.39406317
51	0x3e891f3b	0.2678164
52	0x3f0fd86b	0.561896
53	0x3d99fe6f	0.075192325
54	0x3df0586c	0.11735615
55	0xbce96c26	-0.028493952
56	0xbde1e281	-0.1102953
57	0xbd8e7033	-0.06954994
58	0xbc9aa6f2	-0.018878434
59	0xbc7e9cd3	-0.0155403195
60	0xba7b42f6	-0.0009584868
61	0x3da5fab6	0.0810446
62	0x3d39d26f	0.0453667
63	0xbdd62698	-0.1045658
64	0xbd2e036e	-0.04248374
65	0xbd08456a	-0.033269323
66	0x3db045fa	0.08607097
67	0xbd5224e6	-0.05130472
68	0xbd725aaf	-0.059168514
69	0xbcba4499	-0.022737788
70	0xbd1358f3	-0.0359735
71	0xbd0e9fa8	-0.03482023
72	0xbe0db184	-0.13837248
73	0x3e01075c	0.12600464
74	0x3d9a25fa	0.07526775
75	0xbd890cab	-0.06691869
76	0xbdb4b5d1	-0.08823741
77	0x3ba137d8	0.004919987
78	0x3da5062d	0.080578186
79	0xbdcfd9e5	-0.10148982
80	0xbd5ac697	-0.053412046
81	0x3d724a90	0.05915314
82	0xbdbad0f3	-0.09121885
83	0xbc81006f	-0.015747277
84	0xbdda68fd	-0.10664556
85	0x3e0651ab	0.13117091
86	0x3d9c1f6d	0.076231815
87	0xbe05db48	-0.1307193
88	0xbd9fe8c4	-0.078080684
89	0x3d4d5688	0.05013135
90	0x3bfdf8c6	0.0077506034
91	0x3d198281	0.037477974
92	0xbdecf0e7	-0.11569386
93	0xbd9b1481	-0.0757227
94	0x3d836a9b	0.06416818
95	0xbddcd81e	-0.107834086
96	0xbcf30232	-0.029664133
97	0x3d7ebbb0	0.06219071
98	0x3d9652c7	0.07340007
99	0x3c101159	0.0087931985
100	0x3d27ec3e	0.040996782
101	0x3d80d6eb	0.06290992
102	0xbc875818	-0.016521499
103	0xbf42650a	-0.75935423
104	0x3e2eb22a	0.17060152
105	0xbd0bae1f	-0.0341016
106	0x3d86284f	0.06550657
107	0xbd7d3734	-0.061820224
108	0xbdfbef09	-0.12301452
109	0xbe0eef68	-0.13958514
110	0x3a803b4b	0.0009783296
111	0xbd5e4061	-0.054260615
112	0xbd11c489	-0.03558782
113	0xbca2ea81	-0.01988721
114	0x3e08f42d	0.13374396
115	0x3e094466	0.13404998
116	0xbc58a287	-0.013222343
117	0xbd2df0f0	-0.042466104
118	0x3d8ca7cc	0.06867942
119	0xbc38e4ab	-0.011284987
120	0xbe09cb1b	-0.13456385
121	0x3d3cd212	0.046098776
122	0x3e0aa3c6	0.13539037
123	0xbde59525	-0.11210088
124	0xbcfa35f1	-0.0305433
125	0x3cfb3e5d	0.030669386
126	0xbdebd963	-0.115160726
127	0xbdf7f87b	-0.12107941
128	0x3dd8381e	0.105575785
129	0xbd4d1d30	-0.050076663
130	0x3da8f31e	0.08249496
131	0x3c4f237f	0.01264274
132	0x3d0d551e	0.034505002
133	0xbdc10739	-0.09425206
134	0xbcf76e07	-0.030203832
135	0x3dbf0e2c	0.09328875
136	0x3d84d7d1	0.06486476
137	0xbd277ab2	-0.040888496
138	0x3c8e8531	0.017397495
139	0x3dddbf2a	0.10827477
140	0xbdfdc61c	-0.12391302
141	0x3dba0b3e	0.090841755
142	0xbd2e1768	-0.04250279
143	0xbcebaf69	-0.028770166
144	0x3d89d2e1	0.06729675
145	0xbdf09d07	-0.117487006
146	0xbcaf048d	-0.021364475
147	0x3e0a638f	0.13514541
148	0x3d507b14	0.050898626
149	0xbd56316e	-0.052293234
150	0xbcfc59c6	-0.030804526
151	0x3de46901	0.111528404
152	0x3d5ad981	0.053430084
153	0x3dc45547	0.09586578
154	0xbdba8217	-0.09106844
155	0x3d2700c6	0.040772222
156	0x3f049865	0.51795036
157	0x3d934f8f	0.07192909
158	0x3df1b460	0.11801982
159	0x3da054d6	0.07828681
160	0x3dc7a4b8	0.097482145
161	0x3d7e591e	0.062096708
162	0x3d737465	0.059437174
163	0xbcc9841c	-0.024599127
164	0xbdff9fab	-0.12481626
165	0xbdf4a8f1	-0.119462855
166	0xbdb463bb	-0.088080846
167	0xbdbb8501	-0.09156228
168	0x3d88586b	0.066574894
169	0x3d3351ba	0.043779112
170	0xbd252bb7	-0.040324893
171	0xbddca10a	-0.10772903
172	0x3e0e90d4	0.13922435
173	0x3dd9a4d6	0.10627143
174	0x3d89be45	0.06725744
175	0x3e0f57ea	0.1399838
176	0xbd9a33a9	-0.07529385
177	0xbda4f063	-0.08053663
178	0xbda98880	-0.082779884
179	0xbbe05b2d	-0.0068468065
180	0xbdffab20	-0.124838114
181	0x3de548ac	0.11195502
182	0x3b6e6bc3	0.003638015
183	0x3d903c1e	0.070427164
184	0xbd9f0e94	-0.077664524
185	0xbc6eb4e1	-0.014569492
186	0x3c98609c	0.018600754
187	0xbd1e8c0e	-0.038707785
188	0x3e08b0fb	0.13348763
189	0xbd845330	-0.06461179
190	0x3d33dbd3	0.043910813
191	0xbdc48461	-0.09595562
192	0xbc89206d	-0.016739095
193	0xbd19ad8d	-0.037519027
194	0x3d79ed53	0.061017346
195	0x3dca51cc	0.09878883
196	0x3d0ce181	0.034394745
197	0xbc52605e	-0.012840359
198	0xbd1454b7	-0.036213603
199	0x3de31442	0.11087848
200	0xbd08df7a	-0.03341625
201	0x3dd116e6	0.10209446
202	0xbd80ddbe	-0.06292294
203	0x3deeb452	0.11655487
204	0x3e103c57	0.14085518
205	0x3dc689c7	0.09694248
206	0x3da61dcd	0.08111153
207	0x3d579a20	0.05263722
208	0xbd8e692a	-0.06953652
209	0x3ec3874b	0.38189158
210	0x3e93825b	0.2881039
211	0xbd5286aa	-0.051397957
212	0x3ccfaf8a	0.025352258
213	0x3da9a147	0.08282714
214	0xbe062d21	-0.13103153
215	0xbe03cfb6	-0.12872204
216	0xbdad4dfa	-0.084621385
217	0x3c8d52bb	0.017251363
218	0xbcd6bdd8	-0.026213571
219	0x3cf9a712	0.030475173
220	0xbd09bfd3	-0.033630203
221	0xbdbd9a79	-0.09257979
222	0x3c99d130	0.018776506
223	0x3dc429cc	0.095782846
224	0xbdade7a6	-0.08491449
225	0x3dfde22c	0.123966545
226	0x3d0e9066	0.034805678
227	0x3e0ecaf7	0.13944612
228	0xbe04bc75	-0.12962516
229	0xbe0a9e75	-0.13537009
230	0x3d4485d2	0.047979183
231	0xbe0718d4	-0.13193065
232	0xbded59fd	-0.115894295
233	0x3d9345c7	0.07191043
234	0x3d8c9874	0.068650156
235	0xbe03f579	-0.12886609
236	0x3dd06986	0.10176377
237	0xbce1454c	-0.027498864
238	0x3dd70712	0.104993954
239	0xbda9f808	-0.08299261
240	0xbe09b35d	-0.13447328
241	0xbdc00032	-0.09375037
242	0xbcb39a7d	-0.021924252
243	0xbe10a179	-0.14124097
244	0xbc1dded5	-0.009635647
245	0xbd908ccf	-0.07058107
246	0xbd06d308	-0.0329161
247	0xb7a8b737	-2.0112477e-05
248	0x3c020b3a	0.007937247
249	0xbe0da7ea	-0.13833585
250	0x3d94fab3	0.072743796
251	0xbdb18395	-0.086676754
252	0x3db08238	0.08618587
253	0x3e04b2a0	0.12958765
254	0xbd412dc3	-0.047162782
255	0x3c820698	0.015872285

rnn.weights_lin_z f4 [50, 53]
0	0xbcbf9b87	-0.02338959
1	0x3dfef0e0	0.12448287
2	0x3e8672bf	0.2625942
3	0x3d6e2ea6	0.058149956
4	0x3d486f6f	0.048934396
5	0xbddf76a0	-0.10911298
6	0xbe5483d1	-0.20753409
7	0xbe022a3d	-0.12711425
8	0x3dbc6e07	0.092006736
9	0x3c3702f8	0.011170141
10	0xbdde13b8	-0.10843605
11	0xbdbc7183	-0.09201338
12	0x3d1d2d59	0.038373325
13	0x3db44847	0.08802848
14	0x3de27edd	0.110593535
15	0x3e1bc8ee	0.15213367
16	0xbd8c1c32	-0.06841315
17	0x3dab1505	0.083536185
18	0x3d56cf4e	0.052443795
19	0xbd99202d	-0.0747684
20	0xbd7ccafa	-0.06171701
21	0x3e008769	0.12551655
22	0x3d805d09	0.06267745
23	0x3dc839c2	0.097766414
24	0xbde16327	-0.1100524
25	0xbe36e2eb	-0.1786
26	0xbda2caf6	-0.07948868
27	0xbdc8d1d7	-0.09805649
28	0xbcec23b6	-0.028825622
29	0x3da5a28a	0.080876425
30	0xbe0e0432	-0.13868788
31	0xbbd75620	-0.006571546
32	0xbbd5ccf7	-0.006524678
33	0x3c9aa6dc	0.018878393
34	0x3d5a7ce6	0.05334177
35	0x3da5d656	0.08097522
36	0x3ce9a49a	0.028520871
37	0x3d0cbadb	0.034357887
38	0x3e385787	0.18002139
39	0xbd8f0a93	-0.06984439
40	0x3ca06bbc	0.019582622
41	0xbdea7a36	-0.11449091
42	0x3d1a281c	0.037635908
43	0xbddcd5da	-0.107829764
44	0xbc62c6fe	-0.013841389
45	0x3da9a95e	0.08284257
46	0xbd264aa8	-0.04059854
47	0x3e485932	0.19565275
48	0x3d405468	0.046955496
49	0x3e374557	0.17897545
50	0x3da92cab	0.08260473
51	0xbd0d5a60	-0.034510016
52	0xbe41d890	-0.18930268
53	0xbe283c21	-0.16429187
54	0x3e8308bb	0.25592598
55	0x3d9fbce9	0.07799704
56	0x3b6b6c59	0.0035922735
57	0xbd811582	-0.063029304
58	0x3a522b0f	0.00080172805
59	0x3d8a3319	0.06748027
60	0x3dc72de1	0.097255476
61	0xbd7479f2	-0.05968661
62	0xbdc039e0	-0.09386039
63	0x3d5be611	0.053686205
64	0x3d5eee71	0.054426614
65	0xbd65cfe8	-0.056106478
66	0x3d5da9e2	0.05411709
67	0x3e3773dc	0.1791529
68	0x3e020cd2	0.12700203
69	0xbcc1d5ef	-0.023661582
70	0x3e4b489e	0.1985192
71	0x3c4f2ca2	0.012644919
72	0xb9dc4813	-0.0004201537
73	0xbdc43bf5	-0.095817484
74	0x3d5435ac	0.051808998
75	0x3dfd3beb	0.12364944
76	0x3db7e48f	0.08979141
77	0xbdf1a40f	-0.1179887
78	0xbd41356f	-0.0471701
79	0xbaaf58b0	-0.0013377871
80	0xbde2b566	-0.11069755
81	0xbd2a9d41	-0.041653875
82	0x3e765b20	0.24058199
83	0x3c9e183b	0.019298663
84	0x3d55f1e4	0.052232638
85	0x3e087fa6	0.13329944
86	0xbdacb016	-0.08432023
87	0xbe6acda4	-0.22930008
88	0xbe750be4	-0.23930317
89	0xbe3872cb	-0.1801254
90	0x3dd851ea	0.10562499
91	0xbd8cf2cd	-0.06882248
92	0x3d8e132a	0.06937249
93	0x3ddb303f	0.107025616
94	0xbdcd5558	-0.10026044
95	0x3e4ab89c	0.19796985
96	0xbde8368e	-0.113385305
97	0x3d469c63	0.048488986
98	0xbe651509	-0.22371306
99	0x3e4da19a	0.20081177
100	0xbe1ce468	-0.15321505
101	0x3dcd304d	0.10018978
102	0x3ddcf299	0.10788459
103	0xbe288196	-0.16455683
104	0xbd42eed5	-0.04759105
105	0xbde6ccf4	-0.112695605
106	0xbd81b036	-0.06332438
107	0xbdf73623	-0.12070873
108	0xbdb3b117	-0.087740116
109	0x391b45fd	0.00014808025
110	0xbd8e2bd9	-0.06941957
111	0x3e0131ca	0.1261665
112	0x3e679f7a	0.22619429
113	0xbc5165ad	-0.012780589
114	0xbe15a1d9	-0.14612521
115	0xbc97e971	-0.01854393
116	0x3e28b423	0.16474967
117	0x3c8c1aee	0.017102685
118	0xbb949698	-0.0045345537
119	0xbe4c005b	-0.1992201
120	0x3d55120e	0.05201917
121	0xbc946962	-0.018116657
122	0x3d66b689	0.056326423
123	0x3e1f10ef	0.15533803
124	0x3d636d30	0.05552405
125	0xbdf9af82	-0.121916786
126	0x3d2daa8d	0.042398978
127	0xbdd0580f	-0.10173046
128	0x3e0326f2	0.12807825
129	0xbe2cdac8	-0.16880333
130	0x3d773d74	0.06036134
131	0xbdc9413d	-0.09826896
132	0x3df9ef10	0.12203801
133	0x3e10c241	0.14136602
134	0x3e13304b	0.14373891
135	0xbe2b45c9	-0.1672584
136	0x3d4f938f	0.050677832
137	0xbe064e80	-0.13115883
138	0x3d14fb82	0.03637267
139	0xbd2b4e92	-0.041822977
140	0x3c6c4127	0.01441983
141	0xbe26af73	-0.16277866
142	0x3eb53e08	0.3539889
143	0x3ce7fcec	0.028318845
144	0xbe2ed153	-0.17072038
145	0x3e1d9434	0.15388566
146	0xbd9049b7	-0.0704531
147	0xbe3f3530	-0.18672633
148	0x3c85f686	0.016352903
149	0x3d854be9	0.06508619
150	0xbdb1ec1c	-0.086876124
151	0xbbe2d449	-0.006922279
152	0xbe2216c4	-0.15828997
153	0xbd01de5f	-0.03170621
154	0x3e5e7343	0.21723656
155	0x3dcfd041	0.10147143
156	0xbcdc7090	-0.026909143
157	0x3d40394a	0.046929635
158	0xbe2bd8f8	-0.16781986
159	0x3b0fb4ce	0.0021927836
160	0x3d25fe21	0.04052556
161	0xbc864897	-0.016392035
162	0x3dab0b1c	0.08351728
163	0x39e35556	0.00043360394
164	0x3dd1fd7d	0.10253427
165	0x3c13d986	0.00902403
166	0xbe3a9222	-0.18219808
167	0x3d78e6d6	0.060767017
168	0xbd96b9ff	-0.07359695
169	0x3bb4c094	0.005516121
170	0xbe1e2cb0	-0.15446734
171	0x3d14a362	0.036288626
172	0xbd85cbe0	-0.06533027
173	0x3d24894f	0.04017001
174	0xbe203d73	-0.15648441
175	0xbdc7bd59	-0.09752912
176	0xbdb79573	-0.08964052
177	0xbe0eb39c	-0.13935703
178	0xbd6a67b7	-0.057227816
179	0xbd4a2f35	-0.049361426
180	0xbe354df1	-0.17705514
181	0xbdf21f3e	-0.11822365
182	0xbe1cdbf2	-0.15318277
183	0x3d098059	0.033569667
184	0xbe2a44c2	-0.16627792
185	0x3e1a2311	0.1505244
186	0xbd83b7cf	-0.06431543
187	0xbd8c1869	-0.06840593
188	0xbe6394b7	-0.22224699
189	0xbd20daae	-0.03927105
190	0xbd3524d8	-0.04422459
191	0xbca569f2	-0.02019212
192	0x3c67dc81	0.014151693
193	0x3e00a877	0.12564264
194	0x3dd4c4f9	0.10389132
195	0x3df30200	0.11865616
196	0xbc97f099	-0.018547343
197	0x3d8df84f	0.06932127
198	0x3dd20427	0.10254698
199	0x3e4dfcb6	0.20115933
200	0x3d21a910	0.03946787
201	0xbe4838bf	-0.19552897
202	0xbdb874e2	-0.090066686
203	0xbe0268aa	-0.12735239
204	0x3e21683e	0.15762421
205	0x3daf0cae	0.0854734
206	0x3d6fead4	0.05857356
207	0x3c94d766	0.018169116
208	0x3ac07ff0	0.0014686566
209	0xbde7bc32	-0.11315192
210	0xbd9d7ea9	-0.07690174
211	0x3de2856b	0.11060604
212	0x3e9494bc	0.29019725
213	0x3d8ba9d7	0.06819504
214	0x3e044f3a	0.12920848
215	0x3e5222a4	0.20521027
216	0x3cc804aa	0.024416286
217	0x3cb7d923	0.022442406
218	0x3d6e0434	0.058109477
219	0xbdf045a5	-0.11732034
220	0x3d1a7b1f	0.037715074
221	0xbe40f805	-0.18844612
222	0xbe3288bf	-0.17434977
223	0xbe4de1af	-0.20105623
224	0xbc86fa30	-0.01647672
225	0x3bd07123	0.006361143
226	0x3e490dd4	0.19634181
227	0xbd96ab25	-0.07356862
228	0x3e290e96	0.1650947
229	0xbd281f3a	-0.041045405
230	0x3dc0cc53	0.09413972
231	0x3d89cb6a	0.06728251
232	0xbd07ffd7	-0.033202972
233	0xbdda6f4d	-0.1066576
234	0xbdbfa2b9	-0.09357209
235	0x3db8d178	0.09024328
236	0x3d1795bb	0.03700803
237	0xbe6d74a4	-0.23189026
238	0x3c975ea3	0.018477743
239	0xbe6aa60e	-0.22914907
240	0xbdacf164	-0.08444479
241	0x3dd87fd4	0.10571256
242	0xbd3bde7a	-0.045866467
243	0x3d7cf747	0.06175926
244	0x3d19c582	0.037541874
245	0xbdb40084	-0.08789161
246	0xbdfd465b	-0.12366935
247	0x3cb6a9ae	0.022297706
248	0xbdacb72d	-0.084333755
249	0x3dc53344	0.09628919
250	0x3d4f07dd	0.05054461
251	0xbe151da6	-0.14562091
252	0x3db91a0b	0.090381704
253	0xbcadc3c3	-0.02121151
254	0x3e4ae9df	0.19815777
255	0x3d52c147	0.051453855

rnn.bias f4 [150]
0	0xbe26c0ea	-0.16284528
1	0xbc0f72ac	-0.008755367
2	0xbd70a0fa	-0.05874727
3	0xbe76d613	-0.241051
4	0xbf89615c	-1.0732837
5	0xbe88b1c0	-0.26698112
6	0xbeb94a74	-0.36189616
7	0xbef8a7eb	-0.4856561
8	0xbeb52bd0	-0.3538499
9	0xbeb421cf	-0.35182044
10	0xbee022cb	-0.43776545
11	0xbeda8fce	-0.4268784
12	0xbeb899bd	-0.36054793
13	0xbee0e38f	-0.43923613
14	0xbe95962b	-0.29216132
15	0xbf21c122	-0.6318532
16	0xbebc2d70	-0.36753416
17	0xbe06a270	-0.13147902
18	0xbf210afc	-0.62907386
19	0xbe86ad7d	-0.26304236
20	0xbe57c356	-0.21070608
21	0xbda2322e	-0.07919727
22	0xc00011f4	-2.0010958
23	0xbec99b04	-0.3937608
24	0xbe6958d5	-0.22787793
25	0x3e3bc2d2	0.18336037
26	0xbecbaa5a	-0.39778405
27	0xbd3e6b2d	-0.04648893
28	0xbf15b0b8	-0.58472776
29	0x3ca18146	0.019714963
30	0xbef5834c	-0.47951734
31	0xbf381c18	-0.7191787
32	0xbe9b810b	-0.3037189
33	0xbe0ea0a4	-0.13928467
34	0x3c9c8c0c	0.019109748
35	0xbdbf280c	-0.0933381
36	0xbe83eb82	-0.25765616
37	0xbd3a77c3	-0.04552437
38	0xbeba4726	-0.36382407
39	0xbcd132a8	-0.02553685
40	0xbf112ca8	-0.56708765
41	0xbca9cce3	-0.02072758
42	0xbef7bd18	-0.48386455
43	0xbe9ea106	-0.30982226
44	0xbe71a755	-0.23598988
45	0xbec16e91	-0.37779668
46	0xbe994503	-0.29935464
47	0xbe93a420	-0.28836155
48	0xbd67cf5d	-0.05659424
49	0x3db636e3	0.088971876
50	0xbbf81564	-0.0075709093
51	0x3ce1a8cd	0.02754631
52	0x3e4d1718	0.20028341
53	0x3dcbfd9a	0.0996048
54	0x3a2cceb6	0.00065920816
55	0xbc5ce3c7	-0.013482041
56	0xbda808b9	-0.08204789
57	0x3cd05f8b	0.025436183
58	0x3c6e6ff3	0.014553058
59	0xbdddc76f	-0.108290546
60	0xbdc2fdf0	-0.09521091
61	0xbc64b993	-0.01396026
62	0x3d91019f	0.07080387
63	0xba18dc8b	-0.00058312033
64	0xbd097582	-0.03355933
65	0xbad96215	-0.0016585017
66	0x3d6702a1	0.05639899
67	0x3d8fdf22	0.07024981
68	0x3dc6d0ae	0.09707771
69	0x3d542480	0.05179262
70	0xbda93b93	-0.08263316
71	0xbbc0f968	-0.0058891065
72	0xbb3fea6c	-0.0029284013
73	0xbca32fe1	-0.019920291
74	0xbc7a7fb5	-0.015289237
75	0x3e2b4ded	0.16728945
76	0x3a2497e2	0.0006278736
77	0xbe100650	-0.14064908
78	0x3add13fa	0.0016866915
79	0xbd6450c5	-0.05574109
80	0x3bd209dc	0.0064098667
81	0x3b188d3c	0.0023277542
82	0x3cafa1c1	0.021439435
83	0xbca5a15d	-0.020218546
84	0xbdab09a1	-0.08351446
85	0xbdd5525f	-0.10416102
86	0xbe000ce1	-0.12504913
87	0x3e28fefa	0.16503516
88	0xbc0cc1f4	-0.008591164
89	0x3973b67c	0.00023242267
90	0xbe2d60fd	-0.1693153
91	0xbdb7f57d	-0.0898237
92	0xbb9284c8	-0.004471395
93	0xbbd15572	-0.0063883597
94	0x3c8257b7	0.015910966
95	0xbde32f2c	-0.11092982
96	0x3bd1a198	0.0063974373
97	0x39d93318	0.00041427533
98	0xbda7002f	-0.08154332
99	0xbba08807	-0.004899028
100	0x3d1161a2	0.0354935
101	0xbe061522	-0.13093999
102	0xbdb39a2d	-0.08769641
103	0xbe0082a8	-0.12549841
104	0xbe1b816d	-0.15186091
105	0x3d77addb	0.060468536
106	0x3e28bf8b	0.16479318
107	0xbe3b0820	-0.18264818
108	0x3cbcc1f2	0.0230417
109	0x3dab8911	0.08375753
110	0x3e79fb59	0.24412288
111	0xbe4b90f6	-0.19879517
112	0x3e0805cd	0.13283463
113	0x3e3299a6	0.17441425
114	0xbe7d5e0e	-0.2474291
115	0xbdf2e578	-0.11860174
116	0xbc97e4a0	-0.018541634
117	0x3d0b8697	0.0340639
118	0x3e9c2bc7	0.3050215
119	0x3e161ca9	0.1465937
120	0xbd548cee	-0.051892214
121	0x3e119883	0.14218335
122	0x3e0233bf	0.12715052
123	0x3c2834f1	0.010266528
124	0x3e005b43	0.12534814
125	0x3e2e0703	0.16994862
126	0x3d9a7e2c	0.075435966
127	0x3e17b38f	0.1481459
128	0xbeb110fa	-0.34583265
129	0xbcd90847	-0.026493205
130	0x3dce478c	0.1007224
131	0xbc33570e	-0.010946048
132	0x3cd62d58	0.026144668
133	0x3c3905d6	0.011292895
134	0x3e4f2475	0.20228751
135	0x3dad368e	0.08457671
136	0xbe180433	-0.14845352
137	0x3e758e7a	0.23980132
138	0x3dcf4569	0.10120661
139	0x3b4af128	0.0030966494
140	0x3e8ee2be	0.27907366
141	0x3e9fcabb	0.3120936
142	0x3e1f3b80	0.15550041
143	0x3e43db4d	0.19126625
144	0x3e3ea5bd	0.18617912
145	0x3e5d2cde	0.21599147
146	0x3e8277bb	0.25481972
147	0x3cab783e	0.02093136
148	0x3e041024	0.12896782
149	0x3de487e7	0.11158734

rnn.bias_lin_z f4 [50]
0	0x3c95ef91	0.01830271
1	0xbd0e4fcb	-0.034744065
2	0x3d83d5f3	0.06437292
3	0xbd4874b5	-0.048939425
4	0x3e02b7d5	0.12765439
5	0x3d70b320	0.058764577
6	0x3e552cd5	0.20817883
7	0xbe0c2826	-0.1368719
8	0x3d331a9c	0.04372655
9	0xbd09d284	-0.03364803
10	0xbcded57b	-0.027201405
11	0x3dca6e8d	0.09884367
12	0xbda32450	-0.079659104
13	0x3e197fe4	0.14990193
14	0x3c1ee80f	0.009698882
15	0x3d61a777	0.055091348
16	0x3d964762	0.07337834
17	0xbcf3925a	-0.029732872
18	0x3db512f5	0.088415064
19	0x3d3022c8	0.04300192
20	0x3e1929a3	0.1495729
21	0x3e043824	0.12912041
22	0x3d7300a2	0.059326775
23	0xbcb132a3	-0.02163059
24	0x3d054bba	0.03254292
25	0x3e1217d7	0.14266907
26	0xbc93a8ed	-0.018024886
27	0x3d2646fe	0.040595047
28	0xbbb3295a	-0.005467576
29	0xbdb283b4	-0.08716527
30	0x3e33ea4c	0.17569846
31	0xbc8d560f	-0.01725295
32	0xbcacaa57	-0.021077318
33	0x3e1a00eb	0.15039413
34	0xbc5c4733	-0.01344471
35	0xbe164ba7	-0.14677297
36	0x3c090222	0.008362325
37	0xbdc8f8d0	-0.09813082
38	0x3e0c4ea7	0.13701878
39	0xbdcc88dc	-0.09987041
40	0x3d8b417b	0.06799599
41	0xbdeef2a6	-0.11667375
42	0x3d69ca3e	0.05707764
43	0x3c669021	0.014072449
44	0xbe5681f5	-0.20948012
45	0xbdcbd47b	-0.09952637
46	0x3d6a6ba7	0.05723157
47	0xbd9aa13c	-0.07550284
48	0x3cfb598b	0.030682346
49	0xbc4d5fdc	-0.012535062

classifier.weight f4 [3, 50]
0	0x3ea27205	0.31727615
1	0xbe0b8019	-0.13623084
2	0x3ec1591f	0.37763306
3	0xbf03bc86	-0.5145954
4	0xbe5eb4db	-0.21748678
5	0x3e4115f9	0.18856038
6	0x3e183886	0.14865312
7	0x3dfc2432	0.12311591
8	0x3eb20acc	0.34773862
9	0xbed67a18	-0.41890025
10	0xbef1c0ec	-0.472175
11	0xbd371b89	-0.044703994
12	0xbdaaf8d6	-0.08348243
13	0xbc791bb6	-0.015204361
14	0x3e8abfd4	0.27099478
15	0xbedd419d	-0.4321412
16	0x3d4e6965	0.05039348
17	0x3dff00a1	0.12451292
18	0x3e1688da	0.14700642
19	0xbed4cb56	-0.41561383
20	0x3e909fae	0.28246826
21	0xbe38a8de	-0.18033168
22	0xbed9c4c3	-0.4253293
23	0x3c49af04	0.012309793
24	0x3e76d537	0.24104773
25	0xbe802d00	-0.25034332
26	0xbe44773f	-0.19186114
27	0x3cef04fb	0.02917718
28	0xbe29061e	-0.1650624
29	0x3e8a4bef	0.27011058
30	0x3e2a86f2	0.1665304
31	0xbe61163f	-0.21981142
32	0x3e819c55	0.25314584
33	0x3ea1f4ad	0.31631985
34	0x3e34239f	0.17591713
35	0x3e7d2a40	0.24723148
36	0xbc84432b	-0.01614531
37	0xbec1e49d	-0.3786973
38	0xbe113919	-0.14181937
39	0xbcf699a5	-0.03010256
40	0xbd22839f	-0.039676305
41	0x3e83264f	0.25615165
42	0x3e809fe5	0.2512199
43	0xbea312d6	-0.31850308
44	0x3de20f89	0.11038119
45	0xbe0998b8	-0.13437164
46	0x3e9694cf	0.29410407
47	0xbbe11389	-0.006868784
48	0xbe81e457	-0.25369522
49	0xbee4db9f	-0.44698808
50	0xbd400458	-0.046879143
51	0xbe8a1bc2	-0.26974303
52	0xbe6684c6	-0.22511587
53	0xbec98588	-0.3935969
54	0xbd5cfd53	-0.053952526
55	0x3eef77f1	0.46771196
56	0x3eaf8631	0.34282067
57	0x3b74427f	0.003727108
58	0x3ea28d95	0.31748644
59	0xbe548406	-0.20753488
60	0xbd6d9087	-0.05799916
61	0x3edc002f	0.4296889
62	0x3f29a7d9	0.6627174
63	0xbed8d51b	-0.42350087
64	0x3dfa09e7	0.1220892
65	0x3e9271b3	0.2860237
66	0x3dc48090	0.09594834
67	0x3ea0d334	0.31411135
68	0x3f00bc2c	0.5028713
69	0xbf2df37d	-0.6794966
70	0x3ec8b884	0.39203274
71	0xbe82acae	-0.2552237
72	0x3e109253	0.14118318
73	0x3deb3b8f	0.11485969
74	0xbe3af046	-0.1825572
75	0xbee658d6	-0.4498965
76	0x3e16a623	0.14711814
77	0x3eecc3af	0.46243045
78	0x3edd7d7e	0.43259805
79	0x3e660511	0.2246287
80	0x3efb9a5c	0.49141204
81	0xbde86630	-0.11347616
82	0x3ebcff94	0.3691374
83	0xbc243dd5	-0.0100245075
84	0x3ebf9727	0.37420008
85	0x3eeeca28	0.46638608
86	0xbe82c460	-0.25540447
87	0xbe52464e	-0.20534632
88	0x3ec1fbb4	0.37887347
89	0x3e9632f9	0.29335764
90	0xbe04d0cd	-0.12970276
91	0x3df743ba	0.12073465
92	0xbcfe9ffb	-0.031082144
93	0x3e02105c	0.12701553
94	0xbebae1aa	-0.36500293
95	0xbe498142	-0.19678214
96	0x3eb899be	0.36054796
97	0x3e276a2a	0.16349092
98	0x3ca33754	0.019923843
99	0xbd46c563	-0.048528086
100	0xbf24e07b	-0.6440503
101	0xbef332ee	-0.47499794
102	0xbe654389	-0.22389044
103	0x3e911273	0.28334388
104	0xbea16942	-0.31525618
105	0x3e163bd4	0.1467126
106	0x3d91e639	0.071239896
107	0x3ebc24e1	0.36746886
108	0xbddcd06c	-0.10781941
109	0xbefd3621	-0.4945536
110	0xbf030cd7	-0.5119147
111	0x3eaa1f5d	0.33227053
112	0xbca6c767	-0.020358754
113	0xbe0b078a	-0.13577095
114	0x3e228faf	0.15875123
115	0xbd1bf343	-0.03807379
116	0x3ec50310	0.384789
117	0xbe4109cd	-0.18851395
118	0x3cb6f375	0.022332886
119	0x3e58dc2d	0.2117774
120	0xbe939353	-0.28823337
121	0x3ea2666e	0.31718773
122	0x3e05f79d	0.13082738
123	0xbebb4da8	-0.36582685
124	0xbeea6e57	-0.45787308
125	0x3e6d69f2	0.23184946
126	0xbe872de8	-0.2640221
127	0xbca69104	-0.02033282
128	0xbe65df1e	-0.22448394
129	0xbe271ada	-0.16318837
130	0x3ea69529	0.32535675
131	0x3f1d1231	0.6135588
132	0x3d7a50be	0.061112158
133	0xbefe6a73	-0.4969059
134	0x3ebea227	0.37233087
135	0x3e1c79e3	0.15280871
136	0x3e556fa1	0.20843364
137	0x3cf51a55	0.029919783
138	0xbf02f0ae	-0.511485
139	0x3ddf4aa3	0.10902908
140	0xbe638a4b	-0.22220723
141	0xbe5bd019	-0.21466102
142	0x3eb7d3c8	0.35903764
143	0x3ef7214d	0.48267594
144	0x3eca89c2	0.39558226
145	0x3d9b5cb3	0.0758604
146	0x3da9cac9	0.08290631
147	0x3e8c6d87	0.27427313
148	0xbe8628bf	-0.26202962
149	0x3ddc8a01	0.1076851

classifier.bias f4 [3]
0	0xbc3e19fc	-0.011602875
1	0xbdadb3a0	-0.084815264
2	0x3da0d9d9	0.07854051
