Final Project/LEM-main/models/lorenz63/4/model.pt (torch, 7191 bytes, 6 tensors)

rnn.weights f4 [48, 19]
1.3472257 -0.033892833 -0.48534894 -1.0442374 -0.07735895 -0.09999005 0.18564525 0.3531954
-0.63572466 -0.65493846 0.44864705 -0.11961709 -0.2606065 -0.18201698 0.3358858 -0.2999907
-0.27532315 -0.47635323 0.13948514 -0.06653784 -0.49898237 0.092399746 -0.14060819 -0.18474583
-0.07795543 -0.0058581447 0.1438465 0.030916363 0.6274781 0.4039741 -0.012148096 0.27004766
0.14294355 -0.6474535 0.24866976 0.6287943 0.31803364 -0.18192565 0.17207734 -0.32587528
-0.044173934 0.1298034 -0.16615808 -0.41288683 -0.0882068 0.0066874907 -0.12137301 0.7563854
0.31704396 0.3353573 0.2260792 0.113116324 -0.16339761 0.5167682 -0.86378455 -0.48335993
-0.012222969 -0.25312817 -0.22412571 0.21530956 0.2249992 0.7433846 -0.07621133 -0.122976996
-0.10656247 0.003958896 0.15385738 -0.82398266 -0.19535434 0.03911407 -0.75609225 -0.44086152
-0.22635174 0.8227766 0.8753161 0.14450361 -0.55474114 -0.41297632 0.22302549 0.3233423
-0.0942415 -0.14291093 0.058044825 -0.22725973 -0.1120233 0.38102496 0.42193586 -0.60961145
-0.0017947616 -0.1132193 -0.28421384 0.3000455 -0.09969408 0.033754054 0.48574424 -0.23158297
0.0848849 -0.09377035 0.12493903 0.2347842 0.19320516 -0.261325 0.2125113 0.1271575
-0.27814275 0.04932613 0.2976457 -0.23382092 -0.108597524 -0.24696773 -0.122120574 0.184245
0.1462883 0.10432037 0.7278137 0.22954436 -0.76433676 -0.38690922 0.027440218 -0.1023956
0.18416235 0.12569706 -0.13833494 -0.59609514 0.20322433 -0.13076992 -0.21880315 -0.18609531
0.6863326 -0.289138 -0.14998302 -0.32361725 -0.16106573 0.26026124 -0.1345374 0.073236786
-0.06597541 0.33461598 0.4350895 0.17743813 0.12580591 0.07103878 -0.47074613 -0.0033536262
-0.015385337 -0.51402754 -0.039347127 0.31653354 -0.076294884 -0.3853841 -0.33753914 0.28556624
-0.026626978 -0.23780319 0.14903364 0.17658302 -0.08958358 0.059639975 0.5656927 -0.03329333
-0.5954711 0.30012628 0.26278305 -1.164708 -0.12402624 -0.63424546 -0.46146068 0.04325514
0.37673602 0.3393207 -0.05471132 0.057357337 0.28821772 0.25884676 -0.13108234 -0.075135514
-0.43104962 0.44310752 -0.44740266 -0.6684258 -0.24470383 0.348002 -0.343483 0.1452209
-0.041783143 0.03916031 0.10134934 0.010980454 0.4261511 -0.08971066 0.18289739 -0.9321366
0.36925998 -0.1925886 0.2236323 -0.21116497 -0.0495399 -0.19660577 -0.33306694 0.11785208
-0.11988592 -0.13172962 -0.4968841 0.27773905 -0.15466912 0.4944149 0.14436296 0.33251542
0.11187844 0.118613884 -0.38620046 -0.15615606 0.020927299 0.94369537 -0.11701711 -0.4048347
-0.02205056 0.04708579 -0.049718495 -0.13288403 0.20082974 -0.72986805 -0.25304893 -0.24715471
-0.20122889 0.6065421 0.14172152 0.23119624 -0.9064134 -0.7633324 1.0679989 0.30581522
-0.8296818 -0.4606493 -0.28028396 -1.1468395 0.093730085 -0.26243648 0.3123485 -0.25493234
0.13897212 0.21535693 -1.0846523 0.6080606 -0.5439086 0.18476816 0.07445052 0.79325014
-0.2963807 0.011553554 -0.07339602 0.5768906 -0.15906157 0.5755263 0.32030904 -0.68661815
00000000: e471 ac3f 36d3 0abd a87f f8be 92a9 85bf
00000010: 5f6e 9ebd 95c7 ccbd ca19 3e3e 07d6 b43e
00000020: dabe 22bf 0caa 27bf 11b5 e53e cef9 f4bd
00000030: 376e 85be a962 3abe 39f9 ab3e 6298 99be
00000040: 28f7 8cbe 92e4 f3be 31d5 0e3e fe44 88bd
00000050: 9e7a ffbe 143c bd3d 98fb 0fbe 032e 3dbe
00000060: 19a7 9fbd aef5 bfbb 7f4c 133e 5044 fd3c
00000070: 68a2 203f b1d5 ce3e cf08 47bc b043 8a3e
00000080: cb5f 123e 83bf 25bf 49a3 7e3e aaf8 203f
00000090: 4ed5 a23e b84a 3abe 0b35 303e 20d9 a6be
000000a0: baef 34bd 2feb 043e 5825 2abe e765 d3be
000000b0: c4a5 b4bd bd22 db3b 6a92 f8bd 79a2 413f
000000c0: 9653 a23e f4b3 ab3e 4e81 673e 88a9 e73d
000000d0: b451 27be ec4a 043f fc20 5dbf f47a f7be
000000e0: d942 48bc 049a 81be 3681 65be 1c7a 5c3e
000000f0: 3166 663e 744e 3e3f b014 9cbd 5ddb fbbd
00000100: 6d3d dabd a0b9 813b ca8c 1d3e 87f0 52bf
00000110: f80a 48be 1336 203d 438f 41bf 9ab8 e1be
00000120: c0c8 67be 7da1 523f b714 603f c1f8 133e
00000130: 8403 0ebf a271 d3be cb60 643e 1f8d a53e
00000140: b001 c1bd 3e57 12be 69c0 6d3d c6b6 68be
00000150: 796c e5bd b415 c33e fa07 d83e 7f0f 1cbf
00000160: 353e ebba 85df e7bd 7a84 91be 909f 993e
00000170: 692c ccbd b141 0a3d 78b3 f83e 1624 6dbe
00000180: 22d8 ad3d ab0a c0bd 09e0 ff3d 456b 703e
00000190: 93d7 453e 64cc 85be 909c 593e 9335 023e
000001a0: ba68 8ebe 320a 4a3d 0465 983e c06e 6fbe
000001b0: 6168 debd 1ce5 7cbe 5a1a fabd b9aa 3c3e
000001c0: 9acc 153e eba5 d53d 0052 3a3f ad0d 6b3e
000001d0: 93ab 43bf f718 c6be 4fca e03c c9b4 d1bd
000001e0: 0e95 3c3e bbb6 003e ada7 0dbe b199 18bf
000001f0: 0a1a 503e 8de8 05be ef0d 60be c58f 3ebe
00000200: 7eb3 2f3f e509 94be 2695 19be 29b1 a5be
00000210: 6aee 24be f640 853e 2cc4 09be 2bfd 953d
00000220: 1e1e 87bd c952 ab3e 0dc4 de3e 57b2 353e
00000230: 44d3 003e c87c 913d a305 f1be 83c8 5bbb
00000240: c812 7cbc 4f97 03bf 742a 21bd af10 a23e
00000250: 7e40 9cbd 1151 c5be eed1 acbe bd35 923e
00000260: d220 dabc ae82 73be 469c 183e 2ed2 343e
00000270: 9977 b7bd 0c49 743d 3dd1 103f 965e 08bd
00000280: cb70 18bf 27aa 993e 808b 863e 2715 95bf
00000290: 7801 febd e95d 22bf 9344 ecbe 4d2c 313d
000002a0: 8be3 c03e 71bb ad3e fa18 60bd 87ef 6a3d
000002b0: 4691 933e 9087 843e 733a 06be a6e0 99bd
000002c0: 89b2 dcbe fdde e23e f611 e5be f41d 2bbf
000002d0: a493 7abe 512d b23e 01dd afbe cab4 143e
000002e0: cd24 2bbd 9066 203d 3e90 cf3d 5de7 333c
000002f0: 7a30 da3e 39ba b7bd 7449 3b3e 81a0 6ebf
00000300: a50f bd3e f235 45be deff 643e a13b 58be
00000310: 5aea 4abd 0653 49be c087 aabe 6e5c f13d
00000320: c086 f5bd 21e4 06be 9867 febe d033 8e3e
00000330: 9561 1ebe f323 fd3e e2d3 133e 763f aa3e
00000340: 8620 e53d d6eb f23d 11bc c5be 60e7 1fbe
00000350: ba6f ab3c 0596 713f aba6 efbd 7e46 cfbe
00000360: 60a3 b4bc 08dd 403d 9fa5 4bbd c012 08be
00000370: 50a6 4d3e a2d8 3abf a18f 81be 2016 7dbe
00000380: f20e 4ebe 5846 1b3f 721f 113e b5be 6c3e
00000390: b50a 68bf c169 43bf 30b4 883f d093 9c3e
000003a0: 0766 54bf 3ada ebbe 6181 8fbe a3cb 92bf
000003b0: 8ff5 bf3d 135e 86be 25ec 9f3e 7e86 82be
000003c0: b54e 0e3e 8786 5c3e e3d5 8abf dca9 1b3f
000003d0: 983d 0bbf dd33 3d3e 8479 983d 7112 4b3f
000003e0: 36bf 97be 1e4b 3d3c a750 96bd 1aaf 133f
000003f0: 09e1 22be b155 133f 8cff a33e 35c6 2fbf

rnn.weights_lin_z f4 [16, 19]
-0.12868062 -0.091019586 -0.16412619 0.42435542 -0.26489678 0.20505819 0.2441697 0.18237215
0.12582994 0.02117574 0.3006097 -0.13386172 -0.17028987 -0.14773853 -0.23653261 -0.26208854
-0.2858188 -0.271248 0.35250297 -0.07970332 -0.043810297 -0.5056681 -0.11731668 -0.20883645
0.30052918 -0.30866736 -0.21852954 -0.100654796 -0.070229195 0.1919755 0.120136626 -0.12995693
-0.25585794 0.023775863 0.37866116 -0.19873993 0.0061286413 -0.16795665 -0.15937692 -0.117590636
0.12713002 -0.37534243 -0.041143987 0.084160835 0.3183436 -0.20707002 -0.24817011 -0.16066264
0.28176892 -0.22466189 -0.005752041 -0.22982532 -0.13085137 -0.2396803 0.14050016 0.31692392
0.08034172 -0.12239778 -0.0027072069 0.14084269 -0.09381604 0.22439161 0.13299108 0.1754021
0.11506409 0.13724278 -0.15128613 -0.20807736 0.26324776 0.32063085 -0.1825352 0.34359
-0.0811405 -0.018811494 0.11621068 -0.19853373 0.113997795 -0.0041307104 0.2973737 -0.12837653
0.12857601 -0.04568498 0.13975643 0.22651967 -0.07844081 -0.3978289 -0.19294563 -0.21223198
0.10102276 0.31363133 0.13296634 0.26401007 -0.28774828 -0.35665312 0.18682617 0.066392384
0.053553455 0.06806462 -0.2513522 -0.023165183 0.41311666 0.24302551 0.31614003 -0.047441415
-0.12399598 -0.22091873 0.33361983 0.13849421 -0.14038613 0.016840056 0.28392172 -0.16076842
-0.27713215 -0.037781134 -0.041131895 0.3128423 -0.3724903 0.4463453 -0.40177712 -0.16037115
0.28649628 -0.063390486 0.30421948 0.14447589 0.31377152 -0.29320714 0.05135882 -0.12700091
-0.08876353 0.089068234 0.08783662 -0.091038585 0.08158968 -0.31752083 -0.20918207 0.003265069
-0.021250583 0.042620126 0.07834143 0.1416482 -0.060175966 0.07270475 -0.42508742 -0.22570242
0.19632791 0.065120846 0.3868745 -0.13260709 0.20073178 0.10107825 -0.37481263 0.05277222
-0.32361436 0.27957085 0.42383903 -0.5056763 0.36649 0.37163192 -0.13971752 -0.04924194
-0.0005793746 -0.1416402 -0.4632096 0.53030246 -0.05091881 0.013989136 0.17648526 -0.06827931
0.048359957 -0.075486645 -0.25938815 0.37760168 -0.017931826 -0.2767998 -0.21599671 -0.17107409
0.0077668796 -0.16426432 0.3393831 0.21390791 -0.28966334 0.07229586 -0.22855893 -0.1140901
0.17297696 -0.1413495 0.10953341 0.15343986 0.09119627 0.04047127 0.123024404 -0.33110547
0.22756682 0.311794 -0.029214315 -0.0040029874 -0.1754064 0.2157867 -0.026070174 0.2792433
0.081338555 -0.25747085 0.2131518 0.24405979 -0.03391083 0.005237545 0.36375383 -0.16009156
-0.13493915 -0.2057532 -0.08429907 0.398641 -0.38843063 0.07950211 -0.22207025 0.24212447
0.20367524 0.02619582 -0.08567923 -0.11078369 0.24778228 0.11987905 -0.10453973 -0.01834813
0.25991905 0.08336948 -0.22180332 -0.3426047 0.096529186 0.22962761 0.008882931 -0.26946062
0.078982204 -0.13647674 -0.04468836 0.07601472 0.077662155 0.15990064 0.06556202 -0.29458722
0.081290744 -0.09133242 0.05774104 -0.15036088 0.03562229 0.2749055 -0.25676697 -0.18295072
-0.0848336 0.23834704 -0.19255562 -0.11691294 -0.097829156 0.003250913 -0.094339184 -0.2380263
00000000: dac4 03be 7a68 babd b210 28be 1d45 d93e
00000010: 8da0 87be c6fa 513e 9f07 7a3e c4bf 3a3e
00000020: 90d9 003e bf78 ad3c 84e9 993e 0c13 09be
00000030: 7860 2ebe c548 17be 9b35 72be 7830 86be
00000040: d756 92be 05e1 8abe 457b b43e 7f3b a3bd
00000050: 6d72 33bd 7773 01bf ba43 f0bd 39d9 55be
00000060: f6de 993e a609 9ebe 35c6 5fbe 1a24 cebd
00000070: 53d4 8fbd 3a95 443e 310a f63d 6e13 05be
00000080: d0ff 82be 99c5 c23c e0df c13e 7b82 4bbe
00000090: c5d2 c83b d4fc 2bbe b433 23be 5cd3 f0bd
000000a0: 5f2e 023e e22c c0be 9986 28bd 845c ac3d
000000b0: effd a23e 2a0a 54be 4e20 7ebe bf84 24be
000000c0: 0444 903e c40d 66be 9e7b bcbb 5457 6bbe
000000d0: e7fd 05be c16e 75be 46df 0f3e da43 a23e
000000e0: 338a a43d b0ab fabd 656b 31bb 1139 103e
000000f0: a022 c0bd eac6 653e d02e 083e 9c9c 333e
00000100: b9a6 eb3d 5f89 0c3e c0ea 1abe 3b12 55be
00000110: 69c8 863e ba29 a43e 82ea 3abe 07eb af3e
00000120: fe2c a6bd 901a 9abc ddff ed3d 6d4c 4bbe
00000130: ad77 e93d e95a 87bb 5e41 983e 2375 03be
00000140: 6ea9 033e 2c20 3bbd 4f1c 0f3e c6f4 673e
00000150: 93a5 a0bd 3bb0 cbbe 8a93 45be 5753 59be
00000160: 05e5 ce3d 4994 a03e 5428 083e 542c 873e
00000170: be53 93be 3d9b b6be 5c4f 3f3e bbf8 873d
00000180: de5a 5b3d 7765 8b3d 3cb1 80be e9c4 bdbc
00000190: 0784 d33e aedb 783e 1bdd a13e ee51 42bd
000001a0: 9bf1 fdbd 8538 62be 38d0 aa3e 6dd1 0d3e
000001b0: 62c1 0fbe 28f4 893c 305e 913e 7aa0 24be
000001c0: 44e4 8dbe 64c0 1abd eb79 28bd de2c a03e
000001d0: 0cb7 bebe 5f87 e43e bbb5 cdbe 5638 24be
000001e0: a4af 923e dfd2 81bd a8c2 9b3e 7df1 133e
000001f0: a9a6 a03e 3f1f 96be a05d 523d 870c 02be
00000200: a7c9 b5bd 6869 b63d b0e3 b33d 7072 babd
00000210: 7d18 a73d 1792 a2be d333 56be c5fa 553b
00000220: b415 aebc 7192 2e3d 7971 a03d 3a0c 113e
00000230: 137b 76bd 3ae6 943d 0fa5 d9be 891e 67be
00000240: 2f0a 493e 145e 853d 6a14 c63e 27ca 07be
00000250: a28c 4d3e 1d02 cf3d 71e7 bfbe af27 583d
00000260: c8b0 a5be e923 8f3e 6e01 d93e 0174 01bf
00000270: 94a4 bb3e 8a46 be3e 1c12 0fbe ebb1 49bd
00000280: 2ce1 17ba 210a 11be cf29 edbe e7c1 073f
00000290: 3e90 50bd b032 653c 8db8 343e 06d6 8bbd
000002a0: 1715 463d be98 9abd 86ce 84be 0255 c13e
000002b0: c4e5 92bc b4b8 8dbe 3e2e 5dbe 0c2e 2fbe
000002c0: 4f81 fe3b e834 28be 9fc3 ad3e ad0a 5b3e
000002d0: c14e 94be da0f 943d 5a0b 6abe 12a8 e9bd
000002e0: df20 313e ecbd 10be 0d53 e03d 571f 1d3e
000002f0: 1cc5 ba3d 34c5 253d 38f4 fb3d a886 a9be
00000300: 4707 693e 77a3 9f3e dc52 efbc 7e2b 83bb
00000310: bc9d 33be 30f7 5c3e 1e91 d5bc faf8 8e3e
00000320: d494 a63d 38d3 83be 7744 5a3e cfea 793e
00000330: 15e6 0abd b69f ab3b f13d ba3e 0bef 23be
00000340: 7d2d 0abe f8b0 52be fea4 acbd ac1a cc3e
00000350: 61e0 c6be 01d2 a23d 6266 63be 7aef 773e
00000360: 3e90 503e 9e98 d63c 9878 afbd 8fe2 e2bd
00000370: a3ba 7d3e 2683 f53d ed18 d6bd d14e 96bc
00000380: 1c14 853e 9ebd aa3d 6920 63be e269 afbe
00000390: 18b1 c53d 8023 6b3e b789 113c bef6 89be
000003a0: 6cc1 a13d 8fc0 0bbe 240b 37bd 9bad 9b3d
000003b0: 560d 9f3d febc 233e 6145 863d 23d4 96be
000003c0: c37b a63d 7e0c bbbd de81 6c3d 34f8 19be
000003d0: aee8 113d 6ac0 8c3e f676 83be 6f57 3bbe
000003e0: 3dbd adbd 3f11 743e 4d2d 45be 0d70 efbd
000003f0: a75a c8bd 450d 553b e734 c1bd 2bbd 73be

rnn.bias f4 [48]
0.65415967 0.15548745 0.4708234 -0.0118171135 0.0914282 0.79112357 0.5583521 -0.106205866
-0.10635044 0.58165425 -0.07750763 -0.62564194 0.15534124 0.40693098 0.007506636 -0.049433503
0.17810853 0.10096484 -0.3939076 0.26763096 -0.3348626 -0.0745944 -0.35746962 -0.20550428
0.08553745 0.18793344 0.24179724 -0.25832433 -0.37024978 -0.26364145 -0.24606133 -0.10457777
0.28308934 1.2681584 0.44302872 0.064617135 0.9682246 0.45495027 0.20909937 0.7833323
0.7760639 -0.17751795 -0.084863484 0.2736041 0.57706785 0.8808815 1.049687 0.8164455
00000000: 0277 273f 1a38 1f3e c40f f13e 919c 41bc
00000010: b53e bb3d 1387 4a3f 2af0 0e3f 7682 d9bd
00000020: 42ce d9bd 4be7 143f 52bc 9ebd 122a 20bf
00000030: c611 1f3e 4259 d03e 3afa f53b c97a 4abd
00000040: 1562 363e a7c6 ce3d 42ae c9be ed06 893e
00000050: 1c73 abbe f3c4 98bd 4206 b7be b76f 52be
00000060: 422e af3d a071 403e b299 773e 1643 84be
00000070: 6191 bdbe 03fc 86be 80f7 7bbe df2c d6bd
00000080: 16f1 903e 0453 a23f a9d4 e23e fd55 843d
00000090: 91dd 773f 3eef e83e 251e 563e 7788 483f
000000a0: 20ac 463f 44c7 35be e8cc adbd d615 8c3e
000000b0: b8ba 133f 7381 613f 255c 863f 9302 513f

rnn.bias_lin_z f4 [16]
0.31588972 0.13158011 -0.26548588 -0.25769463 -0.32105738 0.019340819 0.12603123 0.044002254
-0.12260684 -0.022567816 0.058180794 0.031363517 0.20635483 0.20097601 0.24633917 -0.13518474
00000000: 4cbc a13e f0bc 063e c4ed 87be 8df0 83be
00000010: a261 a4be a370 9e3c 550e 013e b53b 343d
00000020: 4c19 fbbd 24e0 b8bc fc4e 6e3d 0877 003d
00000030: ae4e 533e a8cc 4d3e 5640 7c3e de6d 0abe

classifier.weight f4 [3, 16]
-0.22366394 -0.56404203 0.20367241 0.11071697 -0.35389844 -0.32450438 0.017297648 -0.068851896
-0.1097254 0.25660482 0.9511121 0.067297764 0.25539845 -0.14096777 -0.15088852 0.24234988
-0.54133385 0.1548624 0.26512212 0.11173337 -0.1255863 -0.41977617 0.05822627 -0.62085587
-0.15417714 0.108442776 -0.50132424 -0.540381 0.104647666 0.2672458 -0.5255557 0.9824903
0.3657729 -0.2995409 0.10501234 -0.90331775 0.66553175 -0.0066452273 0.31503382 -0.08758762
-0.40022835 0.46115986 -0.16742888 -0.58588713 -0.4813594 -0.5865059 -0.42413005 0.19092673
00000000: 2908 65be 0f65 10bf 808f 503e 94bf e23d
00000010: 2d32 b5be 7025 a6be ccb3 8d3c 3902 8dbd
00000020: b6b7 e0bd b561 833e 157c 733f 69d3 893d
00000030: 96c3 823e db59 10be 8582 1abe 912a 783e
00000040: db94 0abf 4094 1e3e 16be 873e 77d4 e43d
00000050: b299 00be e7ec d6be ab7e 6e3d 69f0 1ebf
00000060: 9de0 1dbe 3f17 de3d c956 00bf 6956 0abf
00000070: 8451 d63d 71d4 883e d18a 06bf 7c84 7b3f
00000080: 9646 bb3e 6d5d 99be b610 d73d d53f 67bf
00000090: 4a60 2a3f 35c0 d9bb 1d4c a13e 2361 b3bd
000000a0: bbea ccbe 251d ec3e 7a72 2bbe b3fc 15bf
000000b0: bd74 f6be 4025 16bf 9327 d9be 4c82 433e

classifier.bias f4 [3]
0.077997 0.0064265337 -0.06339015
00000000: e4bc 9f3d ac95 d23b b2d2 81bd
