Final Project/LEM-main/models/lorenz96/9/model.pt (torch, 725207 bytes, 6 tensors)

rnn.weights f4 [600, 220]
0	0xbd87e251	-0.06634963
1	0xbe229841	-0.15878393
2	0xbdd2a15a	-0.102846816
3	0x3d1501b6	0.036378585
4	0x3d7d4ab4	0.06183882
5	0x3e0f2aad	0.13981123
6	0xbe49d914	-0.19711715
7	0x3d63f2a2	0.055651315
8	0x3dcbeae8	0.09956914
9	0xbd6455bc	-0.055745825
10	0xbdfe7bd8	-0.12425965
11	0xbda3b3b8	-0.07993263
12	0xbbbcfb27	-0.0057672444
13	0x3d339fc5	0.04385354
14	0x3c333936	0.010938933
15	0xbdd3e3ab	-0.103461586
16	0xbe4d2f6d	-0.20037623
17	0xbb1442e7	-0.0022622885
18	0x3d116ae1	0.03550232
19	0x3dba0f16	0.09084909
20	0xbc022c5a	-0.007945145
21	0x3d774971	0.060372774
22	0x3e03a677	0.1285647
23	0xbb5ad897	-0.0033393258
24	0x3e024aaf	0.12723802
25	0x3e90b931	0.2826629
26	0xbd328978	-0.04358813
27	0x3e2b1540	0.16707325
28	0x3db5aa01	0.08870316
29	0xbe297c87	-0.1655141
30	0x3db18b11	0.08669103
31	0xbda9352a	-0.08262093
32	0xbd9d7b29	-0.076895066
33	0xbe3ce724	-0.18447548
34	0x3c4ab55a	0.012372339
35	0xbe068725	-0.13137491
36	0xbb4eaece	-0.0031537297
37	0x3d822eee	0.063566074
38	0x3dcb1ba1	0.09917379
39	0xbdda40dd	-0.10656903
40	0xbdcfe4da	-0.10151072
41	0x3d9db2dd	0.07700131
42	0xbcf2f2cf	-0.029656796
43	0xbbf8b8bb	-0.007590381
44	0xbd470cd5	-0.048596222
45	0xbe4af141	-0.19818594
46	0x3ca15a40	0.019696355
47	0xbd0a4369	-0.033755694
48	0x3e2af44f	0.16694759
49	0x3dae1e9e	0.085019335
50	0x3dcd68b0	0.10029733
51	0x3e3f3de8	0.18675959
52	0x3d735d58	0.05941519
53	0x3e23b96f	0.15988706
54	0x3de40b8d	0.11135016
55	0x3bc2f032	0.0059490437
56	0x3d0caaa3	0.03434242
57	0xbc9ded06	-0.01927806
58	0xbe037d34	-0.1284073
59	0x3d98f9ee	0.07469545
60	0x3dd8e1db	0.105899535
61	0xbd80db5a	-0.06291838
62	0x3d92964d	0.07157574
63	0xbe781461	-0.24226524
64	0xbe22927c	-0.15876192
65	0x3da155b3	0.07877674
66	0xbd8464da	-0.064645484
67	0x3cbcd749	0.023051875
68	0xbe580e47	-0.21099196
69	0x3dd9dea0	0.106381655
70	0x3e141771	0.14462067
71	0x3cebc100	0.028778553
72	0xbe7d7d32	-0.2475479
73	0x3d83f6da	0.064435676
74	0x3cb9194c	0.02259507
75	0x3c9445c9	0.018099682
76	0x3dacd56c	0.084391445
77	0x3de39bf6	0.111137316
78	0x3e32b10c	0.1745035
79	0xbc23a576	-0.009988179
80	0xbd0379e4	-0.032098666
81	0x3d8a9063	0.06765821
82	0xbbe2ddd7	-0.006923418
83	0x3d2c30f0	0.042038858
84	0xbd7cf45c	-0.061756477
85	0x3e1abc98	0.15111005
86	0xbd4618e6	-0.04836359
87	0xbd9fb210	-0.077976346
88	0xbe252d1b	-0.16130488
89	0x3df47634	0.11936608
90	0x3e00918d	0.12555523
91	0x3c5085cb	0.012727211
92	0xbe305278	-0.1721896
93	0x3b9c9128	0.004778046
94	0xbdb86a01	-0.09004594
95	0xbe3ff0b4	-0.18744165
96	0xbe246cf1	-0.16057183
97	0xbd196f4d	-0.03745966
98	0xbb82a863	-0.0039873584
99	0xbdad246b	-0.08454212
100	0xbdc49d39	-0.096003
101	0x3ba018de	0.004885777
102	0x3e25a43a	0.16175929
103	0x3d814ab6	0.06313078
104	0xbdca9da6	-0.0989335
105	0x3e3be651	0.18349577
106	0x3d837334	0.064184576
107	0x3c468f5e	0.012119142
108	0xbc40e7bb	-0.011773999
109	0xbde61a54	-0.112354904
110	0xbd0e00ed	-0.03466885
111	0xbdc02325	-0.09381703
112	0xbcad1218	-0.021126792
113	0xbdc4ed03	-0.09615519
114	0x3d753944	0.059869066
115	0x3e029542	0.1275225
116	0x3dcacb23	0.099020265
117	0x3d732d1a	0.059369184
118	0x3de7a64e	0.11311017
119	0x3e13b962	0.14426187
120	0xbe50df79	-0.20397748
121	0x3d89fb15	0.06737343
122	0xbc864e39	-0.016394721
123	0xbd50d432	-0.050983615
124	0x3da0cce3	0.07851579
125	0x3d8cf189	0.06882007
126	0xbc657366	-0.014004564
127	0xbd5f41a5	-0.054505963
128	0x3e79534f	0.24348186
129	0xbd8b2a87	-0.06795221
130	0x3d288561	0.041142825
131	0x3e40bd08	0.1882211
132	0xbe14e793	-0.14541464
133	0xbe231c9f	-0.15928887
134	0xbd0193c7	-0.031635072
135	0xbd0fb451	-0.035084073
136	0x3d577284	0.052599445
137	0xbe075bff	-0.13218687
138	0xbd9cdce3	-0.07659318
139	0xbe547162	-0.20746377
140	0xbb234f5a	-0.0024919123
141	0x3d32cecd	0.04365425
142	0x3c9cbfa8	0.019134358
143	0x3d4a76ca	0.049429692
144	0x3d39f26c	0.045397207
145	0x3d8b1131	0.067903884
146	0xbe0db3a3	-0.13838057
147	0x3d569a44	0.052393213
148	0xbd12e2d1	-0.03586084
149	0xbe0cf033	-0.13763504
150	0xbdf10ffd	-0.11770628
151	0x3d6d0344	0.057864442
152	0x3d693799	0.056937788
153	0xbd665fb8	-0.05624363
154	0xbd63860f	-0.05554777
155	0xbe046f95	-0.1293319
156	0xbccb1a06	-0.024792682
157	0x3e617eac	0.22020978
158	0x3e8098f2	0.25116688
159	0xbda07602	-0.07835008
160	0xbd9fcbab	-0.078025185
161	0xbb66904b	-0.003518122
162	0x3daba6de	0.08381437
163	0xbd0a9f93	-0.033843588
164	0xbe21a2b7	-0.15784727
165	0xbc270ac2	-0.010195436
166	0xbdda4433	-0.10657539
167	0xbd8a2790	-0.06745827
168	0x3ddc7de9	0.10766203
169	0x3df7af50	0.12093985
170	0x3d931089	0.07180888
171	0xbd84c384	-0.06482604
172	0xb9b8bdc7	-0.0003523661
173	0xbd0b047a	-0.033939816
174	0xbd18af1a	-0.037276365
175	0x3e0617da	0.13095036
176	0x3d63dc02	0.055629738
177	0xba6c762e	-0.00090202957
178	0xbc8c771b	-0.017146638
179	0x3d238dd1	0.03993017
180	0x3d78fc92	0.060787745
181	0xbd268980	-0.040658474
182	0xbdffb683	-0.12485983
183	0xbe07c502	-0.13258746
184	0x3dd072b9	0.101781316
185	0xbe0d4f37	-0.1379975
186	0x3e057f41	0.13036825
187	0x3c3637f1	0.011121736
188	0xbdee9b33	-0.11650696
189	0xbddc4651	-0.10755599
190	0xbcfcf9cd	-0.030880833
191	0xbb5c1e02	-0.0033587222
192	0xbc9395a7	-0.018015696
193	0x3d98b462	0.0745628
194	0x3e12b7dc	0.1432795
195	0x3db9370c	0.090437025
196	0xbd8d0e44	-0.068874866
197	0xbb6f2229	-0.0036488867
198	0x3c838f73	0.016059613
199	0x3e1306a5	0.14358003
200	0x3cfdc854	0.030979313
201	0xbc676e16	-0.014125368
202	0x3d0b8b86	0.034068607
203	0x3d12ddb9	0.035855982
204	0x3c90ab67	0.017659856
205	0x3d6f5f5a	0.058440544
206	0xbc97c97c	-0.018528692
207	0x3cfb9343	0.030709868
208	0x3c7596d8	0.014989577
209	0xbd8074e5	-0.06272296
210	0x3ddf3279	0.10898299
211	0x3e6aee15	0.22942384
212	0xbdd29e6b	-0.10284122
213	0x3d89ca58	0.06728047
214	0xbe3a6bbd	-0.18205161
215	0xbdc42930	-0.095781684
216	0xbd88c744	-0.06678632
217	0x3c7345a3	0.014848146
218	0xbc701d26	-0.014655387
219	0xbdd6ea04	-0.10493854
220	0xbdc2f742	-0.09519817
221	0xbe40fe2c	-0.18846959
222	0x3ce4541d	0.02787214
223	0x3da1046a	0.0786217
224	0x3d7d8f6d	0.06190436
225	0x3e14211e	0.14465758
226	0x3d91ceba	0.07119508
227	0x3d9f1699	0.07767982
228	0xbd96568f	-0.073407285
229	0xbd59c4d8	-0.05316624
230	0xbdaacc95	-0.08339802
231	0xbdb5d315	-0.08878151
232	0xbe14898a	-0.14505592
233	0x3da3e5a0	0.08002782
234	0x3af38333	0.0018578529
235	0xbe85cb68	-0.2613175
236	0xbd198139	-0.037476752
237	0x3d356724	0.044287816
238	0x3d823f66	0.063597485
239	0x3c76c486	0.015061503
240	0xbd844b47	-0.064596705
241	0x3d1b2289	0.037874732
242	0x3d294423	0.041324746
243	0xbd391370	-0.045184553
244	0x3dadef62	0.08492924
245	0x3e13acbc	0.14421362
246	0x3ddda78a	0.10822971
247	0x3e0337df	0.12814282
248	0x3d81a55b	0.06330367
249	0xbe58ece8	-0.21184123
250	0x3d86d612	0.065837994
251	0xbe746b61	-0.23869087
252	0xbdd13312	-0.10214819
253	0x3d34482c	0.04401414
254	0xbe68d396	-0.22736964
255	0x3df0a9fc	0.11751172

rnn.weights_lin_z f4 [200, 220]
0	0x3c7a143e	0.015263615
1	0x3d503330	0.050830066
2	0xbc01a4c7	-0.007912821
3	0x3d9b268e	0.07575713
4	0xbd97e8b0	-0.074174285
5	0x3babbc4d	0.005240953
6	0x3d8a37ec	0.067489475
7	0x3d8ff8e7	0.07029896
8	0x380c6b0b	3.3478293e-05
9	0x3d9d9d18	0.07695979
10	0xbdbd186b	-0.09233173
11	0xbd60cc9a	-0.054882623
12	0xbd363fd7	-0.044494476
13	0xbb3ac7d4	-0.0028500455
14	0x3d72eecf	0.059309777
15	0x3dac0c13	0.084007405
16	0x3c0e0db9	0.008670264
17	0x3da0ee7d	0.07857988
18	0xbd5a4a49	-0.0532935
19	0x3dbe7475	0.09299556
20	0xbc9596b7	-0.018260343
21	0xbda366a1	-0.07978559
22	0xbdd1ec0a	-0.10250099
23	0xbca8b705	-0.020595083
24	0xbc973c06	-0.018461239
25	0x3cc7945d	0.024362737
26	0xbc4ac436	-0.012375882
27	0xbd78191a	-0.060570814
28	0xbd696d1c	-0.05698882
29	0xbe0f4066	-0.1398941
30	0x3d401671	0.0468964
31	0x3c83065b	0.015994241
32	0xbc12798a	-0.00894011
33	0xbcc4fd13	-0.024046456
34	0x3ca283cb	0.019838234
35	0xbcbb31a1	-0.022850813
36	0xbcd259f2	-0.025677655
37	0x3d8b8f50	0.06814444
38	0x3b965117	0.0045873034
39	0x3c917c10	0.017759353
40	0xbd068722	-0.032843716
41	0xbd5dfc44	-0.054195657
42	0xbdb8bd95	-0.09020535
43	0xbd533b63	-0.051570307
44	0xbd193498	-0.037403673
45	0x3df6f594	0.12058559
46	0xbc44d274	-0.012013067
47	0x3debe3db	0.11518069
48	0xbcbb02e6	-0.02282853
49	0x3c4594c6	0.012059396
50	0xbd6ed748	-0.058310777
51	0xbb200293	-0.0024415597
52	0x3d39a1fb	0.045320492
53	0x3cb36359	0.021897959
54	0x3c606754	0.01369651
55	0x3d96bdbf	0.0736041
56	0xbcaa50b7	-0.020790441
57	0x3cf4d07f	0.029884575
58	0x3ddce670	0.1078614
59	0x3d08dcbf	0.033413645
60	0x3d272342	0.04080511
61	0x3d5748b0	0.052559555
62	0xbd8107a8	-0.063002884
63	0x3bcb6f6e	0.006208352
64	0xbcbcbeba	-0.023040164
65	0x3de4a203	0.11163714
66	0xbd48c2a2	-0.04901374
67	0x3ad6c7cd	0.001638645
68	0xbd1c77fe	-0.03820037
69	0x3dd2b6b6	0.102887556
70	0xb9231664	-0.00015553233
71	0x3e083f20	0.1330533
72	0xbb817d0c	-0.0039516743
73	0xbd52a992	-0.051431246
74	0xbda0d0f3	-0.07852354
75	0xbc88fa87	-0.016721023
76	0x3cbca9f5	0.02303026
77	0xba31c451	-0.00067812676
78	0xbc1bcccd	-0.0095092775
79	0x3bdea9cb	0.0067951432
80	0xbc14a406	-0.009072309
81	0x3c9a307a	0.018821944
82	0x3c164a2a	0.0091729555
83	0xbd90ee45	-0.07076696
84	0xbd8a7459	-0.06760473
85	0xbb0713e9	-0.0020611233
86	0x3d55c5e1	0.052190665
87	0xbd12fddc	-0.03588663
88	0x3cb2c2b3	0.021821355
89	0xbd07c9c3	-0.0331514
90	0x3dc7f9ad	0.09764419
91	0xbb29e86b	-0.0025925885
92	0xbbc04271	-0.0058672954
93	0x3d9c188a	0.07621868
94	0x3cd0e256	0.02549855
95	0xbd32978a	-0.04360155
96	0x3b2246ef	0.0024761518
97	0xbd70251f	-0.05862915
98	0xbdb2eadc	-0.08736202
99	0xbb95a2e1	-0.004566536
100	0x3c04f8c1	0.008115948
101	0x3b37a0c0	0.0028019398
102	0xbd52e6bc	-0.051489577
103	0x3c2f5d9c	0.010703471
104	0xbd4a8ae9	-0.04944888
105	0xbc3d042d	-0.01153664
106	0x3d9369d0	0.071979165
107	0xbd959bce	-0.07305108
108	0xbddf53b9	-0.10904641
109	0x3d930ba3	0.07179954
110	0xbda63f6f	-0.08117568
111	0xbbeb1960	-0.007174656
112	0xbd6c2eba	-0.05766175
113	0xbc4bf698	-0.012448929
114	0x3d91f2e4	0.07126406
115	0xbd2a5348	-0.04158333
116	0xbd48f110	-0.04905802
117	0xbd656d3c	-0.056012377
118	0x3cec5f71	0.028854104
119	0xbd033767	-0.032035258
120	0xbdb99bf7	-0.09062951
121	0x3baf5fbe	0.0053519895
122	0x3d6a1f95	0.057159025
123	0xbd338a67	-0.043833163
124	0xbd1babb3	-0.038005542
125	0x3d88acc8	0.066735804
126	0xbd47c88b	-0.048775237
127	0xbd644406	-0.055728935
128	0x3dade8b8	0.08491653
129	0xbd15efa0	-0.036605477
130	0x3d57bb56	0.05266889
131	0x3c400891	0.011720792
132	0x3d35aa1a	0.044351675
133	0x3c57d163	0.01317248
134	0x3d11c983	0.035592567
135	0xbb101aae	-0.0021988559
136	0x3d006ec7	0.031355646
137	0x3d809929	0.06279213
138	0xbd89cd9e	-0.067286715
139	0xbdb149f8	-0.086566865
140	0x3de60e3b	0.11233183
141	0xbdb2c1f9	-0.087284036
142	0xbba03bb1	-0.0048899283
143	0x3cbf4674	0.023349024
144	0x3d748078	0.05969283
145	0x3d1be0ae	0.038056068
146	0x3d42ff94	0.04760702
147	0x3d016cd8	0.031597942
148	0xbca57fa1	-0.02020246
149	0xbd6a1ff3	-0.057159375
150	0xbdabf960	-0.08397174
151	0x3d085714	0.03328617
152	0xbd6230c8	-0.055222303
153	0x3d13bcb1	0.036068622
154	0x3d652508	0.05594352
155	0x3ccabcbc	0.024748199
156	0xbb5dab81	-0.0033824148
157	0xbd8313fc	-0.06400296
158	0xbd9d6693	-0.0768558
159	0x3dc12ced	0.09432397
160	0xbc60a3c6	-0.013710922
161	0xbd8c1ffd	-0.06842039
162	0xbad394c4	-0.0016142358
163	0xbdabb917	-0.083849125
164	0xbd6d3f61	-0.05792177
165	0x3db7fd4d	0.0898386
166	0x3ca7ca6a	0.02048226
167	0xbc852983	-0.016255146
168	0x3d847d1b	0.064691745
169	0xbaca495e	-0.0015433242
170	0xbd7fb1af	-0.06242531
171	0xbd373c9c	-0.044735536
172	0xbe051b99	-0.12998809
173	0x3d1070e4	0.03526391
174	0x3c7fc98b	0.015612016
175	0x3d86edee	0.0658835
176	0x3d13300f	0.035934504
177	0x3c537f4f	0.012908771
178	0xbd39149e	-0.045185678
179	0x3dd28c6b	0.10280689
180	0x3d9003d3	0.070319794
181	0x3caa4d2c	0.020788752
182	0xbc97b25f	-0.018517671
183	0x3b82d83e	0.0039930632
184	0x3d6c3c7d	0.057674874
185	0xbca7e5c4	-0.020495303
186	0x3bde4b2d	0.006783864
187	0xbd7d8958	-0.06189856
188	0x3c844cd2	0.016149912
189	0x3d6f1033	0.05836506
190	0x3c9bc49a	0.019014645
191	0xbc882f62	-0.016624156
192	0xbae27a8c	-0.0017278953
193	0x3d607ad8	0.054804653
194	0xbc924f3e	-0.017860051
195	0xbda115fb	-0.078655206
196	0x3c931891	0.01795605
197	0x3d187dbf	0.037229296
198	0xbd1a5ec1	-0.03768802
199	0x3c70c84b	0.014696191
200	0xbdb5d1d3	-0.088779114
201	0xbc603175	-0.0136836665
202	0xbd15dc2b	-0.03658692
203	0x3cebf294	0.028802194
204	0x3c2445d4	0.010026414
205	0x398dc69c	0.0002704159
206	0x3d117851	0.035515133
207	0xbc3bf176	-0.011471143
208	0x3cf7717f	0.030205486
209	0xbd52da44	-0.051477686
210	0xbd5c2b8d	-0.05375247
211	0x3d1ca38c	0.038241908
212	0x3ccf6f9b	0.025321772
213	0x3d63693a	0.055520274
214	0xbd389e77	-0.045073
215	0x3d79e863	0.061012637
216	0xbd83a6d4	-0.06428304
217	0xbcb34295	-0.021882335
218	0xbc8ef49f	-0.017450629
219	0xbd1c3b8b	-0.038142722
220	0x3c70c848	0.014696188
221	0x3d207685	0.03917553
222	0xbcf04aca	-0.029332537
223	0x3d4e654b	0.05038957
224	0xbd426d76	-0.04746767
225	0x3daabe66	0.08337097
226	0x3baffeca	0.0053709494
227	0x3d9e850e	0.07740222
228	0x3d17a638	0.037023753
229	0xbcdc417f	-0.0268867
230	0xbcfd57bb	-0.030925622
231	0xbd48678b	-0.04892687
232	0x3b291754	0.0025801258
233	0x3c734a79	0.014849299
234	0xbdb46ce2	-0.0880983
235	0x3c377e24	0.011199508
236	0x3dc7bf41	0.09753276
237	0x3bb6cb8b	0.0055784634
238	0xbcd62994	-0.026142873
239	0xbdd4c24a	-0.1038862
240	0x3da6291d	0.081133105
241	0xbd92721f	-0.07150673
242	0x3dbccd4c	0.09218845
243	0xbdc18a3b	-0.094501935
244	0xba87b282	-0.0010352882
245	0x3e1d4250	0.15357327
246	0xbbb7507a	-0.0055943104
247	0x3d768603	0.060186397
248	0xbd6b4878	-0.05744216
249	0x3d1471dd	0.0362414
250	0x3bcee010	0.0063133314
251	0x3d193667	0.037405398
252	0xbd429fd6	-0.047515713
253	0x3d77c512	0.060490675
254	0x3d86b0f2	0.065767184
255	0x3d44d003	0.048049938

rnn.bias f4 [600]
0	0x3e7037fd	0.23458858
1	0x3e9ca792	0.30596596
2	0x3e9a4c22	0.3013621
3	0x3df38554	0.11890665
4	0x3e31b225	0.17353113
5	0x3e217b6a	0.15769735
6	0x3e5e63b0	0.21717715
7	0x3d6e370a	0.058157958
8	0x3e7453b0	0.23860049
9	0x3e05a252	0.13050202
10	0x3e82a27a	0.25514585
11	0x3e570d55	0.2100118
12	0x3e8894b5	0.26675954
13	0x3e25b00f	0.16180442
14	0x3d4ce9b7	0.050027575
15	0x3e4f4e56	0.20244727
16	0x3ea09c31	0.31369165
17	0x3dc4ad3f	0.096033566
18	0x3e340c2f	0.17582773
19	0x3e181127	0.14850293
20	0x3d25952e	0.040425472
21	0x3e826a8e	0.2547192
22	0x3e3eba70	0.18625808
23	0x3ef7f7af	0.48431155
24	0x3e7ef7f7	0.24899279
25	0x3da76f76	0.08175556
26	0x3e146483	0.14491467
27	0x3eccded1	0.40013745
28	0x3e2df806	0.16989145
29	0x3e63f277	0.22260462
30	0x3e00ef32	0.12591246
31	0x3e466f67	0.19378434
32	0x3e5a742b	0.21333377
33	0x3e4df4e3	0.20112948
34	0x3e1c6343	0.1527224
35	0x3e8978ef	0.26850078
36	0x3eb52196	0.35377187
37	0x3ea3cb7e	0.3199119
38	0x3e824677	0.25444385
39	0x3e06a6af	0.13149522
40	0x3dcb5478	0.099282205
41	0x3e9c1fb3	0.30492935
42	0x3df70167	0.12060814
43	0x3e5632a6	0.20917758
44	0x3eb729d5	0.35774103
45	0x3dfadd78	0.12249273
46	0x3e79a031	0.24377514
47	0x3eafef8f	0.34362456
48	0x3e898a9c	0.26863563
49	0xbb6f4691	-0.0036510567
50	0x3e8dd01c	0.27697837
51	0x3e9f5064	0.3111602
52	0x3dbe7d7a	0.093012765
53	0x3e813d59	0.25242117
54	0x3e679084	0.22613722
55	0x3e124137	0.1428269
56	0x3da63ddd	0.08117268
57	0x3eb533c2	0.3539105
58	0x3e4bf0f6	0.19916138
59	0x3e018a9f	0.12650536
60	0x3edb2438	0.4280107
61	0x3e5d5f6b	0.2161843
62	0x3e1ea983	0.15494351
63	0x3e9e2a42	0.30891615
64	0x3e99892c	0.29987466
65	0x3e9bd688	0.30437112
66	0x3ee06f91	0.43835118
67	0x3e24e80a	0.16104141
68	0x3e2dd1ef	0.16974615
69	0x3e782c25	0.2423559
70	0x3e0aa6b9	0.13540162
71	0x3ec913a3	0.39272794
72	0x3e1bed75	0.15227301
73	0x3e36b443	0.17842202
74	0xbcc29b48	-0.023755684
75	0x3df49062	0.11941601
76	0x3ebfa632	0.37431484
77	0x3e4f543b	0.20246975
78	0x3e562ee7	0.2091633
79	0x3e854465	0.26028743
80	0x3ddad245	0.10684637
81	0x3e844780	0.258358
82	0x3e01f1fb	0.12689964
83	0x3e3da322	0.18519261
84	0x3e577638	0.2104119
85	0x3e53af3d	0.20672317
86	0x3e655261	0.22394706
87	0x3e60a9fe	0.21939847
88	0x3ebea6f7	0.3723676
89	0x3e6b69d2	0.22989586
90	0x3e90c23a	0.28273183
91	0x3ea81b3a	0.32833272
92	0x3ebd3de9	0.36961296
93	0x3e80c4ab	0.25150046
94	0x3e37445e	0.17897174
95	0x3e6a40bb	0.22876255
96	0x3e430018	0.19043005
97	0x3eaa192f	0.3322234
98	0x3eada1c3	0.33912477
99	0xba43f69d	-0.0007475408
100	0x3ea4fa7a	0.32222348
101	0x3e6e1134	0.2324875
102	0x3e5c50e4	0.21515232
103	0x3de54c07	0.11196142
104	0x3e71fb95	0.23631127
105	0x3e60a386	0.21937379
106	0x3e112ad7	0.14176498
107	0x3e072a75	0.1319979
108	0x3e9db086	0.3079874
109	0x3e583de3	0.21117358
110	0x3e8ca6df	0.27471063
111	0x3e9a020f	0.30079696
112	0x3e5e987d	0.21737857
113	0x3e0d503b	0.13800137
114	0x3e9c3b5e	0.30514044
115	0x3eb03a74	0.34419596
116	0x3e244a06	0.16043863
117	0x3eb72f99	0.35778502
118	0x3e8d0b02	0.2754746
119	0x3e90f518	0.28311992
120	0x3e795cfe	0.2435188
121	0x3e08fcc5	0.13377674
122	0x3e40a7c1	0.18813993
123	0x3d9f199e	0.07768558
124	0x3cf45f9f	0.029830752
125	0x3e573505	0.21016319
126	0x3e08b6b6	0.13350949
127	0x3e0e1147	0.13873778
128	0x3e563fb4	0.20922738
129	0x3e538322	0.20655492
130	0x3e568677	0.20949732
131	0x3ebc827f	0.3681831
132	0x3e6d5fb9	0.23181047
133	0x3e8ed8f0	0.27899885
134	0x3e130304	0.14356619
135	0x3e70ab43	0.23502831
136	0x3d33ac51	0.043865506
137	0x3ea52dfa	0.3226164
138	0x3e161efc	0.14660257
139	0x3e368bc8	0.1782676
140	0x3e2603aa	0.16212335
141	0x3e4ff099	0.20306624
142	0x3e665702	0.22494128
143	0x3d2e5a07	0.042566326
144	0x3e6b3fbf	0.22973536
145	0x3df78ea5	0.12087754
146	0x3e244ee4	0.1604572
147	0x3e872edc	0.26402938
148	0x3e3141df	0.17310284
149	0x3e0a47f6	0.13504013
150	0x3e908742	0.28228194
151	0x3dbeb963	0.093127035
152	0x3e628eb1	0.22124745
153	0x3d22bcac	0.039730713
154	0x3e4c030a	0.19923034
155	0x3e830a5a	0.25593835
156	0x3eaa59b1	0.33271554
157	0x3e33f655	0.17574437
158	0x3e9754d7	0.29556915
159	0x3e4d1cf8	0.20030582
160	0x3e2114d3	0.157306
161	0x3e262f21	0.16228916
162	0x3ea5e20f	0.32399032
163	0x3e1cc64b	0.15310018
164	0x3e58e800	0.21182251
165	0x3e84c26d	0.25929585
166	0x3e63b0bd	0.22235389
167	0x3ebdeb97	0.37093803
168	0x3d6086c2	0.054816015
169	0x3d89f305	0.067358054
170	0x3e312fd9	0.17303409
171	0xbd93caed	-0.072164394
172	0x3ea85677	0.32878467
173	0x3e88e390	0.26736116
174	0x3e569187	0.20953952
175	0x3e0e2f28	0.13885176
176	0x3e74ccd0	0.23906255
177	0x3ecfaf70	0.40563536
178	0x3d9ed12e	0.077547416
179	0x3e2db2fd	0.1696281
180	0x3e96038b	0.29299578
181	0x3e6a7f55	0.22900136
182	0x3daeeb13	0.085409306
183	0x3e48680e	0.19570944
184	0x3eaa487a	0.3325842
185	0x3e2544dc	0.16139549
186	0x3e0d1b72	0.13780001
187	0x3d8259b6	0.06364767
188	0x3e783bd1	0.24241568
189	0x3e90cdd1	0.28282025
190	0x3e521909	0.20517363
191	0x3e3c607b	0.1839618
192	0x3eb0ef58	0.34557605
193	0x3e08f235	0.13373645
194	0xbc0b349f	-0.008496433
195	0x3e25b226	0.1618124
196	0x3d2f5ff2	0.04281611
197	0x3eaf6549	0.34256962
198	0x3e0b2280	0.1358738
199	0x3e5b67ea	0.21426359
200	0x3d84590c	0.06462297
201	0xbe335a0c	-0.17514819
202	0xbe1ba1da	-0.1519846
203	0xbdb6e4b6	-0.08930342
204	0x3d84ea81	0.064900406
205	0xbdea09d0	-0.11427653
206	0xbc96e14c	-0.018417977
207	0xbc917226	-0.017754626
208	0x3db43cee	0.08800684
209	0xbd28dfd5	-0.041229088
210	0xbe12ea94	-0.14347297
211	0x3d085ae2	0.033289798
212	0x3cba42db	0.022736957
213	0xbc8732f2	-0.016503785
214	0x3dad530f	0.08463108
215	0x3c254307	0.010086781
216	0xbe0c0817	-0.13674961
217	0xbdeec6eb	-0.11659034
218	0xbe3bcb34	-0.18339235
219	0xbdc822ba	-0.097722486
220	0xbddcc0f9	-0.10778994
221	0x3de43bf4	0.11144248
222	0xbdb734de	-0.089456305
223	0xbe5ccdc7	-0.21562873
224	0xbd8406c4	-0.06446603
225	0x3d9250db	0.07144328
226	0xbd3dc32b	-0.046328705
227	0xbe37b7f9	-0.17941274
228	0x3dbbde0d	0.09173212
229	0xbe3798c7	-0.17929374
230	0x3e0780a5	0.13232668
231	0xbc0ce8ba	-0.008600408
232	0xbdb62139	-0.088930555
233	0xbd4341a4	-0.04767002
234	0xbdf67e72	-0.12035836
235	0x3e52c844	0.20584208
236	0xbe73b5fc	-0.2379989
237	0x3e25cb94	0.1619094
238	0xbd9a4daf	-0.07534348
239	0x3df999b7	0.12187522
240	0xbb6f7e8b	-0.0036543931
241	0xbbb41d02	-0.005496622
242	0x3d5f007c	0.05444382
243	0xbdf36d5b	-0.11886092
244	0x3cb3c995	0.021946708
245	0x3d4423ac	0.04788558
246	0xbd5d51cd	-0.05403309
247	0x3dbff759	0.0937335
248	0xbe3f88e4	-0.18704563
249	0xbd66018d	-0.056153823
250	0xbd899d65	-0.06719474
251	0x3e1d37d4	0.15353328
252	0x3d535a34	0.051599696
253	0xbd54c10d	-0.05194192
254	0xbd591439	-0.0529978
255	0x3cf1eb71	0.029531213

rnn.bias_lin_z f4 [200]
0	0x3d87eeae	0.066373214
1	0xbe2ae9f2	-0.16690806
2	0xbe2ce11f	-0.16882752
3	0x3e26aa82	0.16275981
4	0x3d7ab6c5	0.06120946
5	0xbcc23530	-0.023707002
6	0xbd6359ac	-0.05550544
7	0xbdf91c5f	-0.121636145
8	0x3e10fe85	0.14159591
9	0xbe12fed5	-0.14355023
10	0xbdd598a6	-0.10429506
11	0xbd4ad571	-0.04951996
12	0xbdca17f5	-0.09867851
13	0xbd670a47	-0.056406286
14	0x3cb779cf	0.02239695
15	0xbd1324b5	-0.03592368
16	0xbe14075f	-0.14455937
17	0xbd09ae7d	-0.03361367
18	0x3e15418f	0.1457579
19	0x3ddc5a71	0.10759438
20	0x3d0f7496	0.035023294
21	0x3d86b306	0.06577115
22	0x3c499379	0.012303227
23	0xbdde4a4c	-0.10854015
24	0x3e05b7ed	0.13058443
25	0x3da14492	0.07874407
26	0xbdd0024b	-0.10156687
27	0x3e5cf4e4	0.21577793
28	0xbd127e70	-0.03576511
29	0xbce0ee3f	-0.027457355
30	0x3d1f241a	0.03885279
31	0xbc984867	-0.018589212
32	0x3b260752	0.0025333953
33	0xbe009daf	-0.12560152
34	0xbbfe62fe	-0.0077632656
35	0xbd303e8f	-0.04302841
36	0xbe1181d9	-0.14209689
37	0x3df9800c	0.12182626
38	0xbd8e6de2	-0.06954552
39	0x3db5d780	0.08878994
40	0xbd17f8b4	-0.037102416
41	0x3d7695a3	0.0602013
42	0xbdb0fca9	-0.08641941
43	0x3dd2d05a	0.10293646
44	0xbe52f5e0	-0.20601606
45	0xbd92f189	-0.071749754
46	0x3d44c231	0.048036758
47	0xbd3a147c	-0.04542969
48	0x3d61f4d4	0.055165127
49	0x3dd70fe6	0.10501079
50	0x3d8e7173	0.069552325
51	0x3e274a04	0.16336828
52	0x3e2e7d3a	0.17039958
53	0x3e3d278a	0.18472114
54	0x3df52949	0.11970765
55	0x3e24034c	0.16016883
56	0x3cce75e9	0.025202708
57	0xbcaba366	-0.020951938
58	0xbd535196	-0.05159148
59	0x3d9a52e1	0.07535339
60	0x3e1f5f8f	0.15563796
61	0xbd29057b	-0.041264992
62	0xbce47b9c	-0.027890973
63	0x3c26fde2	0.010192366
64	0x3be3b8b6	0.0069495095
65	0x3e095c34	0.13414079
66	0xbdba752e	-0.091043815
67	0xbcd9ffdf	-0.026611267
68	0xbdb86873	-0.09004297
69	0x3cfa333e	0.030542012
70	0x3ddba755	0.107252754
71	0x3da7291d	0.081621386
72	0xbe2497fc	-0.16073602
73	0xbcb8e138	-0.02256833
74	0x3d95f177	0.073214464
75	0x3e0a3884	0.13498122
76	0x3e467461	0.19380333
77	0x3d858e30	0.06521261
78	0xbc369fec	-0.011146527
79	0x3dc1e942	0.094683185
80	0xbbb6f0b2	-0.0055828923
81	0xbd9fcb19	-0.0780241
82	0xbdcc9def	-0.09991061
83	0x3e303571	0.17207886
84	0xbe071b7e	-0.13194081
85	0xbc1026aa	-0.008798281
86	0x3dc5e264	0.09662321
87	0xbd33535b	-0.043780666
88	0x3d95021b	0.07275792
89	0x3dad2605	0.08454517
90	0x3e24d05e	0.16095111
91	0x3a75afde	0.00093722146
92	0xbc410d7d	-0.011783001
93	0xbcdcc104	-0.026947506
94	0xbbb907b6	-0.005646671
95	0xbd0ec916	-0.03485974
96	0x3d210fff	0.039321896
97	0xbb84732d	-0.0040420503
98	0x3cee4055	0.02908341
99	0xbe523ac3	-0.20530228
100	0x3b857878	0.004073199
101	0x3d41138c	0.047137782
102	0x3d198173	0.037476968
103	0x3d7ff296	0.062487207
104	0x3d0cf459	0.034412716
105	0x3e357c7a	0.17723265
106	0x3d81d949	0.06340272
107	0xbd0a8a28	-0.033823162
108	0x3d4096ec	0.04701893
109	0xbe256e99	-0.16155471
110	0x3df64734	0.120253
111	0xbcf3b738	-0.029750451
112	0x3be20bb4	0.006898368
113	0xbd674988	-0.05646661
114	0x3d17a974	0.037026837
115	0x3e2bd0e1	0.167789
116	0x3dee1150	0.11624396
117	0xbcf66a3f	-0.030079959
118	0x3e09b49a	0.134478
119	0x3dd561ea	0.10419066
120	0xbdbfdbb5	-0.09368078
121	0xbe052abf	-0.13004588
122	0xbc26a7c2	-0.0101718325
123	0xbdcefd08	-0.10106856
124	0x3c630efc	0.013858553
125	0x3cd406f5	0.025882224
126	0xbdaa0aae	-0.08302818
127	0x3e2437ef	0.16036962
128	0x3e2cbc01	0.16868593
129	0xbd983a14	-0.074329525
130	0xbab160b1	-0.0013532845
131	0x3d67e74b	0.056617063
132	0x3da6d9c2	0.08147003
133	0x3d1b9cb1	0.03799123
134	0x3e35fd25	0.17772348
135	0x3d9589c4	0.07301667
136	0xbd8b0ca7	-0.067895226
137	0xbc0f5e66	-0.008750534
138	0xbe24264d	-0.16030236
139	0xbd229361	-0.039691333
140	0x3d815adf	0.063161604
141	0x3db3356b	0.08750423
142	0x3e077551	0.13228346
143	0x3e201231	0.1563194
144	0x3d88db5c	0.066824645
145	0xbda8d9c3	-0.0824466
146	0xbd7b34ca	-0.06132964
147	0x3d97e560	0.07416797
148	0x3dfde5e8	0.12397367
149	0xbcb50075	-0.022094944
150	0xbd25b63d	-0.040457
151	0xbe135d3f	-0.1439104
152	0xbcf961cc	-0.030442141
153	0xbd945af7	-0.07243913
154	0xbe15ea36	-0.14640126
155	0xbd2bba1c	-0.041925535
156	0x3daeb8dc	0.08531353
157	0x3dd28972	0.10280122
158	0x3d9a9000	0.07546997
159	0xbdf260c5	-0.118348636
160	0xbd304e46	-0.043043397
161	0xbe3e5cdb	-0.18590109
162	0xbe3df33e	-0.18549821
163	0xbd3dc3cf	-0.046329316
164	0xbe0cb68a	-0.13741508
165	0xbd8ad261	-0.06778408
166	0xbd9e0174	-0.07715121
167	0xbdad9dc9	-0.08477361
168	0xbdf01a4a	-0.11723764
169	0xbc4d87cd	-0.012544584
170	0x3def791d	0.116930224
171	0x3e3a5bd7	0.18199097
172	0xbe1c2633	-0.15248947
173	0x3cca5b6d	0.024701798
174	0xbd8b89c5	-0.06813387
175	0x3e01ee46	0.1268855
176	0x3e275130	0.16339564
177	0x3d7f3462	0.062305816
178	0x3cef8531	0.029238315
179	0xbc8948f7	-0.016758425
180	0xbdbcafc2	-0.09213211
181	0xbe0e8967	-0.13919602
182	0xbe0fb95e	-0.14035556
183	0x3b6813f3	0.0035412281
184	0x3ce17b75	0.02752469
185	0xbe0b0a49	-0.13578142
186	0x3ddfd939	0.10930104
187	0xbddb41e1	-0.10705925
188	0xbdd5cd28	-0.10439521
189	0xbda2519d	-0.07925723
190	0xbd90eb54	-0.07076135
191	0x3dd3941d	0.10330985
192	0xbe4cbbe3	-0.19993548
193	0x3cf30103	0.029663568
194	0x3d9226c4	0.071363
195	0xbdc24375	-0.09485523
196	0xbd2d5fc5	-0.04232766
197	0x3db24eda	0.08706446
198	0xbd1eaf67	-0.038741495
199	0x3e0ded2b	0.13860004

classifier.weight f4 [20, 200]
0	0xbe65e5cb	-0.2245094
1	0x3eb36ea9	0.35045364
2	0xbe2ce877	-0.16885553
3	0xbe6d97c5	-0.23202427
4	0x3e45c7cc	0.19314498
5	0x3cfddd81	0.03098941
6	0xbd899ab5	-0.06718961
7	0xbe18b291	-0.14911868
8	0xbd6fa3e7	-0.05850592
9	0x3dd2022c	0.102543205
10	0xbdc9acb7	-0.09847396
11	0xbdfe0b95	-0.12404553
12	0x3dae8894	0.08522144
13	0xbb999e39	-0.004688051
14	0x3e8edead	0.27904263
15	0x3d83eea7	0.06442004
16	0xbda208db	-0.07911845
17	0xbd9ae48c	-0.07563123
18	0x3ec1b1b4	0.3783089
19	0x3d0ae759	0.033912037
20	0x3d4c4d9c	0.0498787
21	0x3df7a425	0.12091855
22	0x3e60b932	0.21945646
23	0x3e1134dc	0.1418032
24	0x3d8b928d	0.06815062
25	0x3dfa5a9f	0.12224316
26	0xbdf07f1b	-0.117429934
27	0xbe9d1645	-0.30681053
28	0x3e0f8b23	0.1401792
29	0xbdf580ee	-0.11987482
30	0xbce7a571	-0.02827713
31	0xbc7a23ab	-0.015267293
32	0xbe1f670a	-0.1556665
33	0x3e1b1f92	0.15148762
34	0xbe66947d	-0.22517581
35	0xbe959b23	-0.29219922
36	0xbe8ca4f7	-0.27469608
37	0x3e68f8a2	0.22751096
38	0x3c02b483	0.007977608
39	0x37f22574	2.8866089e-05
40	0xbe3ce374	-0.18446141
41	0x3e1c4967	0.15262376
42	0xbcc06a94	-0.02348832
43	0xbd4ef11c	-0.05052291
44	0x3d804c05	0.062644996
45	0xbd3c5a59	-0.0459846
46	0xbe2b4ec0	-0.1672926
47	0xbd01e4cb	-0.031712335
48	0xbdd9df24	-0.10638264
49	0x3e5bde6f	0.2147157
50	0x3e185824	0.14877373
51	0x3cdcb1c7	0.02694024
52	0x3de88750	0.11353934
53	0xbc8c665c	-0.017138653
54	0x3c397523	0.0113194315
55	0xbcb1b5aa	-0.02169307
56	0x3df7be7d	0.1209688
57	0x3dd8b4e9	0.10581381
58	0x3e223d1c	0.15843624
59	0xbe2b923b	-0.16755001
60	0x3e2d09f5	0.1689833
61	0x3e29c321	0.16578342
62	0xbe9bceb5	-0.30431142
63	0x3c4345bd	0.011918482
64	0xbc71ed6b	-0.0147660775
65	0xbe896b65	-0.26839748
66	0xbc6de742	-0.014520468
67	0x3e5c70f5	0.21527465
68	0xbe428066	-0.18994293
69	0xbe177c9f	-0.14793633
70	0x3bf9e2a0	0.0076258928
71	0xbd2999c1	-0.041406397
72	0xbda0b5d9	-0.07847185
73	0xbe183a93	-0.14866094
74	0xbd9337b2	-0.071883574
75	0xbe0aa6e4	-0.13540226
76	0x3c88b478	0.016687617
77	0xbe243382	-0.16035274
78	0x3ddefad3	0.10887685
79	0x3c7a2929	0.015268602
80	0xbdd768e5	-0.10518054
81	0x3d8f09f8	0.06984323
82	0xbd1d934d	-0.038470555
83	0xbea25ff8	-0.31713843
84	0x3e20be0c	0.15697497
85	0xbe7a8c0e	-0.24467489
86	0x3dd97e98	0.10619849
87	0x3dae52aa	0.08511861
88	0x3df6a426	0.120430276
89	0xbe2b32ed	-0.16718645
90	0xbc7c333c	-0.015393075
91	0x3e053aa0	0.13010645
92	0xbd1e4d7f	-0.038648125
93	0xbe152f2c	-0.14568776
94	0x3caad3f4	0.02085302
95	0xbd7924a1	-0.060825948
96	0xbd161d7a	-0.036649205
97	0xbe8e6878	-0.27814078
98	0x3dc0ebcc	0.09419975
99	0x3be24686	0.0069053797
100	0x3c10b3e7	0.008831955
101	0x3eeba5f8	0.46025062
102	0xbc7d2d03	-0.015452626
103	0xbdfbda23	-0.12297466
104	0x3dc21db0	0.09478319
105	0x3d9d6b84	0.076865226
106	0x3c94e578	0.018175825
107	0xbda79ed4	-0.08184591
108	0xbded5e6f	-0.115902774
109	0xbcd2a055	-0.025711218
110	0xbe755734	-0.23959047
111	0xbdedcd2a	-0.116113976
112	0x3d907730	0.07053983
113	0x3e651b9b	0.22373812
114	0xbea3abd4	-0.31967032
115	0x3e0e9ad3	0.13926248
116	0xbc9d8804	-0.019229896
117	0x3d6f512c	0.05842702
118	0xbd9d6e9a	-0.07687111
119	0x3e4a92f5	0.19782622
120	0xbe7ca47d	-0.24672122
121	0x3e172d2d	0.14763327
122	0xbd0c0511	-0.03418452
123	0xbd8b52ca	-0.068029
124	0xbe08c24d	-0.1335537
125	0xbe921af0	-0.28536177
126	0x3d8d36a9	0.06895191
127	0x3d56bc03	0.052425396
128	0x3dd43081	0.10360814
129	0x3ea1825b	0.31544766
130	0x3e477c46	0.19481
131	0xbe712893	-0.23550634
132	0xbd5e172a	-0.05422131
133	0x3e8116bf	0.25212666
134	0x3e106dd7	0.141044
135	0x3c38d80e	0.01128198
136	0x3d8ef103	0.06979563
137	0x3c9eb67e	0.019374128
138	0xbd8782fd	-0.06616781
139	0xbe3c96bd	-0.18416877
140	0xbd9a0285	-0.07520012
141	0x3cadfe11	0.021239312
142	0x3e17adb1	0.14812352
143	0x3d31b90f	0.043389376
144	0xbe234506	-0.15944299
145	0xbe5e03ff	-0.21681212
146	0x3e24b41a	0.16084328
147	0x3e5e0e24	0.21685082
148	0xbc2bc936	-0.010484984
149	0x3c1f422d	0.009720367
150	0xbe8b2e17	-0.271836
151	0xbd7de2c2	-0.06198383
152	0xbdb4f6c3	-0.088361286
153	0x3e2d0f5b	0.16900389
154	0xbcac3880	-0.021023035
155	0x3e0221da	0.12708226
156	0x3d1410b5	0.036148746
157	0x3e98e208	0.29859948
158	0x3d8b2be2	0.06795479
159	0x3dd78c86	0.105248496
160	0x3db52dc8	0.08846623
161	0xbcd46fa7	-0.025932146
162	0xbc89d9f3	-0.01682756
163	0xbe747419	-0.23872413
164	0x3c8bd7a6	0.017070603
165	0x3d52e674	0.05148931
166	0x3e013364	0.1261726
167	0x3dc97da7	0.098384194
168	0xbcf82b1e	-0.030293997
169	0xbdf5b9d1	-0.11998332
170	0x3d7612bd	0.060076464
171	0xbe9d2d77	-0.3069875
172	0x3e27711e	0.16351745
173	0xbb82b655	-0.003989021
174	0xbd92ff78	-0.07177633
175	0xbe223289	-0.1583959
176	0x3d8778db	0.06614848
177	0x3db73e78	0.08947462
178	0x3df89549	0.12137849
179	0x3e69e8f7	0.22842775
180	0x3d07d7bb	0.03316472
181	0x3e367ea1	0.17821743
182	0xbd80162d	-0.0625423
183	0xbe0588a3	-0.13040404
184	0xbc2ca29e	-0.010536818
185	0x3ea666eb	0.32500395
186	0xbce44217	-0.027863545
187	0x3e25a11d	0.16174741
188	0x3e92a913	0.28644618
189	0x3e178d11	0.14799906
190	0xbe86f0f6	-0.26355714
191	0x3e342d40	0.17595387
192	0xbc7ef302	-0.015560867
193	0x3d5c82e5	0.05383577
194	0x3db7a0de	0.0896623
195	0x3e805295	0.25063005
196	0xbe848064	-0.25879204
197	0xbcc7fd1d	-0.024412686
198	0x3bdf5211	0.006815203
199	0x3cb97e12	0.022643123
200	0xbb8b0533	-0.004242563
201	0xbd9af06e	-0.075653896
202	0x3dfc19fa	0.12309642
203	0x3d55c4e9	0.05218974
204	0xbd18206f	-0.037140306
205	0xbed39960	-0.41327953
206	0xbe9220f1	-0.28540757
207	0xbd59d1b8	-0.05317852
208	0xbe050ea5	-0.12993868
209	0x3d9f44ea	0.07776816
210	0xbeb97995	-0.36225572
211	0x3e67438c	0.22584361
212	0x3d758ba5	0.05994763
213	0x3da44124	0.08020237
214	0xbd18cda1	-0.037305478
215	0x3e06ae3c	0.13152403
216	0xbd4e3d4e	-0.050351433
217	0x3dec421b	0.11536046
218	0x3c55d85e	0.013052074
219	0xbd9b2ede	-0.075772986
220	0x3e5926f2	0.21206263
221	0xbe79f37a	-0.24409285
222	0xbdbe5a7e	-0.09294604
223	0x3daf1a59	0.08549947
224	0xbd1a5519	-0.03767881
225	0x3e2ffa3d	0.17185302
226	0x3c85c42b	0.016328892
227	0xbd5f58fe	-0.05452823
228	0x3e6f25b4	0.23354226
229	0x3e1ac8e0	0.1511569
230	0x3d4ae91d	0.04953872
231	0x3c947dcf	0.018126396
232	0x3d754466	0.059879683
233	0xbd973d4f	-0.073847406
234	0x3dcfcbaf	0.101462714
235	0x3c695747	0.014242
236	0x3d296d35	0.041363914
237	0x3c26c1bc	0.010178026
238	0xbe51d664	-0.2049194
239	0xbd87e5f9	-0.06635661
240	0xbe0cd0db	-0.13751547
241	0x3c0cddc5	0.008597796
242	0x3d2eefee	0.042709284
243	0x3d839846	0.06425528
244	0xbe1cdea6	-0.15319309
245	0x3ccfdc3d	0.025373572
246	0xbd220673	-0.03955693
247	0x3e8d04f3	0.27542838
248	0x3e8488f1	0.25885728
249	0xbd9e5884	-0.07731727
250	0x3da7790b	0.08177384
251	0x3ca0a16d	0.019608224
252	0xbd1f6f5c	-0.03892456
253	0xbe7cfc3e	-0.24705598
254	0x3e9178e1	0.28412536
255	0x3dfcc488	0.12342173

classifier.bias f4 [20]
0	0x3d4815b8	0.048848838
1	0x3cd22c6a	0.025655944
2	0xbd01a531	-0.03165168
3	0xbd6e6ad0	-0.058207333
4	0x3acd3996	0.0015657421
5	0xbd33bfb2	-0.043883987
6	0xbae767ef	-0.0017654876
7	0xbd5b4727	-0.053534653
8	0x3d0baa5f	0.034098025
9	0x3d825d28	0.063654244
10	0xbd655899	-0.055992696
11	0x3ccfd5ce	0.025370505
12	0x3d0949e2	0.033517726
13	0x3d44c043	0.048034918
14	0xbbfde627	-0.0077483836
15	0xbd2174be	-0.039417975
16	0xbcd65e17	-0.026167912
17	0xbd8d0c77	-0.06887143
18	0x3cb550a3	0.022133177
19	0xbd3eed33	-0.04661293
